program(1.0)
[buildInfo = dict<tensor<string, []>, tensor<string, []>>({{"coremlc-component-MIL", "5.33.4"}, {"coremlc-version", "1839.0.0"}, {"coremltools-component-torch", "2.0.1+cu117"}, {"coremltools-version", "7.0b1"}})]
{
    func main<ios16>(tensor<fp32, [1, 77]> input_ids) {
            tensor<int32, []> var_5 = const()[name = tensor<string, []>("op_5"), val = tensor<int32, []>(-1)];
            tensor<bool, []> var_6 = const()[name = tensor<string, []>("op_6"), val = tensor<bool, []>(false)];
            tensor<string, []> cast_1_dtype_0 = const()[name = tensor<string, []>("cast_1_dtype_0"), val = tensor<string, []>("int32")];
            tensor<int32, []> inputs_embeds_axis_0 = const()[name = tensor<string, []>("inputs_embeds_axis_0"), val = tensor<int32, []>(0)];
            tensor<int32, []> inputs_embeds_batch_dims_0 = const()[name = tensor<string, []>("inputs_embeds_batch_dims_0"), val = tensor<int32, []>(0)];
            tensor<fp16, [49408, 1280]> text_encoder_text_model_embeddings_token_embedding_weight_to_fp16 = const()[name = tensor<string, []>("text_encoder_text_model_embeddings_token_embedding_weight_to_fp16"), val = tensor<fp16, [49408, 1280]>(BLOBFILE(path = tensor<string, []>("@model_path/weights/weight.bin"), offset = tensor<uint64, []>(64)))];
            tensor<int32, [1, 77]> cast_1322 = cast(dtype = cast_1_dtype_0, x = input_ids)[name = tensor<string, []>("cast_1322")];
            tensor<fp16, [1, 77, 1280]> inputs_embeds_cast = gather(axis = inputs_embeds_axis_0, batch_dims = inputs_embeds_batch_dims_0, indices = cast_1322, x = text_encoder_text_model_embeddings_token_embedding_weight_to_fp16)[name = tensor<string, []>("inputs_embeds_cast")];
            tensor<fp16, [1, 77, 1280]> position_embeddings_to_fp16 = const()[name = tensor<string, []>("position_embeddings_to_fp16"), val = tensor<fp16, [1, 77, 1280]>(BLOBFILE(path = tensor<string, []>("@model_path/weights/weight.bin"), offset = tensor<uint64, []>(126484608)))];
            tensor<fp16, [1, 77, 1280]> input_3_cast = add(x = inputs_embeds_cast, y = position_embeddings_to_fp16)[name = tensor<string, []>("input_3_cast")];
            tensor<int32, [1]> hidden_states_1_axes_0 = const()[name = tensor<string, []>("hidden_states_1_axes_0"), val = tensor<int32, [1]>([-1])];
            tensor<fp16, [1280]> text_encoder_text_model_encoder_layers_0_layer_norm1_weight_to_fp16 = const()[name = tensor<string, []>("text_encoder_text_model_encoder_layers_0_layer_norm1_weight_to_fp16"), val = tensor<fp16, [1280]>(BLOBFILE(path = tensor<string, []>("@model_path/weights/weight.bin"), offset = tensor<uint64, []>(126681792)))];
            tensor<fp16, [1280]> text_encoder_text_model_encoder_layers_0_layer_norm1_bias_to_fp16 = const()[name = tensor<string, []>("text_encoder_text_model_encoder_layers_0_layer_norm1_bias_to_fp16"), val = tensor<fp16, [1280]>(BLOBFILE(path = tensor<string, []>("@model_path/weights/weight.bin"), offset = tensor<uint64, []>(126684416)))];
            tensor<fp16, []> var_12_to_fp16 = const()[name = tensor<string, []>("op_12_to_fp16"), val = tensor<fp16, []>(0x1.5p-17)];
            tensor<fp16, [1, 77, 1280]> hidden_states_1_cast = layer_norm(axes = hidden_states_1_axes_0, beta = text_encoder_text_model_encoder_layers_0_layer_norm1_bias_to_fp16, epsilon = var_12_to_fp16, gamma = text_encoder_text_model_encoder_layers_0_layer_norm1_weight_to_fp16, x = input_3_cast)[name = tensor<string, []>("hidden_states_1_cast")];
            tensor<fp16, [1280, 1280]> text_encoder_text_model_encoder_layers_0_self_attn_q_proj_weight_to_fp16 = const()[name = tensor<string, []>("text_encoder_text_model_encoder_layers_0_self_attn_q_proj_weight_to_fp16"), val = tensor<fp16, [1280, 1280]>(BLOBFILE(path = tensor<string, []>("@model_path/weights/weight.bin"), offset = tensor<uint64, []>(126687040)))];
            tensor<fp16, [1280]> text_encoder_text_model_encoder_layers_0_self_attn_q_proj_bias_to_fp16 = const()[name = tensor<string, []>("text_encoder_text_model_encoder_layers_0_self_attn_q_proj_bias_to_fp16"), val = tensor<fp16, [1280]>(BLOBFILE(path = tensor<string, []>("@model_path/weights/weight.bin"), offset = tensor<uint64, []>(129963904)))];
            tensor<fp16, [1, 77, 1280]> var_128_cast = linear(bias = text_encoder_text_model_encoder_layers_0_self_attn_q_proj_bias_to_fp16, weight = text_encoder_text_model_encoder_layers_0_self_attn_q_proj_weight_to_fp16, x = hidden_states_1_cast)[name = tensor<string, []>("op_128_cast")];
            tensor<fp16, []> var_129_to_fp16 = const()[name = tensor<string, []>("op_129_to_fp16"), val = tensor<fp16, []>(0x1p-3)];
            tensor<fp16, [1, 77, 1280]> tensor_5_cast = mul(x = var_128_cast, y = var_129_to_fp16)[name = tensor<string, []>("tensor_5_cast")];
            tensor<fp16, [1280, 1280]> text_encoder_text_model_encoder_layers_0_self_attn_k_proj_weight_to_fp16 = const()[name = tensor<string, []>("text_encoder_text_model_encoder_layers_0_self_attn_k_proj_weight_to_fp16"), val = tensor<fp16, [1280, 1280]>(BLOBFILE(path = tensor<string, []>("@model_path/weights/weight.bin"), offset = tensor<uint64, []>(129966528)))];
            tensor<fp16, [1280]> text_encoder_text_model_encoder_layers_0_self_attn_k_proj_bias_to_fp16 = const()[name = tensor<string, []>("text_encoder_text_model_encoder_layers_0_self_attn_k_proj_bias_to_fp16"), val = tensor<fp16, [1280]>(BLOBFILE(path = tensor<string, []>("@model_path/weights/weight.bin"), offset = tensor<uint64, []>(133243392)))];
            tensor<fp16, [1, 77, 1280]> tensor_1_cast = linear(bias = text_encoder_text_model_encoder_layers_0_self_attn_k_proj_bias_to_fp16, weight = text_encoder_text_model_encoder_layers_0_self_attn_k_proj_weight_to_fp16, x = hidden_states_1_cast)[name = tensor<string, []>("tensor_1_cast")];
            tensor<int32, [4]> var_134 = const()[name = tensor<string, []>("op_134"), val = tensor<int32, [4]>([1, -1, 20, 64])];
            tensor<fp16, [1, 77, 20, 64]> var_135_cast = reshape(shape = var_134, x = tensor_1_cast)[name = tensor<string, []>("op_135_cast")];
            tensor<int32, [4]> var_136_perm_0 = const()[name = tensor<string, []>("op_136_perm_0"), val = tensor<int32, [4]>([0, 2, 1, 3])];
            tensor<fp16, [1280, 1280]> text_encoder_text_model_encoder_layers_0_self_attn_v_proj_weight_to_fp16 = const()[name = tensor<string, []>("text_encoder_text_model_encoder_layers_0_self_attn_v_proj_weight_to_fp16"), val = tensor<fp16, [1280, 1280]>(BLOBFILE(path = tensor<string, []>("@model_path/weights/weight.bin"), offset = tensor<uint64, []>(133246016)))];
            tensor<fp16, [1280]> text_encoder_text_model_encoder_layers_0_self_attn_v_proj_bias_to_fp16 = const()[name = tensor<string, []>("text_encoder_text_model_encoder_layers_0_self_attn_v_proj_bias_to_fp16"), val = tensor<fp16, [1280]>(BLOBFILE(path = tensor<string, []>("@model_path/weights/weight.bin"), offset = tensor<uint64, []>(136522880)))];
            tensor<fp16, [1, 77, 1280]> tensor_3_cast = linear(bias = text_encoder_text_model_encoder_layers_0_self_attn_v_proj_bias_to_fp16, weight = text_encoder_text_model_encoder_layers_0_self_attn_v_proj_weight_to_fp16, x = hidden_states_1_cast)[name = tensor<string, []>("tensor_3_cast")];
            tensor<int32, [4]> var_141 = const()[name = tensor<string, []>("op_141"), val = tensor<int32, [4]>([1, -1, 20, 64])];
            tensor<fp16, [1, 77, 20, 64]> var_142_cast = reshape(shape = var_141, x = tensor_3_cast)[name = tensor<string, []>("op_142_cast")];
            tensor<int32, [4]> var_143_perm_0 = const()[name = tensor<string, []>("op_143_perm_0"), val = tensor<int32, [4]>([0, 2, 1, 3])];
            tensor<int32, [4]> var_150 = const()[name = tensor<string, []>("op_150"), val = tensor<int32, [4]>([1, 77, 20, 64])];
            tensor<fp16, [1, 77, 20, 64]> var_151_cast = reshape(shape = var_150, x = tensor_5_cast)[name = tensor<string, []>("op_151_cast")];
            tensor<int32, [4]> var_152_perm_0 = const()[name = tensor<string, []>("op_152_perm_0"), val = tensor<int32, [4]>([0, 2, 1, 3])];
            tensor<int32, [3]> var_154 = const()[name = tensor<string, []>("op_154"), val = tensor<int32, [3]>([20, -1, 64])];
            tensor<fp16, [1, 20, 77, 64]> transpose_158 = transpose(perm = var_152_perm_0, x = var_151_cast)[name = tensor<string, []>("transpose_158")];
            tensor<fp16, [20, 77, 64]> query_states_1_cast = reshape(shape = var_154, x = transpose_158)[name = tensor<string, []>("query_states_1_cast")];
            tensor<int32, [3]> var_156 = const()[name = tensor<string, []>("op_156"), val = tensor<int32, [3]>([20, -1, 64])];
            tensor<fp16, [1, 20, 77, 64]> transpose_160 = transpose(perm = var_136_perm_0, x = var_135_cast)[name = tensor<string, []>("transpose_160")];
            tensor<fp16, [20, 77, 64]> key_states_3_cast = reshape(shape = var_156, x = transpose_160)[name = tensor<string, []>("key_states_3_cast")];
            tensor<int32, [3]> var_158 = const()[name = tensor<string, []>("op_158"), val = tensor<int32, [3]>([20, -1, 64])];
            tensor<fp16, [1, 20, 77, 64]> transpose_159 = transpose(perm = var_143_perm_0, x = var_142_cast)[name = tensor<string, []>("transpose_159")];
            tensor<fp16, [20, 77, 64]> value_states_3_cast = reshape(shape = var_158, x = transpose_159)[name = tensor<string, []>("value_states_3_cast")];
            tensor<int32, [3]> var_161_perm_0 = const()[name = tensor<string, []>("op_161_perm_0"), val = tensor<int32, [3]>([0, 2, 1])];
            tensor<bool, []> attn_weights_1_transpose_x_0 = const()[name = tensor<string, []>("attn_weights_1_transpose_x_0"), val = tensor<bool, []>(false)];
            tensor<bool, []> attn_weights_1_transpose_y_0 = const()[name = tensor<string, []>("attn_weights_1_transpose_y_0"), val = tensor<bool, []>(false)];
            tensor<fp16, [20, 64, 77]> transpose_157 = transpose(perm = var_161_perm_0, x = key_states_3_cast)[name = tensor<string, []>("transpose_157")];
            tensor<fp16, [20, 77, 77]> attn_weights_1_cast = matmul(transpose_x = attn_weights_1_transpose_x_0, transpose_y = attn_weights_1_transpose_y_0, x = query_states_1_cast, y = transpose_157)[name = tensor<string, []>("attn_weights_1_cast")];
            tensor<int32, [4]> var_163 = const()[name = tensor<string, []>("op_163"), val = tensor<int32, [4]>([1, 20, 77, 77])];
            tensor<fp16, [1, 20, 77, 77]> var_164_cast = reshape(shape = var_163, x = attn_weights_1_cast)[name = tensor<string, []>("op_164_cast")];
            tensor<fp16, [1, 1, 77, 77]> causal_attention_mask_to_fp16 = const()[name = tensor<string, []>("causal_attention_mask_to_fp16"), val = tensor<fp16, [1, 1, 77, 77]>(BLOBFILE(path = tensor<string, []>("@model_path/weights/weight.bin"), offset = tensor<uint64, []>(136525504)))];
            tensor<fp16, [1, 20, 77, 77]> attn_weights_3_cast = add(x = var_164_cast, y = causal_attention_mask_to_fp16)[name = tensor<string, []>("attn_weights_3_cast")];
            tensor<int32, [3]> var_169 = const()[name = tensor<string, []>("op_169"), val = tensor<int32, [3]>([20, 77, 77])];
            tensor<fp16, [20, 77, 77]> input_5_cast = reshape(shape = var_169, x = attn_weights_3_cast)[name = tensor<string, []>("input_5_cast")];
            tensor<fp16, [20, 77, 77]> input_7_cast = softmax(axis = var_5, x = input_5_cast)[name = tensor<string, []>("input_7_cast")];
            tensor<bool, []> attn_output_1_transpose_x_0 = const()[name = tensor<string, []>("attn_output_1_transpose_x_0"), val = tensor<bool, []>(false)];
            tensor<bool, []> attn_output_1_transpose_y_0 = const()[name = tensor<string, []>("attn_output_1_transpose_y_0"), val = tensor<bool, []>(false)];
            tensor<fp16, [20, 77, 64]> attn_output_1_cast = matmul(transpose_x = attn_output_1_transpose_x_0, transpose_y = attn_output_1_transpose_y_0, x = input_7_cast, y = value_states_3_cast)[name = tensor<string, []>("attn_output_1_cast")];
            tensor<int32, [4]> var_174 = const()[name = tensor<string, []>("op_174"), val = tensor<int32, [4]>([1, 20, 77, 64])];
            tensor<fp16, [1, 20, 77, 64]> attn_output_3_cast = reshape(shape = var_174, x = attn_output_1_cast)[name = tensor<string, []>("attn_output_3_cast")];
            tensor<int32, [4]> attn_output_5_perm_0 = const()[name = tensor<string, []>("attn_output_5_perm_0"), val = tensor<int32, [4]>([0, 2, 1, 3])];
            tensor<int32, [3]> var_177 = const()[name = tensor<string, []>("op_177"), val = tensor<int32, [3]>([1, 77, 1280])];
            tensor<fp16, [1, 77, 20, 64]> transpose_156 = transpose(perm = attn_output_5_perm_0, x = attn_output_3_cast)[name = tensor<string, []>("transpose_156")];
            tensor<fp16, [1, 77, 1280]> input_9_cast = reshape(shape = var_177, x = transpose_156)[name = tensor<string, []>("input_9_cast")];
            tensor<fp16, [1280, 1280]> text_encoder_text_model_encoder_layers_0_self_attn_out_proj_weight_to_fp16 = const()[name = tensor<string, []>("text_encoder_text_model_encoder_layers_0_self_attn_out_proj_weight_to_fp16"), val = tensor<fp16, [1280, 1280]>(BLOBFILE(path = tensor<string, []>("@model_path/weights/weight.bin"), offset = tensor<uint64, []>(136537472)))];
            tensor<fp16, [1280]> text_encoder_text_model_encoder_layers_0_self_attn_out_proj_bias_to_fp16 = const()[name = tensor<string, []>("text_encoder_text_model_encoder_layers_0_self_attn_out_proj_bias_to_fp16"), val = tensor<fp16, [1280]>(BLOBFILE(path = tensor<string, []>("@model_path/weights/weight.bin"), offset = tensor<uint64, []>(139814336)))];
            tensor<fp16, [1, 77, 1280]> hidden_states_3_cast = linear(bias = text_encoder_text_model_encoder_layers_0_self_attn_out_proj_bias_to_fp16, weight = text_encoder_text_model_encoder_layers_0_self_attn_out_proj_weight_to_fp16, x = input_9_cast)[name = tensor<string, []>("hidden_states_3_cast")];
            tensor<fp16, [1, 77, 1280]> input_11_cast = add(x = input_3_cast, y = hidden_states_3_cast)[name = tensor<string, []>("input_11_cast")];
            tensor<int32, [1]> input_13_axes_0 = const()[name = tensor<string, []>("input_13_axes_0"), val = tensor<int32, [1]>([-1])];
            tensor<fp16, [1280]> text_encoder_text_model_encoder_layers_0_layer_norm2_weight_to_fp16 = const()[name = tensor<string, []>("text_encoder_text_model_encoder_layers_0_layer_norm2_weight_to_fp16"), val = tensor<fp16, [1280]>(BLOBFILE(path = tensor<string, []>("@model_path/weights/weight.bin"), offset = tensor<uint64, []>(139816960)))];
            tensor<fp16, [1280]> text_encoder_text_model_encoder_layers_0_layer_norm2_bias_to_fp16 = const()[name = tensor<string, []>("text_encoder_text_model_encoder_layers_0_layer_norm2_bias_to_fp16"), val = tensor<fp16, [1280]>(BLOBFILE(path = tensor<string, []>("@model_path/weights/weight.bin"), offset = tensor<uint64, []>(139819584)))];
            tensor<fp16, [1, 77, 1280]> input_13_cast = layer_norm(axes = input_13_axes_0, beta = text_encoder_text_model_encoder_layers_0_layer_norm2_bias_to_fp16, epsilon = var_12_to_fp16, gamma = text_encoder_text_model_encoder_layers_0_layer_norm2_weight_to_fp16, x = input_11_cast)[name = tensor<string, []>("input_13_cast")];
            tensor<fp16, [5120, 1280]> text_encoder_text_model_encoder_layers_0_mlp_fc1_weight_to_fp16 = const()[name = tensor<string, []>("text_encoder_text_model_encoder_layers_0_mlp_fc1_weight_to_fp16"), val = tensor<fp16, [5120, 1280]>(BLOBFILE(path = tensor<string, []>("@model_path/weights/weight.bin"), offset = tensor<uint64, []>(139822208)))];
            tensor<fp16, [5120]> text_encoder_text_model_encoder_layers_0_mlp_fc1_bias_to_fp16 = const()[name = tensor<string, []>("text_encoder_text_model_encoder_layers_0_mlp_fc1_bias_to_fp16"), val = tensor<fp16, [5120]>(BLOBFILE(path = tensor<string, []>("@model_path/weights/weight.bin"), offset = tensor<uint64, []>(152929472)))];
            tensor<fp16, [1, 77, 5120]> input_15_cast = linear(bias = text_encoder_text_model_encoder_layers_0_mlp_fc1_bias_to_fp16, weight = text_encoder_text_model_encoder_layers_0_mlp_fc1_weight_to_fp16, x = input_13_cast)[name = tensor<string, []>("input_15_cast")];
            tensor<string, []> input_17_mode_0 = const()[name = tensor<string, []>("input_17_mode_0"), val = tensor<string, []>("EXACT")];
            tensor<fp16, [1, 77, 5120]> input_17_cast = gelu(mode = input_17_mode_0, x = input_15_cast)[name = tensor<string, []>("input_17_cast")];
            tensor<fp16, [1280, 5120]> text_encoder_text_model_encoder_layers_0_mlp_fc2_weight_to_fp16 = const()[name = tensor<string, []>("text_encoder_text_model_encoder_layers_0_mlp_fc2_weight_to_fp16"), val = tensor<fp16, [1280, 5120]>(BLOBFILE(path = tensor<string, []>("@model_path/weights/weight.bin"), offset = tensor<uint64, []>(152939776)))];
            tensor<fp16, [1280]> text_encoder_text_model_encoder_layers_0_mlp_fc2_bias_to_fp16 = const()[name = tensor<string, []>("text_encoder_text_model_encoder_layers_0_mlp_fc2_bias_to_fp16"), val = tensor<fp16, [1280]>(BLOBFILE(path = tensor<string, []>("@model_path/weights/weight.bin"), offset = tensor<uint64, []>(166047040)))];
            tensor<fp16, [1, 77, 1280]> hidden_states_5_cast = linear(bias = text_encoder_text_model_encoder_layers_0_mlp_fc2_bias_to_fp16, weight = text_encoder_text_model_encoder_layers_0_mlp_fc2_weight_to_fp16, x = input_17_cast)[name = tensor<string, []>("hidden_states_5_cast")];
            tensor<fp16, [1, 77, 1280]> input_19_cast = add(x = input_11_cast, y = hidden_states_5_cast)[name = tensor<string, []>("input_19_cast")];
            tensor<int32, [1]> hidden_states_7_axes_0 = const()[name = tensor<string, []>("hidden_states_7_axes_0"), val = tensor<int32, [1]>([-1])];
            tensor<fp16, [1280]> text_encoder_text_model_encoder_layers_1_layer_norm1_weight_to_fp16 = const()[name = tensor<string, []>("text_encoder_text_model_encoder_layers_1_layer_norm1_weight_to_fp16"), val = tensor<fp16, [1280]>(BLOBFILE(path = tensor<string, []>("@model_path/weights/weight.bin"), offset = tensor<uint64, []>(166049664)))];
            tensor<fp16, [1280]> text_encoder_text_model_encoder_layers_1_layer_norm1_bias_to_fp16 = const()[name = tensor<string, []>("text_encoder_text_model_encoder_layers_1_layer_norm1_bias_to_fp16"), val = tensor<fp16, [1280]>(BLOBFILE(path = tensor<string, []>("@model_path/weights/weight.bin"), offset = tensor<uint64, []>(166052288)))];
            tensor<fp16, [1, 77, 1280]> hidden_states_7_cast = layer_norm(axes = hidden_states_7_axes_0, beta = text_encoder_text_model_encoder_layers_1_layer_norm1_bias_to_fp16, epsilon = var_12_to_fp16, gamma = text_encoder_text_model_encoder_layers_1_layer_norm1_weight_to_fp16, x = input_19_cast)[name = tensor<string, []>("hidden_states_7_cast")];
            tensor<fp16, [1280, 1280]> text_encoder_text_model_encoder_layers_1_self_attn_q_proj_weight_to_fp16 = const()[name = tensor<string, []>("text_encoder_text_model_encoder_layers_1_self_attn_q_proj_weight_to_fp16"), val = tensor<fp16, [1280, 1280]>(BLOBFILE(path = tensor<string, []>("@model_path/weights/weight.bin"), offset = tensor<uint64, []>(166054912)))];
            tensor<fp16, [1280]> text_encoder_text_model_encoder_layers_1_self_attn_q_proj_bias_to_fp16 = const()[name = tensor<string, []>("text_encoder_text_model_encoder_layers_1_self_attn_q_proj_bias_to_fp16"), val = tensor<fp16, [1280]>(BLOBFILE(path = tensor<string, []>("@model_path/weights/weight.bin"), offset = tensor<uint64, []>(169331776)))];
            tensor<fp16, [1, 77, 1280]> var_215_cast = linear(bias = text_encoder_text_model_encoder_layers_1_self_attn_q_proj_bias_to_fp16, weight = text_encoder_text_model_encoder_layers_1_self_attn_q_proj_weight_to_fp16, x = hidden_states_7_cast)[name = tensor<string, []>("op_215_cast")];
            tensor<fp16, []> var_216_to_fp16 = const()[name = tensor<string, []>("op_216_to_fp16"), val = tensor<fp16, []>(0x1p-3)];
            tensor<fp16, [1, 77, 1280]> tensor_11_cast = mul(x = var_215_cast, y = var_216_to_fp16)[name = tensor<string, []>("tensor_11_cast")];
            tensor<fp16, [1280, 1280]> text_encoder_text_model_encoder_layers_1_self_attn_k_proj_weight_to_fp16 = const()[name = tensor<string, []>("text_encoder_text_model_encoder_layers_1_self_attn_k_proj_weight_to_fp16"), val = tensor<fp16, [1280, 1280]>(BLOBFILE(path = tensor<string, []>("@model_path/weights/weight.bin"), offset = tensor<uint64, []>(169334400)))];
            tensor<fp16, [1280]> text_encoder_text_model_encoder_layers_1_self_attn_k_proj_bias_to_fp16 = const()[name = tensor<string, []>("text_encoder_text_model_encoder_layers_1_self_attn_k_proj_bias_to_fp16"), val = tensor<fp16, [1280]>(BLOBFILE(path = tensor<string, []>("@model_path/weights/weight.bin"), offset = tensor<uint64, []>(172611264)))];
            tensor<fp16, [1, 77, 1280]> tensor_7_cast = linear(bias = text_encoder_text_model_encoder_layers_1_self_attn_k_proj_bias_to_fp16, weight = text_encoder_text_model_encoder_layers_1_self_attn_k_proj_weight_to_fp16, x = hidden_states_7_cast)[name = tensor<string, []>("tensor_7_cast")];
            tensor<int32, [4]> var_221 = const()[name = tensor<string, []>("op_221"), val = tensor<int32, [4]>([1, -1, 20, 64])];
            tensor<fp16, [1, 77, 20, 64]> var_222_cast = reshape(shape = var_221, x = tensor_7_cast)[name = tensor<string, []>("op_222_cast")];
            tensor<int32, [4]> var_223_perm_0 = const()[name = tensor<string, []>("op_223_perm_0"), val = tensor<int32, [4]>([0, 2, 1, 3])];
            tensor<fp16, [1280, 1280]> text_encoder_text_model_encoder_layers_1_self_attn_v_proj_weight_to_fp16 = const()[name = tensor<string, []>("text_encoder_text_model_encoder_layers_1_self_attn_v_proj_weight_to_fp16"), val = tensor<fp16, [1280, 1280]>(BLOBFILE(path = tensor<string, []>("@model_path/weights/weight.bin"), offset = tensor<uint64, []>(172613888)))];
            tensor<fp16, [1280]> text_encoder_text_model_encoder_layers_1_self_attn_v_proj_bias_to_fp16 = const()[name = tensor<string, []>("text_encoder_text_model_encoder_layers_1_self_attn_v_proj_bias_to_fp16"), val = tensor<fp16, [1280]>(BLOBFILE(path = tensor<string, []>("@model_path/weights/weight.bin"), offset = tensor<uint64, []>(175890752)))];
            tensor<fp16, [1, 77, 1280]> tensor_9_cast = linear(bias = text_encoder_text_model_encoder_layers_1_self_attn_v_proj_bias_to_fp16, weight = text_encoder_text_model_encoder_layers_1_self_attn_v_proj_weight_to_fp16, x = hidden_states_7_cast)[name = tensor<string, []>("tensor_9_cast")];
            tensor<int32, [4]> var_228 = const()[name = tensor<string, []>("op_228"), val = tensor<int32, [4]>([1, -1, 20, 64])];
            tensor<fp16, [1, 77, 20, 64]> var_229_cast = reshape(shape = var_228, x = tensor_9_cast)[name = tensor<string, []>("op_229_cast")];
            tensor<int32, [4]> var_230_perm_0 = const()[name = tensor<string, []>("op_230_perm_0"), val = tensor<int32, [4]>([0, 2, 1, 3])];
            tensor<int32, [4]> var_237 = const()[name = tensor<string, []>("op_237"), val = tensor<int32, [4]>([1, 77, 20, 64])];
            tensor<fp16, [1, 77, 20, 64]> var_238_cast = reshape(shape = var_237, x = tensor_11_cast)[name = tensor<string, []>("op_238_cast")];
            tensor<int32, [4]> var_239_perm_0 = const()[name = tensor<string, []>("op_239_perm_0"), val = tensor<int32, [4]>([0, 2, 1, 3])];
            tensor<int32, [3]> var_241 = const()[name = tensor<string, []>("op_241"), val = tensor<int32, [3]>([20, -1, 64])];
            tensor<fp16, [1, 20, 77, 64]> transpose_153 = transpose(perm = var_239_perm_0, x = var_238_cast)[name = tensor<string, []>("transpose_153")];
            tensor<fp16, [20, 77, 64]> query_states_3_cast = reshape(shape = var_241, x = transpose_153)[name = tensor<string, []>("query_states_3_cast")];
            tensor<int32, [3]> var_243 = const()[name = tensor<string, []>("op_243"), val = tensor<int32, [3]>([20, -1, 64])];
            tensor<fp16, [1, 20, 77, 64]> transpose_155 = transpose(perm = var_223_perm_0, x = var_222_cast)[name = tensor<string, []>("transpose_155")];
            tensor<fp16, [20, 77, 64]> key_states_7_cast = reshape(shape = var_243, x = transpose_155)[name = tensor<string, []>("key_states_7_cast")];
            tensor<int32, [3]> var_245 = const()[name = tensor<string, []>("op_245"), val = tensor<int32, [3]>([20, -1, 64])];
            tensor<fp16, [1, 20, 77, 64]> transpose_154 = transpose(perm = var_230_perm_0, x = var_229_cast)[name = tensor<string, []>("transpose_154")];
            tensor<fp16, [20, 77, 64]> value_states_7_cast = reshape(shape = var_245, x = transpose_154)[name = tensor<string, []>("value_states_7_cast")];
            tensor<int32, [3]> var_248_perm_0 = const()[name = tensor<string, []>("op_248_perm_0"), val = tensor<int32, [3]>([0, 2, 1])];
            tensor<bool, []> attn_weights_7_transpose_x_0 = const()[name = tensor<string, []>("attn_weights_7_transpose_x_0"), val = tensor<bool, []>(false)];
            tensor<bool, []> attn_weights_7_transpose_y_0 = const()[name = tensor<string, []>("attn_weights_7_transpose_y_0"), val = tensor<bool, []>(false)];
            tensor<fp16, [20, 64, 77]> transpose_152 = transpose(perm = var_248_perm_0, x = key_states_7_cast)[name = tensor<string, []>("transpose_152")];
            tensor<fp16, [20, 77, 77]> attn_weights_7_cast = matmul(transpose_x = attn_weights_7_transpose_x_0, transpose_y = attn_weights_7_transpose_y_0, x = query_states_3_cast, y = transpose_152)[name = tensor<string, []>("attn_weights_7_cast")];
            tensor<int32, [4]> var_250 = const()[name = tensor<string, []>("op_250"), val = tensor<int32, [4]>([1, 20, 77, 77])];
            tensor<fp16, [1, 20, 77, 77]> var_251_cast = reshape(shape = var_250, x = attn_weights_7_cast)[name = tensor<string, []>("op_251_cast")];
            tensor<fp16, [1, 20, 77, 77]> attn_weights_9_cast = add(x = var_251_cast, y = causal_attention_mask_to_fp16)[name = tensor<string, []>("attn_weights_9_cast")];
            tensor<int32, [3]> var_256 = const()[name = tensor<string, []>("op_256"), val = tensor<int32, [3]>([20, 77, 77])];
            tensor<fp16, [20, 77, 77]> input_21_cast = reshape(shape = var_256, x = attn_weights_9_cast)[name = tensor<string, []>("input_21_cast")];
            tensor<fp16, [20, 77, 77]> input_23_cast = softmax(axis = var_5, x = input_21_cast)[name = tensor<string, []>("input_23_cast")];
            tensor<bool, []> attn_output_7_transpose_x_0 = const()[name = tensor<string, []>("attn_output_7_transpose_x_0"), val = tensor<bool, []>(false)];
            tensor<bool, []> attn_output_7_transpose_y_0 = const()[name = tensor<string, []>("attn_output_7_transpose_y_0"), val = tensor<bool, []>(false)];
            tensor<fp16, [20, 77, 64]> attn_output_7_cast = matmul(transpose_x = attn_output_7_transpose_x_0, transpose_y = attn_output_7_transpose_y_0, x = input_23_cast, y = value_states_7_cast)[name = tensor<string, []>("attn_output_7_cast")];
            tensor<int32, [4]> var_261 = const()[name = tensor<string, []>("op_261"), val = tensor<int32, [4]>([1, 20, 77, 64])];
            tensor<fp16, [1, 20, 77, 64]> attn_output_9_cast = reshape(shape = var_261, x = attn_output_7_cast)[name = tensor<string, []>("attn_output_9_cast")];
            tensor<int32, [4]> attn_output_11_perm_0 = const()[name = tensor<string, []>("attn_output_11_perm_0"), val = tensor<int32, [4]>([0, 2, 1, 3])];
            tensor<int32, [3]> var_264 = const()[name = tensor<string, []>("op_264"), val = tensor<int32, [3]>([1, 77, 1280])];
            tensor<fp16, [1, 77, 20, 64]> transpose_151 = transpose(perm = attn_output_11_perm_0, x = attn_output_9_cast)[name = tensor<string, []>("transpose_151")];
            tensor<fp16, [1, 77, 1280]> input_25_cast = reshape(shape = var_264, x = transpose_151)[name = tensor<string, []>("input_25_cast")];
            tensor<fp16, [1280, 1280]> text_encoder_text_model_encoder_layers_1_self_attn_out_proj_weight_to_fp16 = const()[name = tensor<string, []>("text_encoder_text_model_encoder_layers_1_self_attn_out_proj_weight_to_fp16"), val = tensor<fp16, [1280, 1280]>(BLOBFILE(path = tensor<string, []>("@model_path/weights/weight.bin"), offset = tensor<uint64, []>(175893376)))];
            tensor<fp16, [1280]> text_encoder_text_model_encoder_layers_1_self_attn_out_proj_bias_to_fp16 = const()[name = tensor<string, []>("text_encoder_text_model_encoder_layers_1_self_attn_out_proj_bias_to_fp16"), val = tensor<fp16, [1280]>(BLOBFILE(path = tensor<string, []>("@model_path/weights/weight.bin"), offset = tensor<uint64, []>(179170240)))];
            tensor<fp16, [1, 77, 1280]> hidden_states_9_cast = linear(bias = text_encoder_text_model_encoder_layers_1_self_attn_out_proj_bias_to_fp16, weight = text_encoder_text_model_encoder_layers_1_self_attn_out_proj_weight_to_fp16, x = input_25_cast)[name = tensor<string, []>("hidden_states_9_cast")];
            tensor<fp16, [1, 77, 1280]> input_27_cast = add(x = input_19_cast, y = hidden_states_9_cast)[name = tensor<string, []>("input_27_cast")];
            tensor<int32, [1]> input_29_axes_0 = const()[name = tensor<string, []>("input_29_axes_0"), val = tensor<int32, [1]>([-1])];
            tensor<fp16, [1280]> text_encoder_text_model_encoder_layers_1_layer_norm2_weight_to_fp16 = const()[name = tensor<string, []>("text_encoder_text_model_encoder_layers_1_layer_norm2_weight_to_fp16"), val = tensor<fp16, [1280]>(BLOBFILE(path = tensor<string, []>("@model_path/weights/weight.bin"), offset = tensor<uint64, []>(179172864)))];
            tensor<fp16, [1280]> text_encoder_text_model_encoder_layers_1_layer_norm2_bias_to_fp16 = const()[name = tensor<string, []>("text_encoder_text_model_encoder_layers_1_layer_norm2_bias_to_fp16"), val = tensor<fp16, [1280]>(BLOBFILE(path = tensor<string, []>("@model_path/weights/weight.bin"), offset = tensor<uint64, []>(179175488)))];
            tensor<fp16, [1, 77, 1280]> input_29_cast = layer_norm(axes = input_29_axes_0, beta = text_encoder_text_model_encoder_layers_1_layer_norm2_bias_to_fp16, epsilon = var_12_to_fp16, gamma = text_encoder_text_model_encoder_layers_1_layer_norm2_weight_to_fp16, x = input_27_cast)[name = tensor<string, []>("input_29_cast")];
            tensor<fp16, [5120, 1280]> text_encoder_text_model_encoder_layers_1_mlp_fc1_weight_to_fp16 = const()[name = tensor<string, []>("text_encoder_text_model_encoder_layers_1_mlp_fc1_weight_to_fp16"), val = tensor<fp16, [5120, 1280]>(BLOBFILE(path = tensor<string, []>("@model_path/weights/weight.bin"), offset = tensor<uint64, []>(179178112)))];
            tensor<fp16, [5120]> text_encoder_text_model_encoder_layers_1_mlp_fc1_bias_to_fp16 = const()[name = tensor<string, []>("text_encoder_text_model_encoder_layers_1_mlp_fc1_bias_to_fp16"), val = tensor<fp16, [5120]>(BLOBFILE(path = tensor<string, []>("@model_path/weights/weight.bin"), offset = tensor<uint64, []>(192285376)))];
            tensor<fp16, [1, 77, 5120]> input_31_cast = linear(bias = text_encoder_text_model_encoder_layers_1_mlp_fc1_bias_to_fp16, weight = text_encoder_text_model_encoder_layers_1_mlp_fc1_weight_to_fp16, x = input_29_cast)[name = tensor<string, []>("input_31_cast")];
            tensor<string, []> input_33_mode_0 = const()[name = tensor<string, []>("input_33_mode_0"), val = tensor<string, []>("EXACT")];
            tensor<fp16, [1, 77, 5120]> input_33_cast = gelu(mode = input_33_mode_0, x = input_31_cast)[name = tensor<string, []>("input_33_cast")];
            tensor<fp16, [1280, 5120]> text_encoder_text_model_encoder_layers_1_mlp_fc2_weight_to_fp16 = const()[name = tensor<string, []>("text_encoder_text_model_encoder_layers_1_mlp_fc2_weight_to_fp16"), val = tensor<fp16, [1280, 5120]>(BLOBFILE(path = tensor<string, []>("@model_path/weights/weight.bin"), offset = tensor<uint64, []>(192295680)))];
            tensor<fp16, [1280]> text_encoder_text_model_encoder_layers_1_mlp_fc2_bias_to_fp16 = const()[name = tensor<string, []>("text_encoder_text_model_encoder_layers_1_mlp_fc2_bias_to_fp16"), val = tensor<fp16, [1280]>(BLOBFILE(path = tensor<string, []>("@model_path/weights/weight.bin"), offset = tensor<uint64, []>(205402944)))];
            tensor<fp16, [1, 77, 1280]> hidden_states_11_cast = linear(bias = text_encoder_text_model_encoder_layers_1_mlp_fc2_bias_to_fp16, weight = text_encoder_text_model_encoder_layers_1_mlp_fc2_weight_to_fp16, x = input_33_cast)[name = tensor<string, []>("hidden_states_11_cast")];
            tensor<fp16, [1, 77, 1280]> input_35_cast = add(x = input_27_cast, y = hidden_states_11_cast)[name = tensor<string, []>("input_35_cast")];
            tensor<int32, [1]> hidden_states_13_axes_0 = const()[name = tensor<string, []>("hidden_states_13_axes_0"), val = tensor<int32, [1]>([-1])];
            tensor<fp16, [1280]> text_encoder_text_model_encoder_layers_2_layer_norm1_weight_to_fp16 = const()[name = tensor<string, []>("text_encoder_text_model_encoder_layers_2_layer_norm1_weight_to_fp16"), val = tensor<fp16, [1280]>(BLOBFILE(path = tensor<string, []>("@model_path/weights/weight.bin"), offset = tensor<uint64, []>(205405568)))];
            tensor<fp16, [1280]> text_encoder_text_model_encoder_layers_2_layer_norm1_bias_to_fp16 = const()[name = tensor<string, []>("text_encoder_text_model_encoder_layers_2_layer_norm1_bias_to_fp16"), val = tensor<fp16, [1280]>(BLOBFILE(path = tensor<string, []>("@model_path/weights/weight.bin"), offset = tensor<uint64, []>(205408192)))];
            tensor<fp16, [1, 77, 1280]> hidden_states_13_cast = layer_norm(axes = hidden_states_13_axes_0, beta = text_encoder_text_model_encoder_layers_2_layer_norm1_bias_to_fp16, epsilon = var_12_to_fp16, gamma = text_encoder_text_model_encoder_layers_2_layer_norm1_weight_to_fp16, x = input_35_cast)[name = tensor<string, []>("hidden_states_13_cast")];
            tensor<fp16, [1280, 1280]> text_encoder_text_model_encoder_layers_2_self_attn_q_proj_weight_to_fp16 = const()[name = tensor<string, []>("text_encoder_text_model_encoder_layers_2_self_attn_q_proj_weight_to_fp16"), val = tensor<fp16, [1280, 1280]>(BLOBFILE(path = tensor<string, []>("@model_path/weights/weight.bin"), offset = tensor<uint64, []>(205410816)))];
            tensor<fp16, [1280]> text_encoder_text_model_encoder_layers_2_self_attn_q_proj_bias_to_fp16 = const()[name = tensor<string, []>("text_encoder_text_model_encoder_layers_2_self_attn_q_proj_bias_to_fp16"), val = tensor<fp16, [1280]>(BLOBFILE(path = tensor<string, []>("@model_path/weights/weight.bin"), offset = tensor<uint64, []>(208687680)))];
            tensor<fp16, [1, 77, 1280]> var_302_cast = linear(bias = text_encoder_text_model_encoder_layers_2_self_attn_q_proj_bias_to_fp16, weight = text_encoder_text_model_encoder_layers_2_self_attn_q_proj_weight_to_fp16, x = hidden_states_13_cast)[name = tensor<string, []>("op_302_cast")];
            tensor<fp16, []> var_303_to_fp16 = const()[name = tensor<string, []>("op_303_to_fp16"), val = tensor<fp16, []>(0x1p-3)];
            tensor<fp16, [1, 77, 1280]> tensor_17_cast = mul(x = var_302_cast, y = var_303_to_fp16)[name = tensor<string, []>("tensor_17_cast")];
            tensor<fp16, [1280, 1280]> text_encoder_text_model_encoder_layers_2_self_attn_k_proj_weight_to_fp16 = const()[name = tensor<string, []>("text_encoder_text_model_encoder_layers_2_self_attn_k_proj_weight_to_fp16"), val = tensor<fp16, [1280, 1280]>(BLOBFILE(path = tensor<string, []>("@model_path/weights/weight.bin"), offset = tensor<uint64, []>(208690304)))];
            tensor<fp16, [1280]> text_encoder_text_model_encoder_layers_2_self_attn_k_proj_bias_to_fp16 = const()[name = tensor<string, []>("text_encoder_text_model_encoder_layers_2_self_attn_k_proj_bias_to_fp16"), val = tensor<fp16, [1280]>(BLOBFILE(path = tensor<string, []>("@model_path/weights/weight.bin"), offset = tensor<uint64, []>(211967168)))];
            tensor<fp16, [1, 77, 1280]> tensor_13_cast = linear(bias = text_encoder_text_model_encoder_layers_2_self_attn_k_proj_bias_to_fp16, weight = text_encoder_text_model_encoder_layers_2_self_attn_k_proj_weight_to_fp16, x = hidden_states_13_cast)[name = tensor<string, []>("tensor_13_cast")];
            tensor<int32, [4]> var_308 = const()[name = tensor<string, []>("op_308"), val = tensor<int32, [4]>([1, -1, 20, 64])];
            tensor<fp16, [1, 77, 20, 64]> var_309_cast = reshape(shape = var_308, x = tensor_13_cast)[name = tensor<string, []>("op_309_cast")];
            tensor<int32, [4]> var_310_perm_0 = const()[name = tensor<string, []>("op_310_perm_0"), val = tensor<int32, [4]>([0, 2, 1, 3])];
            tensor<fp16, [1280, 1280]> text_encoder_text_model_encoder_layers_2_self_attn_v_proj_weight_to_fp16 = const()[name = tensor<string, []>("text_encoder_text_model_encoder_layers_2_self_attn_v_proj_weight_to_fp16"), val = tensor<fp16, [1280, 1280]>(BLOBFILE(path = tensor<string, []>("@model_path/weights/weight.bin"), offset = tensor<uint64, []>(211969792)))];
            tensor<fp16, [1280]> text_encoder_text_model_encoder_layers_2_self_attn_v_proj_bias_to_fp16 = const()[name = tensor<string, []>("text_encoder_text_model_encoder_layers_2_self_attn_v_proj_bias_to_fp16"), val = tensor<fp16, [1280]>(BLOBFILE(path = tensor<string, []>("@model_path/weights/weight.bin"), offset = tensor<uint64, []>(215246656)))];
            tensor<fp16, [1, 77, 1280]> tensor_15_cast = linear(bias = text_encoder_text_model_encoder_layers_2_self_attn_v_proj_bias_to_fp16, weight = text_encoder_text_model_encoder_layers_2_self_attn_v_proj_weight_to_fp16, x = hidden_states_13_cast)[name = tensor<string, []>("tensor_15_cast")];
            tensor<int32, [4]> var_315 = const()[name = tensor<string, []>("op_315"), val = tensor<int32, [4]>([1, -1, 20, 64])];
            tensor<fp16, [1, 77, 20, 64]> var_316_cast = reshape(shape = var_315, x = tensor_15_cast)[name = tensor<string, []>("op_316_cast")];
            tensor<int32, [4]> var_317_perm_0 = const()[name = tensor<string, []>("op_317_perm_0"), val = tensor<int32, [4]>([0, 2, 1, 3])];
            tensor<int32, [4]> var_324 = const()[name = tensor<string, []>("op_324"), val = tensor<int32, [4]>([1, 77, 20, 64])];
            tensor<fp16, [1, 77, 20, 64]> var_325_cast = reshape(shape = var_324, x = tensor_17_cast)[name = tensor<string, []>("op_325_cast")];
            tensor<int32, [4]> var_326_perm_0 = const()[name = tensor<string, []>("op_326_perm_0"), val = tensor<int32, [4]>([0, 2, 1, 3])];
            tensor<int32, [3]> var_328 = const()[name = tensor<string, []>("op_328"), val = tensor<int32, [3]>([20, -1, 64])];
            tensor<fp16, [1, 20, 77, 64]> transpose_148 = transpose(perm = var_326_perm_0, x = var_325_cast)[name = tensor<string, []>("transpose_148")];
            tensor<fp16, [20, 77, 64]> query_states_5_cast = reshape(shape = var_328, x = transpose_148)[name = tensor<string, []>("query_states_5_cast")];
            tensor<int32, [3]> var_330 = const()[name = tensor<string, []>("op_330"), val = tensor<int32, [3]>([20, -1, 64])];
            tensor<fp16, [1, 20, 77, 64]> transpose_150 = transpose(perm = var_310_perm_0, x = var_309_cast)[name = tensor<string, []>("transpose_150")];
            tensor<fp16, [20, 77, 64]> key_states_11_cast = reshape(shape = var_330, x = transpose_150)[name = tensor<string, []>("key_states_11_cast")];
            tensor<int32, [3]> var_332 = const()[name = tensor<string, []>("op_332"), val = tensor<int32, [3]>([20, -1, 64])];
            tensor<fp16, [1, 20, 77, 64]> transpose_149 = transpose(perm = var_317_perm_0, x = var_316_cast)[name = tensor<string, []>("transpose_149")];
            tensor<fp16, [20, 77, 64]> value_states_11_cast = reshape(shape = var_332, x = transpose_149)[name = tensor<string, []>("value_states_11_cast")];
            tensor<int32, [3]> var_335_perm_0 = const()[name = tensor<string, []>("op_335_perm_0"), val = tensor<int32, [3]>([0, 2, 1])];
            tensor<bool, []> attn_weights_13_transpose_x_0 = const()[name = tensor<string, []>("attn_weights_13_transpose_x_0"), val = tensor<bool, []>(false)];
            tensor<bool, []> attn_weights_13_transpose_y_0 = const()[name = tensor<string, []>("attn_weights_13_transpose_y_0"), val = tensor<bool, []>(false)];
            tensor<fp16, [20, 64, 77]> transpose_147 = transpose(perm = var_335_perm_0, x = key_states_11_cast)[name = tensor<string, []>("transpose_147")];
            tensor<fp16, [20, 77, 77]> attn_weights_13_cast = matmul(transpose_x = attn_weights_13_transpose_x_0, transpose_y = attn_weights_13_transpose_y_0, x = query_states_5_cast, y = transpose_147)[name = tensor<string, []>("attn_weights_13_cast")];
            tensor<int32, [4]> var_337 = const()[name = tensor<string, []>("op_337"), val = tensor<int32, [4]>([1, 20, 77, 77])];
            tensor<fp16, [1, 20, 77, 77]> var_338_cast = reshape(shape = var_337, x = attn_weights_13_cast)[name = tensor<string, []>("op_338_cast")];
            tensor<fp16, [1, 20, 77, 77]> attn_weights_15_cast = add(x = var_338_cast, y = causal_attention_mask_to_fp16)[name = tensor<string, []>("attn_weights_15_cast")];
            tensor<int32, [3]> var_343 = const()[name = tensor<string, []>("op_343"), val = tensor<int32, [3]>([20, 77, 77])];
            tensor<fp16, [20, 77, 77]> input_37_cast = reshape(shape = var_343, x = attn_weights_15_cast)[name = tensor<string, []>("input_37_cast")];
            tensor<fp16, [20, 77, 77]> input_39_cast = softmax(axis = var_5, x = input_37_cast)[name = tensor<string, []>("input_39_cast")];
            tensor<bool, []> attn_output_13_transpose_x_0 = const()[name = tensor<string, []>("attn_output_13_transpose_x_0"), val = tensor<bool, []>(false)];
            tensor<bool, []> attn_output_13_transpose_y_0 = const()[name = tensor<string, []>("attn_output_13_transpose_y_0"), val = tensor<bool, []>(false)];
            tensor<fp16, [20, 77, 64]> attn_output_13_cast = matmul(transpose_x = attn_output_13_transpose_x_0, transpose_y = attn_output_13_transpose_y_0, x = input_39_cast, y = value_states_11_cast)[name = tensor<string, []>("attn_output_13_cast")];
            tensor<int32, [4]> var_348 = const()[name = tensor<string, []>("op_348"), val = tensor<int32, [4]>([1, 20, 77, 64])];
            tensor<fp16, [1, 20, 77, 64]> attn_output_15_cast = reshape(shape = var_348, x = attn_output_13_cast)[name = tensor<string, []>("attn_output_15_cast")];
            tensor<int32, [4]> attn_output_17_perm_0 = const()[name = tensor<string, []>("attn_output_17_perm_0"), val = tensor<int32, [4]>([0, 2, 1, 3])];
            tensor<int32, [3]> var_351 = const()[name = tensor<string, []>("op_351"), val = tensor<int32, [3]>([1, 77, 1280])];
            tensor<fp16, [1, 77, 20, 64]> transpose_146 = transpose(perm = attn_output_17_perm_0, x = attn_output_15_cast)[name = tensor<string, []>("transpose_146")];
            tensor<fp16, [1, 77, 1280]> input_41_cast = reshape(shape = var_351, x = transpose_146)[name = tensor<string, []>("input_41_cast")];
            tensor<fp16, [1280, 1280]> text_encoder_text_model_encoder_layers_2_self_attn_out_proj_weight_to_fp16 = const()[name = tensor<string, []>("text_encoder_text_model_encoder_layers_2_self_attn_out_proj_weight_to_fp16"), val = tensor<fp16, [1280, 1280]>(BLOBFILE(path = tensor<string, []>("@model_path/weights/weight.bin"), offset = tensor<uint64, []>(215249280)))];
            tensor<fp16, [1280]> text_encoder_text_model_encoder_layers_2_self_attn_out_proj_bias_to_fp16 = const()[name = tensor<string, []>("text_encoder_text_model_encoder_layers_2_self_attn_out_proj_bias_to_fp16"), val = tensor<fp16, [1280]>(BLOBFILE(path = tensor<string, []>("@model_path/weights/weight.bin"), offset = tensor<uint64, []>(218526144)))];
            tensor<fp16, [1, 77, 1280]> hidden_states_15_cast = linear(bias = text_encoder_text_model_encoder_layers_2_self_attn_out_proj_bias_to_fp16, weight = text_encoder_text_model_encoder_layers_2_self_attn_out_proj_weight_to_fp16, x = input_41_cast)[name = tensor<string, []>("hidden_states_15_cast")];
            tensor<fp16, [1, 77, 1280]> input_43_cast = add(x = input_35_cast, y = hidden_states_15_cast)[name = tensor<string, []>("input_43_cast")];
            tensor<int32, [1]> input_45_axes_0 = const()[name = tensor<string, []>("input_45_axes_0"), val = tensor<int32, [1]>([-1])];
            tensor<fp16, [1280]> text_encoder_text_model_encoder_layers_2_layer_norm2_weight_to_fp16 = const()[name = tensor<string, []>("text_encoder_text_model_encoder_layers_2_layer_norm2_weight_to_fp16"), val = tensor<fp16, [1280]>(BLOBFILE(path = tensor<string, []>("@model_path/weights/weight.bin"), offset = tensor<uint64, []>(218528768)))];
            tensor<fp16, [1280]> text_encoder_text_model_encoder_layers_2_layer_norm2_bias_to_fp16 = const()[name = tensor<string, []>("text_encoder_text_model_encoder_layers_2_layer_norm2_bias_to_fp16"), val = tensor<fp16, [1280]>(BLOBFILE(path = tensor<string, []>("@model_path/weights/weight.bin"), offset = tensor<uint64, []>(218531392)))];
            tensor<fp16, [1, 77, 1280]> input_45_cast = layer_norm(axes = input_45_axes_0, beta = text_encoder_text_model_encoder_layers_2_layer_norm2_bias_to_fp16, epsilon = var_12_to_fp16, gamma = text_encoder_text_model_encoder_layers_2_layer_norm2_weight_to_fp16, x = input_43_cast)[name = tensor<string, []>("input_45_cast")];
            tensor<fp16, [5120, 1280]> text_encoder_text_model_encoder_layers_2_mlp_fc1_weight_to_fp16 = const()[name = tensor<string, []>("text_encoder_text_model_encoder_layers_2_mlp_fc1_weight_to_fp16"), val = tensor<fp16, [5120, 1280]>(BLOBFILE(path = tensor<string, []>("@model_path/weights/weight.bin"), offset = tensor<uint64, []>(218534016)))];
            tensor<fp16, [5120]> text_encoder_text_model_encoder_layers_2_mlp_fc1_bias_to_fp16 = const()[name = tensor<string, []>("text_encoder_text_model_encoder_layers_2_mlp_fc1_bias_to_fp16"), val = tensor<fp16, [5120]>(BLOBFILE(path = tensor<string, []>("@model_path/weights/weight.bin"), offset = tensor<uint64, []>(231641280)))];
            tensor<fp16, [1, 77, 5120]> input_47_cast = linear(bias = text_encoder_text_model_encoder_layers_2_mlp_fc1_bias_to_fp16, weight = text_encoder_text_model_encoder_layers_2_mlp_fc1_weight_to_fp16, x = input_45_cast)[name = tensor<string, []>("input_47_cast")];
            tensor<string, []> input_49_mode_0 = const()[name = tensor<string, []>("input_49_mode_0"), val = tensor<string, []>("EXACT")];
            tensor<fp16, [1, 77, 5120]> input_49_cast = gelu(mode = input_49_mode_0, x = input_47_cast)[name = tensor<string, []>("input_49_cast")];
            tensor<fp16, [1280, 5120]> text_encoder_text_model_encoder_layers_2_mlp_fc2_weight_to_fp16 = const()[name = tensor<string, []>("text_encoder_text_model_encoder_layers_2_mlp_fc2_weight_to_fp16"), val = tensor<fp16, [1280, 5120]>(BLOBFILE(path = tensor<string, []>("@model_path/weights/weight.bin"), offset = tensor<uint64, []>(231651584)))];
            tensor<fp16, [1280]> text_encoder_text_model_encoder_layers_2_mlp_fc2_bias_to_fp16 = const()[name = tensor<string, []>("text_encoder_text_model_encoder_layers_2_mlp_fc2_bias_to_fp16"), val = tensor<fp16, [1280]>(BLOBFILE(path = tensor<string, []>("@model_path/weights/weight.bin"), offset = tensor<uint64, []>(244758848)))];
            tensor<fp16, [1, 77, 1280]> hidden_states_17_cast = linear(bias = text_encoder_text_model_encoder_layers_2_mlp_fc2_bias_to_fp16, weight = text_encoder_text_model_encoder_layers_2_mlp_fc2_weight_to_fp16, x = input_49_cast)[name = tensor<string, []>("hidden_states_17_cast")];
            tensor<fp16, [1, 77, 1280]> input_51_cast = add(x = input_43_cast, y = hidden_states_17_cast)[name = tensor<string, []>("input_51_cast")];
            tensor<int32, [1]> hidden_states_19_axes_0 = const()[name = tensor<string, []>("hidden_states_19_axes_0"), val = tensor<int32, [1]>([-1])];
            tensor<fp16, [1280]> text_encoder_text_model_encoder_layers_3_layer_norm1_weight_to_fp16 = const()[name = tensor<string, []>("text_encoder_text_model_encoder_layers_3_layer_norm1_weight_to_fp16"), val = tensor<fp16, [1280]>(BLOBFILE(path = tensor<string, []>("@model_path/weights/weight.bin"), offset = tensor<uint64, []>(244761472)))];
            tensor<fp16, [1280]> text_encoder_text_model_encoder_layers_3_layer_norm1_bias_to_fp16 = const()[name = tensor<string, []>("text_encoder_text_model_encoder_layers_3_layer_norm1_bias_to_fp16"), val = tensor<fp16, [1280]>(BLOBFILE(path = tensor<string, []>("@model_path/weights/weight.bin"), offset = tensor<uint64, []>(244764096)))];
            tensor<fp16, [1, 77, 1280]> hidden_states_19_cast = layer_norm(axes = hidden_states_19_axes_0, beta = text_encoder_text_model_encoder_layers_3_layer_norm1_bias_to_fp16, epsilon = var_12_to_fp16, gamma = text_encoder_text_model_encoder_layers_3_layer_norm1_weight_to_fp16, x = input_51_cast)[name = tensor<string, []>("hidden_states_19_cast")];
            tensor<fp16, [1280, 1280]> text_encoder_text_model_encoder_layers_3_self_attn_q_proj_weight_to_fp16 = const()[name = tensor<string, []>("text_encoder_text_model_encoder_layers_3_self_attn_q_proj_weight_to_fp16"), val = tensor<fp16, [1280, 1280]>(BLOBFILE(path = tensor<string, []>("@model_path/weights/weight.bin"), offset = tensor<uint64, []>(244766720)))];
            tensor<fp16, [1280]> text_encoder_text_model_encoder_layers_3_self_attn_q_proj_bias_to_fp16 = const()[name = tensor<string, []>("text_encoder_text_model_encoder_layers_3_self_attn_q_proj_bias_to_fp16"), val = tensor<fp16, [1280]>(BLOBFILE(path = tensor<string, []>("@model_path/weights/weight.bin"), offset = tensor<uint64, []>(248043584)))];
            tensor<fp16, [1, 77, 1280]> var_389_cast = linear(bias = text_encoder_text_model_encoder_layers_3_self_attn_q_proj_bias_to_fp16, weight = text_encoder_text_model_encoder_layers_3_self_attn_q_proj_weight_to_fp16, x = hidden_states_19_cast)[name = tensor<string, []>("op_389_cast")];
            tensor<fp16, []> var_390_to_fp16 = const()[name = tensor<string, []>("op_390_to_fp16"), val = tensor<fp16, []>(0x1p-3)];
            tensor<fp16, [1, 77, 1280]> tensor_23_cast = mul(x = var_389_cast, y = var_390_to_fp16)[name = tensor<string, []>("tensor_23_cast")];
            tensor<fp16, [1280, 1280]> text_encoder_text_model_encoder_layers_3_self_attn_k_proj_weight_to_fp16 = const()[name = tensor<string, []>("text_encoder_text_model_encoder_layers_3_self_attn_k_proj_weight_to_fp16"), val = tensor<fp16, [1280, 1280]>(BLOBFILE(path = tensor<string, []>("@model_path/weights/weight.bin"), offset = tensor<uint64, []>(248046208)))];
            tensor<fp16, [1280]> text_encoder_text_model_encoder_layers_3_self_attn_k_proj_bias_to_fp16 = const()[name = tensor<string, []>("text_encoder_text_model_encoder_layers_3_self_attn_k_proj_bias_to_fp16"), val = tensor<fp16, [1280]>(BLOBFILE(path = tensor<string, []>("@model_path/weights/weight.bin"), offset = tensor<uint64, []>(251323072)))];
            tensor<fp16, [1, 77, 1280]> tensor_19_cast = linear(bias = text_encoder_text_model_encoder_layers_3_self_attn_k_proj_bias_to_fp16, weight = text_encoder_text_model_encoder_layers_3_self_attn_k_proj_weight_to_fp16, x = hidden_states_19_cast)[name = tensor<string, []>("tensor_19_cast")];
            tensor<int32, [4]> var_395 = const()[name = tensor<string, []>("op_395"), val = tensor<int32, [4]>([1, -1, 20, 64])];
            tensor<fp16, [1, 77, 20, 64]> var_396_cast = reshape(shape = var_395, x = tensor_19_cast)[name = tensor<string, []>("op_396_cast")];
            tensor<int32, [4]> var_397_perm_0 = const()[name = tensor<string, []>("op_397_perm_0"), val = tensor<int32, [4]>([0, 2, 1, 3])];
            tensor<fp16, [1280, 1280]> text_encoder_text_model_encoder_layers_3_self_attn_v_proj_weight_to_fp16 = const()[name = tensor<string, []>("text_encoder_text_model_encoder_layers_3_self_attn_v_proj_weight_to_fp16"), val = tensor<fp16, [1280, 1280]>(BLOBFILE(path = tensor<string, []>("@model_path/weights/weight.bin"), offset = tensor<uint64, []>(251325696)))];
            tensor<fp16, [1280]> text_encoder_text_model_encoder_layers_3_self_attn_v_proj_bias_to_fp16 = const()[name = tensor<string, []>("text_encoder_text_model_encoder_layers_3_self_attn_v_proj_bias_to_fp16"), val = tensor<fp16, [1280]>(BLOBFILE(path = tensor<string, []>("@model_path/weights/weight.bin"), offset = tensor<uint64, []>(254602560)))];
            tensor<fp16, [1, 77, 1280]> tensor_21_cast = linear(bias = text_encoder_text_model_encoder_layers_3_self_attn_v_proj_bias_to_fp16, weight = text_encoder_text_model_encoder_layers_3_self_attn_v_proj_weight_to_fp16, x = hidden_states_19_cast)[name = tensor<string, []>("tensor_21_cast")];
            tensor<int32, [4]> var_402 = const()[name = tensor<string, []>("op_402"), val = tensor<int32, [4]>([1, -1, 20, 64])];
            tensor<fp16, [1, 77, 20, 64]> var_403_cast = reshape(shape = var_402, x = tensor_21_cast)[name = tensor<string, []>("op_403_cast")];
            tensor<int32, [4]> var_404_perm_0 = const()[name = tensor<string, []>("op_404_perm_0"), val = tensor<int32, [4]>([0, 2, 1, 3])];
            tensor<int32, [4]> var_411 = const()[name = tensor<string, []>("op_411"), val = tensor<int32, [4]>([1, 77, 20, 64])];
            tensor<fp16, [1, 77, 20, 64]> var_412_cast = reshape(shape = var_411, x = tensor_23_cast)[name = tensor<string, []>("op_412_cast")];
            tensor<int32, [4]> var_413_perm_0 = const()[name = tensor<string, []>("op_413_perm_0"), val = tensor<int32, [4]>([0, 2, 1, 3])];
            tensor<int32, [3]> var_415 = const()[name = tensor<string, []>("op_415"), val = tensor<int32, [3]>([20, -1, 64])];
            tensor<fp16, [1, 20, 77, 64]> transpose_143 = transpose(perm = var_413_perm_0, x = var_412_cast)[name = tensor<string, []>("transpose_143")];
            tensor<fp16, [20, 77, 64]> query_states_7_cast = reshape(shape = var_415, x = transpose_143)[name = tensor<string, []>("query_states_7_cast")];
            tensor<int32, [3]> var_417 = const()[name = tensor<string, []>("op_417"), val = tensor<int32, [3]>([20, -1, 64])];
            tensor<fp16, [1, 20, 77, 64]> transpose_145 = transpose(perm = var_397_perm_0, x = var_396_cast)[name = tensor<string, []>("transpose_145")];
            tensor<fp16, [20, 77, 64]> key_states_15_cast = reshape(shape = var_417, x = transpose_145)[name = tensor<string, []>("key_states_15_cast")];
            tensor<int32, [3]> var_419 = const()[name = tensor<string, []>("op_419"), val = tensor<int32, [3]>([20, -1, 64])];
            tensor<fp16, [1, 20, 77, 64]> transpose_144 = transpose(perm = var_404_perm_0, x = var_403_cast)[name = tensor<string, []>("transpose_144")];
            tensor<fp16, [20, 77, 64]> value_states_15_cast = reshape(shape = var_419, x = transpose_144)[name = tensor<string, []>("value_states_15_cast")];
            tensor<int32, [3]> var_422_perm_0 = const()[name = tensor<string, []>("op_422_perm_0"), val = tensor<int32, [3]>([0, 2, 1])];
            tensor<bool, []> attn_weights_19_transpose_x_0 = const()[name = tensor<string, []>("attn_weights_19_transpose_x_0"), val = tensor<bool, []>(false)];
            tensor<bool, []> attn_weights_19_transpose_y_0 = const()[name = tensor<string, []>("attn_weights_19_transpose_y_0"), val = tensor<bool, []>(false)];
            tensor<fp16, [20, 64, 77]> transpose_142 = transpose(perm = var_422_perm_0, x = key_states_15_cast)[name = tensor<string, []>("transpose_142")];
            tensor<fp16, [20, 77, 77]> attn_weights_19_cast = matmul(transpose_x = attn_weights_19_transpose_x_0, transpose_y = attn_weights_19_transpose_y_0, x = query_states_7_cast, y = transpose_142)[name = tensor<string, []>("attn_weights_19_cast")];
            tensor<int32, [4]> var_424 = const()[name = tensor<string, []>("op_424"), val = tensor<int32, [4]>([1, 20, 77, 77])];
            tensor<fp16, [1, 20, 77, 77]> var_425_cast = reshape(shape = var_424, x = attn_weights_19_cast)[name = tensor<string, []>("op_425_cast")];
            tensor<fp16, [1, 20, 77, 77]> attn_weights_21_cast = add(x = var_425_cast, y = causal_attention_mask_to_fp16)[name = tensor<string, []>("attn_weights_21_cast")];
            tensor<int32, [3]> var_430 = const()[name = tensor<string, []>("op_430"), val = tensor<int32, [3]>([20, 77, 77])];
            tensor<fp16, [20, 77, 77]> input_53_cast = reshape(shape = var_430, x = attn_weights_21_cast)[name = tensor<string, []>("input_53_cast")];
            tensor<fp16, [20, 77, 77]> input_55_cast = softmax(axis = var_5, x = input_53_cast)[name = tensor<string, []>("input_55_cast")];
            tensor<bool, []> attn_output_19_transpose_x_0 = const()[name = tensor<string, []>("attn_output_19_transpose_x_0"), val = tensor<bool, []>(false)];
            tensor<bool, []> attn_output_19_transpose_y_0 = const()[name = tensor<string, []>("attn_output_19_transpose_y_0"), val = tensor<bool, []>(false)];
            tensor<fp16, [20, 77, 64]> attn_output_19_cast = matmul(transpose_x = attn_output_19_transpose_x_0, transpose_y = attn_output_19_transpose_y_0, x = input_55_cast, y = value_states_15_cast)[name = tensor<string, []>("attn_output_19_cast")];
            tensor<int32, [4]> var_435 = const()[name = tensor<string, []>("op_435"), val = tensor<int32, [4]>([1, 20, 77, 64])];
            tensor<fp16, [1, 20, 77, 64]> attn_output_21_cast = reshape(shape = var_435, x = attn_output_19_cast)[name = tensor<string, []>("attn_output_21_cast")];
            tensor<int32, [4]> attn_output_23_perm_0 = const()[name = tensor<string, []>("attn_output_23_perm_0"), val = tensor<int32, [4]>([0, 2, 1, 3])];
            tensor<int32, [3]> var_438 = const()[name = tensor<string, []>("op_438"), val = tensor<int32, [3]>([1, 77, 1280])];
            tensor<fp16, [1, 77, 20, 64]> transpose_141 = transpose(perm = attn_output_23_perm_0, x = attn_output_21_cast)[name = tensor<string, []>("transpose_141")];
            tensor<fp16, [1, 77, 1280]> input_57_cast = reshape(shape = var_438, x = transpose_141)[name = tensor<string, []>("input_57_cast")];
            tensor<fp16, [1280, 1280]> text_encoder_text_model_encoder_layers_3_self_attn_out_proj_weight_to_fp16 = const()[name = tensor<string, []>("text_encoder_text_model_encoder_layers_3_self_attn_out_proj_weight_to_fp16"), val = tensor<fp16, [1280, 1280]>(BLOBFILE(path = tensor<string, []>("@model_path/weights/weight.bin"), offset = tensor<uint64, []>(254605184)))];
            tensor<fp16, [1280]> text_encoder_text_model_encoder_layers_3_self_attn_out_proj_bias_to_fp16 = const()[name = tensor<string, []>("text_encoder_text_model_encoder_layers_3_self_attn_out_proj_bias_to_fp16"), val = tensor<fp16, [1280]>(BLOBFILE(path = tensor<string, []>("@model_path/weights/weight.bin"), offset = tensor<uint64, []>(257882048)))];
            tensor<fp16, [1, 77, 1280]> hidden_states_21_cast = linear(bias = text_encoder_text_model_encoder_layers_3_self_attn_out_proj_bias_to_fp16, weight = text_encoder_text_model_encoder_layers_3_self_attn_out_proj_weight_to_fp16, x = input_57_cast)[name = tensor<string, []>("hidden_states_21_cast")];
            tensor<fp16, [1, 77, 1280]> input_59_cast = add(x = input_51_cast, y = hidden_states_21_cast)[name = tensor<string, []>("input_59_cast")];
            tensor<int32, [1]> input_61_axes_0 = const()[name = tensor<string, []>("input_61_axes_0"), val = tensor<int32, [1]>([-1])];
            tensor<fp16, [1280]> text_encoder_text_model_encoder_layers_3_layer_norm2_weight_to_fp16 = const()[name = tensor<string, []>("text_encoder_text_model_encoder_layers_3_layer_norm2_weight_to_fp16"), val = tensor<fp16, [1280]>(BLOBFILE(path = tensor<string, []>("@model_path/weights/weight.bin"), offset = tensor<uint64, []>(257884672)))];
            tensor<fp16, [1280]> text_encoder_text_model_encoder_layers_3_layer_norm2_bias_to_fp16 = const()[name = tensor<string, []>("text_encoder_text_model_encoder_layers_3_layer_norm2_bias_to_fp16"), val = tensor<fp16, [1280]>(BLOBFILE(path = tensor<string, []>("@model_path/weights/weight.bin"), offset = tensor<uint64, []>(257887296)))];
            tensor<fp16, [1, 77, 1280]> input_61_cast = layer_norm(axes = input_61_axes_0, beta = text_encoder_text_model_encoder_layers_3_layer_norm2_bias_to_fp16, epsilon = var_12_to_fp16, gamma = text_encoder_text_model_encoder_layers_3_layer_norm2_weight_to_fp16, x = input_59_cast)[name = tensor<string, []>("input_61_cast")];
            tensor<fp16, [5120, 1280]> text_encoder_text_model_encoder_layers_3_mlp_fc1_weight_to_fp16 = const()[name = tensor<string, []>("text_encoder_text_model_encoder_layers_3_mlp_fc1_weight_to_fp16"), val = tensor<fp16, [5120, 1280]>(BLOBFILE(path = tensor<string, []>("@model_path/weights/weight.bin"), offset = tensor<uint64, []>(257889920)))];
            tensor<fp16, [5120]> text_encoder_text_model_encoder_layers_3_mlp_fc1_bias_to_fp16 = const()[name = tensor<string, []>("text_encoder_text_model_encoder_layers_3_mlp_fc1_bias_to_fp16"), val = tensor<fp16, [5120]>(BLOBFILE(path = tensor<string, []>("@model_path/weights/weight.bin"), offset = tensor<uint64, []>(270997184)))];
            tensor<fp16, [1, 77, 5120]> input_63_cast = linear(bias = text_encoder_text_model_encoder_layers_3_mlp_fc1_bias_to_fp16, weight = text_encoder_text_model_encoder_layers_3_mlp_fc1_weight_to_fp16, x = input_61_cast)[name = tensor<string, []>("input_63_cast")];
            tensor<string, []> input_65_mode_0 = const()[name = tensor<string, []>("input_65_mode_0"), val = tensor<string, []>("EXACT")];
            tensor<fp16, [1, 77, 5120]> input_65_cast = gelu(mode = input_65_mode_0, x = input_63_cast)[name = tensor<string, []>("input_65_cast")];
            tensor<fp16, [1280, 5120]> text_encoder_text_model_encoder_layers_3_mlp_fc2_weight_to_fp16 = const()[name = tensor<string, []>("text_encoder_text_model_encoder_layers_3_mlp_fc2_weight_to_fp16"), val = tensor<fp16, [1280, 5120]>(BLOBFILE(path = tensor<string, []>("@model_path/weights/weight.bin"), offset = tensor<uint64, []>(271007488)))];
            tensor<fp16, [1280]> text_encoder_text_model_encoder_layers_3_mlp_fc2_bias_to_fp16 = const()[name = tensor<string, []>("text_encoder_text_model_encoder_layers_3_mlp_fc2_bias_to_fp16"), val = tensor<fp16, [1280]>(BLOBFILE(path = tensor<string, []>("@model_path/weights/weight.bin"), offset = tensor<uint64, []>(284114752)))];
            tensor<fp16, [1, 77, 1280]> hidden_states_23_cast = linear(bias = text_encoder_text_model_encoder_layers_3_mlp_fc2_bias_to_fp16, weight = text_encoder_text_model_encoder_layers_3_mlp_fc2_weight_to_fp16, x = input_65_cast)[name = tensor<string, []>("hidden_states_23_cast")];
            tensor<fp16, [1, 77, 1280]> input_67_cast = add(x = input_59_cast, y = hidden_states_23_cast)[name = tensor<string, []>("input_67_cast")];
            tensor<int32, [1]> hidden_states_25_axes_0 = const()[name = tensor<string, []>("hidden_states_25_axes_0"), val = tensor<int32, [1]>([-1])];
            tensor<fp16, [1280]> text_encoder_text_model_encoder_layers_4_layer_norm1_weight_to_fp16 = const()[name = tensor<string, []>("text_encoder_text_model_encoder_layers_4_layer_norm1_weight_to_fp16"), val = tensor<fp16, [1280]>(BLOBFILE(path = tensor<string, []>("@model_path/weights/weight.bin"), offset = tensor<uint64, []>(284117376)))];
            tensor<fp16, [1280]> text_encoder_text_model_encoder_layers_4_layer_norm1_bias_to_fp16 = const()[name = tensor<string, []>("text_encoder_text_model_encoder_layers_4_layer_norm1_bias_to_fp16"), val = tensor<fp16, [1280]>(BLOBFILE(path = tensor<string, []>("@model_path/weights/weight.bin"), offset = tensor<uint64, []>(284120000)))];
            tensor<fp16, [1, 77, 1280]> hidden_states_25_cast = layer_norm(axes = hidden_states_25_axes_0, beta = text_encoder_text_model_encoder_layers_4_layer_norm1_bias_to_fp16, epsilon = var_12_to_fp16, gamma = text_encoder_text_model_encoder_layers_4_layer_norm1_weight_to_fp16, x = input_67_cast)[name = tensor<string, []>("hidden_states_25_cast")];
            tensor<fp16, [1280, 1280]> text_encoder_text_model_encoder_layers_4_self_attn_q_proj_weight_to_fp16 = const()[name = tensor<string, []>("text_encoder_text_model_encoder_layers_4_self_attn_q_proj_weight_to_fp16"), val = tensor<fp16, [1280, 1280]>(BLOBFILE(path = tensor<string, []>("@model_path/weights/weight.bin"), offset = tensor<uint64, []>(284122624)))];
            tensor<fp16, [1280]> text_encoder_text_model_encoder_layers_4_self_attn_q_proj_bias_to_fp16 = const()[name = tensor<string, []>("text_encoder_text_model_encoder_layers_4_self_attn_q_proj_bias_to_fp16"), val = tensor<fp16, [1280]>(BLOBFILE(path = tensor<string, []>("@model_path/weights/weight.bin"), offset = tensor<uint64, []>(287399488)))];
            tensor<fp16, [1, 77, 1280]> var_476_cast = linear(bias = text_encoder_text_model_encoder_layers_4_self_attn_q_proj_bias_to_fp16, weight = text_encoder_text_model_encoder_layers_4_self_attn_q_proj_weight_to_fp16, x = hidden_states_25_cast)[name = tensor<string, []>("op_476_cast")];
            tensor<fp16, []> var_477_to_fp16 = const()[name = tensor<string, []>("op_477_to_fp16"), val = tensor<fp16, []>(0x1p-3)];
            tensor<fp16, [1, 77, 1280]> tensor_29_cast = mul(x = var_476_cast, y = var_477_to_fp16)[name = tensor<string, []>("tensor_29_cast")];
            tensor<fp16, [1280, 1280]> text_encoder_text_model_encoder_layers_4_self_attn_k_proj_weight_to_fp16 = const()[name = tensor<string, []>("text_encoder_text_model_encoder_layers_4_self_attn_k_proj_weight_to_fp16"), val = tensor<fp16, [1280, 1280]>(BLOBFILE(path = tensor<string, []>("@model_path/weights/weight.bin"), offset = tensor<uint64, []>(287402112)))];
            tensor<fp16, [1280]> text_encoder_text_model_encoder_layers_4_self_attn_k_proj_bias_to_fp16 = const()[name = tensor<string, []>("text_encoder_text_model_encoder_layers_4_self_attn_k_proj_bias_to_fp16"), val = tensor<fp16, [1280]>(BLOBFILE(path = tensor<string, []>("@model_path/weights/weight.bin"), offset = tensor<uint64, []>(290678976)))];
            tensor<fp16, [1, 77, 1280]> tensor_25_cast = linear(bias = text_encoder_text_model_encoder_layers_4_self_attn_k_proj_bias_to_fp16, weight = text_encoder_text_model_encoder_layers_4_self_attn_k_proj_weight_to_fp16, x = hidden_states_25_cast)[name = tensor<string, []>("tensor_25_cast")];
            tensor<int32, [4]> var_482 = const()[name = tensor<string, []>("op_482"), val = tensor<int32, [4]>([1, -1, 20, 64])];
            tensor<fp16, [1, 77, 20, 64]> var_483_cast = reshape(shape = var_482, x = tensor_25_cast)[name = tensor<string, []>("op_483_cast")];
            tensor<int32, [4]> var_484_perm_0 = const()[name = tensor<string, []>("op_484_perm_0"), val = tensor<int32, [4]>([0, 2, 1, 3])];
            tensor<fp16, [1280, 1280]> text_encoder_text_model_encoder_layers_4_self_attn_v_proj_weight_to_fp16 = const()[name = tensor<string, []>("text_encoder_text_model_encoder_layers_4_self_attn_v_proj_weight_to_fp16"), val = tensor<fp16, [1280, 1280]>(BLOBFILE(path = tensor<string, []>("@model_path/weights/weight.bin"), offset = tensor<uint64, []>(290681600)))];
            tensor<fp16, [1280]> text_encoder_text_model_encoder_layers_4_self_attn_v_proj_bias_to_fp16 = const()[name = tensor<string, []>("text_encoder_text_model_encoder_layers_4_self_attn_v_proj_bias_to_fp16"), val = tensor<fp16, [1280]>(BLOBFILE(path = tensor<string, []>("@model_path/weights/weight.bin"), offset = tensor<uint64, []>(293958464)))];
            tensor<fp16, [1, 77, 1280]> tensor_27_cast = linear(bias = text_encoder_text_model_encoder_layers_4_self_attn_v_proj_bias_to_fp16, weight = text_encoder_text_model_encoder_layers_4_self_attn_v_proj_weight_to_fp16, x = hidden_states_25_cast)[name = tensor<string, []>("tensor_27_cast")];
            tensor<int32, [4]> var_489 = const()[name = tensor<string, []>("op_489"), val = tensor<int32, [4]>([1, -1, 20, 64])];
            tensor<fp16, [1, 77, 20, 64]> var_490_cast = reshape(shape = var_489, x = tensor_27_cast)[name = tensor<string, []>("op_490_cast")];
            tensor<int32, [4]> var_491_perm_0 = const()[name = tensor<string, []>("op_491_perm_0"), val = tensor<int32, [4]>([0, 2, 1, 3])];
            tensor<int32, [4]> var_498 = const()[name = tensor<string, []>("op_498"), val = tensor<int32, [4]>([1, 77, 20, 64])];
            tensor<fp16, [1, 77, 20, 64]> var_499_cast = reshape(shape = var_498, x = tensor_29_cast)[name = tensor<string, []>("op_499_cast")];
            tensor<int32, [4]> var_500_perm_0 = const()[name = tensor<string, []>("op_500_perm_0"), val = tensor<int32, [4]>([0, 2, 1, 3])];
            tensor<int32, [3]> var_502 = const()[name = tensor<string, []>("op_502"), val = tensor<int32, [3]>([20, -1, 64])];
            tensor<fp16, [1, 20, 77, 64]> transpose_138 = transpose(perm = var_500_perm_0, x = var_499_cast)[name = tensor<string, []>("transpose_138")];
            tensor<fp16, [20, 77, 64]> query_states_9_cast = reshape(shape = var_502, x = transpose_138)[name = tensor<string, []>("query_states_9_cast")];
            tensor<int32, [3]> var_504 = const()[name = tensor<string, []>("op_504"), val = tensor<int32, [3]>([20, -1, 64])];
            tensor<fp16, [1, 20, 77, 64]> transpose_140 = transpose(perm = var_484_perm_0, x = var_483_cast)[name = tensor<string, []>("transpose_140")];
            tensor<fp16, [20, 77, 64]> key_states_19_cast = reshape(shape = var_504, x = transpose_140)[name = tensor<string, []>("key_states_19_cast")];
            tensor<int32, [3]> var_506 = const()[name = tensor<string, []>("op_506"), val = tensor<int32, [3]>([20, -1, 64])];
            tensor<fp16, [1, 20, 77, 64]> transpose_139 = transpose(perm = var_491_perm_0, x = var_490_cast)[name = tensor<string, []>("transpose_139")];
            tensor<fp16, [20, 77, 64]> value_states_19_cast = reshape(shape = var_506, x = transpose_139)[name = tensor<string, []>("value_states_19_cast")];
            tensor<int32, [3]> var_509_perm_0 = const()[name = tensor<string, []>("op_509_perm_0"), val = tensor<int32, [3]>([0, 2, 1])];
            tensor<bool, []> attn_weights_25_transpose_x_0 = const()[name = tensor<string, []>("attn_weights_25_transpose_x_0"), val = tensor<bool, []>(false)];
            tensor<bool, []> attn_weights_25_transpose_y_0 = const()[name = tensor<string, []>("attn_weights_25_transpose_y_0"), val = tensor<bool, []>(false)];
            tensor<fp16, [20, 64, 77]> transpose_137 = transpose(perm = var_509_perm_0, x = key_states_19_cast)[name = tensor<string, []>("transpose_137")];
            tensor<fp16, [20, 77, 77]> attn_weights_25_cast = matmul(transpose_x = attn_weights_25_transpose_x_0, transpose_y = attn_weights_25_transpose_y_0, x = query_states_9_cast, y = transpose_137)[name = tensor<string, []>("attn_weights_25_cast")];
            tensor<int32, [4]> var_511 = const()[name = tensor<string, []>("op_511"), val = tensor<int32, [4]>([1, 20, 77, 77])];
            tensor<fp16, [1, 20, 77, 77]> var_512_cast = reshape(shape = var_511, x = attn_weights_25_cast)[name = tensor<string, []>("op_512_cast")];
            tensor<fp16, [1, 20, 77, 77]> attn_weights_27_cast = add(x = var_512_cast, y = causal_attention_mask_to_fp16)[name = tensor<string, []>("attn_weights_27_cast")];
            tensor<int32, [3]> var_517 = const()[name = tensor<string, []>("op_517"), val = tensor<int32, [3]>([20, 77, 77])];
            tensor<fp16, [20, 77, 77]> input_69_cast = reshape(shape = var_517, x = attn_weights_27_cast)[name = tensor<string, []>("input_69_cast")];
            tensor<fp16, [20, 77, 77]> input_71_cast = softmax(axis = var_5, x = input_69_cast)[name = tensor<string, []>("input_71_cast")];
            tensor<bool, []> attn_output_25_transpose_x_0 = const()[name = tensor<string, []>("attn_output_25_transpose_x_0"), val = tensor<bool, []>(false)];
            tensor<bool, []> attn_output_25_transpose_y_0 = const()[name = tensor<string, []>("attn_output_25_transpose_y_0"), val = tensor<bool, []>(false)];
            tensor<fp16, [20, 77, 64]> attn_output_25_cast = matmul(transpose_x = attn_output_25_transpose_x_0, transpose_y = attn_output_25_transpose_y_0, x = input_71_cast, y = value_states_19_cast)[name = tensor<string, []>("attn_output_25_cast")];
            tensor<int32, [4]> var_522 = const()[name = tensor<string, []>("op_522"), val = tensor<int32, [4]>([1, 20, 77, 64])];
            tensor<fp16, [1, 20, 77, 64]> attn_output_27_cast = reshape(shape = var_522, x = attn_output_25_cast)[name = tensor<string, []>("attn_output_27_cast")];
            tensor<int32, [4]> attn_output_29_perm_0 = const()[name = tensor<string, []>("attn_output_29_perm_0"), val = tensor<int32, [4]>([0, 2, 1, 3])];
            tensor<int32, [3]> var_525 = const()[name = tensor<string, []>("op_525"), val = tensor<int32, [3]>([1, 77, 1280])];
            tensor<fp16, [1, 77, 20, 64]> transpose_136 = transpose(perm = attn_output_29_perm_0, x = attn_output_27_cast)[name = tensor<string, []>("transpose_136")];
            tensor<fp16, [1, 77, 1280]> input_73_cast = reshape(shape = var_525, x = transpose_136)[name = tensor<string, []>("input_73_cast")];
            tensor<fp16, [1280, 1280]> text_encoder_text_model_encoder_layers_4_self_attn_out_proj_weight_to_fp16 = const()[name = tensor<string, []>("text_encoder_text_model_encoder_layers_4_self_attn_out_proj_weight_to_fp16"), val = tensor<fp16, [1280, 1280]>(BLOBFILE(path = tensor<string, []>("@model_path/weights/weight.bin"), offset = tensor<uint64, []>(293961088)))];
            tensor<fp16, [1280]> text_encoder_text_model_encoder_layers_4_self_attn_out_proj_bias_to_fp16 = const()[name = tensor<string, []>("text_encoder_text_model_encoder_layers_4_self_attn_out_proj_bias_to_fp16"), val = tensor<fp16, [1280]>(BLOBFILE(path = tensor<string, []>("@model_path/weights/weight.bin"), offset = tensor<uint64, []>(297237952)))];
            tensor<fp16, [1, 77, 1280]> hidden_states_27_cast = linear(bias = text_encoder_text_model_encoder_layers_4_self_attn_out_proj_bias_to_fp16, weight = text_encoder_text_model_encoder_layers_4_self_attn_out_proj_weight_to_fp16, x = input_73_cast)[name = tensor<string, []>("hidden_states_27_cast")];
            tensor<fp16, [1, 77, 1280]> input_75_cast = add(x = input_67_cast, y = hidden_states_27_cast)[name = tensor<string, []>("input_75_cast")];
            tensor<int32, [1]> input_77_axes_0 = const()[name = tensor<string, []>("input_77_axes_0"), val = tensor<int32, [1]>([-1])];
            tensor<fp16, [1280]> text_encoder_text_model_encoder_layers_4_layer_norm2_weight_to_fp16 = const()[name = tensor<string, []>("text_encoder_text_model_encoder_layers_4_layer_norm2_weight_to_fp16"), val = tensor<fp16, [1280]>(BLOBFILE(path = tensor<string, []>("@model_path/weights/weight.bin"), offset = tensor<uint64, []>(297240576)))];
            tensor<fp16, [1280]> text_encoder_text_model_encoder_layers_4_layer_norm2_bias_to_fp16 = const()[name = tensor<string, []>("text_encoder_text_model_encoder_layers_4_layer_norm2_bias_to_fp16"), val = tensor<fp16, [1280]>(BLOBFILE(path = tensor<string, []>("@model_path/weights/weight.bin"), offset = tensor<uint64, []>(297243200)))];
            tensor<fp16, [1, 77, 1280]> input_77_cast = layer_norm(axes = input_77_axes_0, beta = text_encoder_text_model_encoder_layers_4_layer_norm2_bias_to_fp16, epsilon = var_12_to_fp16, gamma = text_encoder_text_model_encoder_layers_4_layer_norm2_weight_to_fp16, x = input_75_cast)[name = tensor<string, []>("input_77_cast")];
            tensor<fp16, [5120, 1280]> text_encoder_text_model_encoder_layers_4_mlp_fc1_weight_to_fp16 = const()[name = tensor<string, []>("text_encoder_text_model_encoder_layers_4_mlp_fc1_weight_to_fp16"), val = tensor<fp16, [5120, 1280]>(BLOBFILE(path = tensor<string, []>("@model_path/weights/weight.bin"), offset = tensor<uint64, []>(297245824)))];
            tensor<fp16, [5120]> text_encoder_text_model_encoder_layers_4_mlp_fc1_bias_to_fp16 = const()[name = tensor<string, []>("text_encoder_text_model_encoder_layers_4_mlp_fc1_bias_to_fp16"), val = tensor<fp16, [5120]>(BLOBFILE(path = tensor<string, []>("@model_path/weights/weight.bin"), offset = tensor<uint64, []>(310353088)))];
            tensor<fp16, [1, 77, 5120]> input_79_cast = linear(bias = text_encoder_text_model_encoder_layers_4_mlp_fc1_bias_to_fp16, weight = text_encoder_text_model_encoder_layers_4_mlp_fc1_weight_to_fp16, x = input_77_cast)[name = tensor<string, []>("input_79_cast")];
            tensor<string, []> input_81_mode_0 = const()[name = tensor<string, []>("input_81_mode_0"), val = tensor<string, []>("EXACT")];
            tensor<fp16, [1, 77, 5120]> input_81_cast = gelu(mode = input_81_mode_0, x = input_79_cast)[name = tensor<string, []>("input_81_cast")];
            tensor<fp16, [1280, 5120]> text_encoder_text_model_encoder_layers_4_mlp_fc2_weight_to_fp16 = const()[name = tensor<string, []>("text_encoder_text_model_encoder_layers_4_mlp_fc2_weight_to_fp16"), val = tensor<fp16, [1280, 5120]>(BLOBFILE(path = tensor<string, []>("@model_path/weights/weight.bin"), offset = tensor<uint64, []>(310363392)))];
            tensor<fp16, [1280]> text_encoder_text_model_encoder_layers_4_mlp_fc2_bias_to_fp16 = const()[name = tensor<string, []>("text_encoder_text_model_encoder_layers_4_mlp_fc2_bias_to_fp16"), val = tensor<fp16, [1280]>(BLOBFILE(path = tensor<string, []>("@model_path/weights/weight.bin"), offset = tensor<uint64, []>(323470656)))];
            tensor<fp16, [1, 77, 1280]> hidden_states_29_cast = linear(bias = text_encoder_text_model_encoder_layers_4_mlp_fc2_bias_to_fp16, weight = text_encoder_text_model_encoder_layers_4_mlp_fc2_weight_to_fp16, x = input_81_cast)[name = tensor<string, []>("hidden_states_29_cast")];
            tensor<fp16, [1, 77, 1280]> input_83_cast = add(x = input_75_cast, y = hidden_states_29_cast)[name = tensor<string, []>("input_83_cast")];
            tensor<int32, [1]> hidden_states_31_axes_0 = const()[name = tensor<string, []>("hidden_states_31_axes_0"), val = tensor<int32, [1]>([-1])];
            tensor<fp16, [1280]> text_encoder_text_model_encoder_layers_5_layer_norm1_weight_to_fp16 = const()[name = tensor<string, []>("text_encoder_text_model_encoder_layers_5_layer_norm1_weight_to_fp16"), val = tensor<fp16, [1280]>(BLOBFILE(path = tensor<string, []>("@model_path/weights/weight.bin"), offset = tensor<uint64, []>(323473280)))];
            tensor<fp16, [1280]> text_encoder_text_model_encoder_layers_5_layer_norm1_bias_to_fp16 = const()[name = tensor<string, []>("text_encoder_text_model_encoder_layers_5_layer_norm1_bias_to_fp16"), val = tensor<fp16, [1280]>(BLOBFILE(path = tensor<string, []>("@model_path/weights/weight.bin"), offset = tensor<uint64, []>(323475904)))];
            tensor<fp16, [1, 77, 1280]> hidden_states_31_cast = layer_norm(axes = hidden_states_31_axes_0, beta = text_encoder_text_model_encoder_layers_5_layer_norm1_bias_to_fp16, epsilon = var_12_to_fp16, gamma = text_encoder_text_model_encoder_layers_5_layer_norm1_weight_to_fp16, x = input_83_cast)[name = tensor<string, []>("hidden_states_31_cast")];
            tensor<fp16, [1280, 1280]> text_encoder_text_model_encoder_layers_5_self_attn_q_proj_weight_to_fp16 = const()[name = tensor<string, []>("text_encoder_text_model_encoder_layers_5_self_attn_q_proj_weight_to_fp16"), val = tensor<fp16, [1280, 1280]>(BLOBFILE(path = tensor<string, []>("@model_path/weights/weight.bin"), offset = tensor<uint64, []>(323478528)))];
            tensor<fp16, [1280]> text_encoder_text_model_encoder_layers_5_self_attn_q_proj_bias_to_fp16 = const()[name = tensor<string, []>("text_encoder_text_model_encoder_layers_5_self_attn_q_proj_bias_to_fp16"), val = tensor<fp16, [1280]>(BLOBFILE(path = tensor<string, []>("@model_path/weights/weight.bin"), offset = tensor<uint64, []>(326755392)))];
            tensor<fp16, [1, 77, 1280]> var_563_cast = linear(bias = text_encoder_text_model_encoder_layers_5_self_attn_q_proj_bias_to_fp16, weight = text_encoder_text_model_encoder_layers_5_self_attn_q_proj_weight_to_fp16, x = hidden_states_31_cast)[name = tensor<string, []>("op_563_cast")];
            tensor<fp16, []> var_564_to_fp16 = const()[name = tensor<string, []>("op_564_to_fp16"), val = tensor<fp16, []>(0x1p-3)];
            tensor<fp16, [1, 77, 1280]> tensor_35_cast = mul(x = var_563_cast, y = var_564_to_fp16)[name = tensor<string, []>("tensor_35_cast")];
            tensor<fp16, [1280, 1280]> text_encoder_text_model_encoder_layers_5_self_attn_k_proj_weight_to_fp16 = const()[name = tensor<string, []>("text_encoder_text_model_encoder_layers_5_self_attn_k_proj_weight_to_fp16"), val = tensor<fp16, [1280, 1280]>(BLOBFILE(path = tensor<string, []>("@model_path/weights/weight.bin"), offset = tensor<uint64, []>(326758016)))];
            tensor<fp16, [1280]> text_encoder_text_model_encoder_layers_5_self_attn_k_proj_bias_to_fp16 = const()[name = tensor<string, []>("text_encoder_text_model_encoder_layers_5_self_attn_k_proj_bias_to_fp16"), val = tensor<fp16, [1280]>(BLOBFILE(path = tensor<string, []>("@model_path/weights/weight.bin"), offset = tensor<uint64, []>(330034880)))];
            tensor<fp16, [1, 77, 1280]> tensor_31_cast = linear(bias = text_encoder_text_model_encoder_layers_5_self_attn_k_proj_bias_to_fp16, weight = text_encoder_text_model_encoder_layers_5_self_attn_k_proj_weight_to_fp16, x = hidden_states_31_cast)[name = tensor<string, []>("tensor_31_cast")];
            tensor<int32, [4]> var_569 = const()[name = tensor<string, []>("op_569"), val = tensor<int32, [4]>([1, -1, 20, 64])];
            tensor<fp16, [1, 77, 20, 64]> var_570_cast = reshape(shape = var_569, x = tensor_31_cast)[name = tensor<string, []>("op_570_cast")];
            tensor<int32, [4]> var_571_perm_0 = const()[name = tensor<string, []>("op_571_perm_0"), val = tensor<int32, [4]>([0, 2, 1, 3])];
            tensor<fp16, [1280, 1280]> text_encoder_text_model_encoder_layers_5_self_attn_v_proj_weight_to_fp16 = const()[name = tensor<string, []>("text_encoder_text_model_encoder_layers_5_self_attn_v_proj_weight_to_fp16"), val = tensor<fp16, [1280, 1280]>(BLOBFILE(path = tensor<string, []>("@model_path/weights/weight.bin"), offset = tensor<uint64, []>(330037504)))];
            tensor<fp16, [1280]> text_encoder_text_model_encoder_layers_5_self_attn_v_proj_bias_to_fp16 = const()[name = tensor<string, []>("text_encoder_text_model_encoder_layers_5_self_attn_v_proj_bias_to_fp16"), val = tensor<fp16, [1280]>(BLOBFILE(path = tensor<string, []>("@model_path/weights/weight.bin"), offset = tensor<uint64, []>(333314368)))];
            tensor<fp16, [1, 77, 1280]> tensor_33_cast = linear(bias = text_encoder_text_model_encoder_layers_5_self_attn_v_proj_bias_to_fp16, weight = text_encoder_text_model_encoder_layers_5_self_attn_v_proj_weight_to_fp16, x = hidden_states_31_cast)[name = tensor<string, []>("tensor_33_cast")];
            tensor<int32, [4]> var_576 = const()[name = tensor<string, []>("op_576"), val = tensor<int32, [4]>([1, -1, 20, 64])];
            tensor<fp16, [1, 77, 20, 64]> var_577_cast = reshape(shape = var_576, x = tensor_33_cast)[name = tensor<string, []>("op_577_cast")];
            tensor<int32, [4]> var_578_perm_0 = const()[name = tensor<string, []>("op_578_perm_0"), val = tensor<int32, [4]>([0, 2, 1, 3])];
            tensor<int32, [4]> var_585 = const()[name = tensor<string, []>("op_585"), val = tensor<int32, [4]>([1, 77, 20, 64])];
            tensor<fp16, [1, 77, 20, 64]> var_586_cast = reshape(shape = var_585, x = tensor_35_cast)[name = tensor<string, []>("op_586_cast")];
            tensor<int32, [4]> var_587_perm_0 = const()[name = tensor<string, []>("op_587_perm_0"), val = tensor<int32, [4]>([0, 2, 1, 3])];
            tensor<int32, [3]> var_589 = const()[name = tensor<string, []>("op_589"), val = tensor<int32, [3]>([20, -1, 64])];
            tensor<fp16, [1, 20, 77, 64]> transpose_133 = transpose(perm = var_587_perm_0, x = var_586_cast)[name = tensor<string, []>("transpose_133")];
            tensor<fp16, [20, 77, 64]> query_states_11_cast = reshape(shape = var_589, x = transpose_133)[name = tensor<string, []>("query_states_11_cast")];
            tensor<int32, [3]> var_591 = const()[name = tensor<string, []>("op_591"), val = tensor<int32, [3]>([20, -1, 64])];
            tensor<fp16, [1, 20, 77, 64]> transpose_135 = transpose(perm = var_571_perm_0, x = var_570_cast)[name = tensor<string, []>("transpose_135")];
            tensor<fp16, [20, 77, 64]> key_states_23_cast = reshape(shape = var_591, x = transpose_135)[name = tensor<string, []>("key_states_23_cast")];
            tensor<int32, [3]> var_593 = const()[name = tensor<string, []>("op_593"), val = tensor<int32, [3]>([20, -1, 64])];
            tensor<fp16, [1, 20, 77, 64]> transpose_134 = transpose(perm = var_578_perm_0, x = var_577_cast)[name = tensor<string, []>("transpose_134")];
            tensor<fp16, [20, 77, 64]> value_states_23_cast = reshape(shape = var_593, x = transpose_134)[name = tensor<string, []>("value_states_23_cast")];
            tensor<int32, [3]> var_596_perm_0 = const()[name = tensor<string, []>("op_596_perm_0"), val = tensor<int32, [3]>([0, 2, 1])];
            tensor<bool, []> attn_weights_31_transpose_x_0 = const()[name = tensor<string, []>("attn_weights_31_transpose_x_0"), val = tensor<bool, []>(false)];
            tensor<bool, []> attn_weights_31_transpose_y_0 = const()[name = tensor<string, []>("attn_weights_31_transpose_y_0"), val = tensor<bool, []>(false)];
            tensor<fp16, [20, 64, 77]> transpose_132 = transpose(perm = var_596_perm_0, x = key_states_23_cast)[name = tensor<string, []>("transpose_132")];
            tensor<fp16, [20, 77, 77]> attn_weights_31_cast = matmul(transpose_x = attn_weights_31_transpose_x_0, transpose_y = attn_weights_31_transpose_y_0, x = query_states_11_cast, y = transpose_132)[name = tensor<string, []>("attn_weights_31_cast")];
            tensor<int32, [4]> var_598 = const()[name = tensor<string, []>("op_598"), val = tensor<int32, [4]>([1, 20, 77, 77])];
            tensor<fp16, [1, 20, 77, 77]> var_599_cast = reshape(shape = var_598, x = attn_weights_31_cast)[name = tensor<string, []>("op_599_cast")];
            tensor<fp16, [1, 20, 77, 77]> attn_weights_33_cast = add(x = var_599_cast, y = causal_attention_mask_to_fp16)[name = tensor<string, []>("attn_weights_33_cast")];
            tensor<int32, [3]> var_604 = const()[name = tensor<string, []>("op_604"), val = tensor<int32, [3]>([20, 77, 77])];
            tensor<fp16, [20, 77, 77]> input_85_cast = reshape(shape = var_604, x = attn_weights_33_cast)[name = tensor<string, []>("input_85_cast")];
            tensor<fp16, [20, 77, 77]> input_87_cast = softmax(axis = var_5, x = input_85_cast)[name = tensor<string, []>("input_87_cast")];
            tensor<bool, []> attn_output_31_transpose_x_0 = const()[name = tensor<string, []>("attn_output_31_transpose_x_0"), val = tensor<bool, []>(false)];
            tensor<bool, []> attn_output_31_transpose_y_0 = const()[name = tensor<string, []>("attn_output_31_transpose_y_0"), val = tensor<bool, []>(false)];
            tensor<fp16, [20, 77, 64]> attn_output_31_cast = matmul(transpose_x = attn_output_31_transpose_x_0, transpose_y = attn_output_31_transpose_y_0, x = input_87_cast, y = value_states_23_cast)[name = tensor<string, []>("attn_output_31_cast")];
            tensor<int32, [4]> var_609 = const()[name = tensor<string, []>("op_609"), val = tensor<int32, [4]>([1, 20, 77, 64])];
            tensor<fp16, [1, 20, 77, 64]> attn_output_33_cast = reshape(shape = var_609, x = attn_output_31_cast)[name = tensor<string, []>("attn_output_33_cast")];
            tensor<int32, [4]> attn_output_35_perm_0 = const()[name = tensor<string, []>("attn_output_35_perm_0"), val = tensor<int32, [4]>([0, 2, 1, 3])];
            tensor<int32, [3]> var_612 = const()[name = tensor<string, []>("op_612"), val = tensor<int32, [3]>([1, 77, 1280])];
            tensor<fp16, [1, 77, 20, 64]> transpose_131 = transpose(perm = attn_output_35_perm_0, x = attn_output_33_cast)[name = tensor<string, []>("transpose_131")];
            tensor<fp16, [1, 77, 1280]> input_89_cast = reshape(shape = var_612, x = transpose_131)[name = tensor<string, []>("input_89_cast")];
            tensor<fp16, [1280, 1280]> text_encoder_text_model_encoder_layers_5_self_attn_out_proj_weight_to_fp16 = const()[name = tensor<string, []>("text_encoder_text_model_encoder_layers_5_self_attn_out_proj_weight_to_fp16"), val = tensor<fp16, [1280, 1280]>(BLOBFILE(path = tensor<string, []>("@model_path/weights/weight.bin"), offset = tensor<uint64, []>(333316992)))];
            tensor<fp16, [1280]> text_encoder_text_model_encoder_layers_5_self_attn_out_proj_bias_to_fp16 = const()[name = tensor<string, []>("text_encoder_text_model_encoder_layers_5_self_attn_out_proj_bias_to_fp16"), val = tensor<fp16, [1280]>(BLOBFILE(path = tensor<string, []>("@model_path/weights/weight.bin"), offset = tensor<uint64, []>(336593856)))];
            tensor<fp16, [1, 77, 1280]> hidden_states_33_cast = linear(bias = text_encoder_text_model_encoder_layers_5_self_attn_out_proj_bias_to_fp16, weight = text_encoder_text_model_encoder_layers_5_self_attn_out_proj_weight_to_fp16, x = input_89_cast)[name = tensor<string, []>("hidden_states_33_cast")];
            tensor<fp16, [1, 77, 1280]> input_91_cast = add(x = input_83_cast, y = hidden_states_33_cast)[name = tensor<string, []>("input_91_cast")];
            tensor<int32, [1]> input_93_axes_0 = const()[name = tensor<string, []>("input_93_axes_0"), val = tensor<int32, [1]>([-1])];
            tensor<fp16, [1280]> text_encoder_text_model_encoder_layers_5_layer_norm2_weight_to_fp16 = const()[name = tensor<string, []>("text_encoder_text_model_encoder_layers_5_layer_norm2_weight_to_fp16"), val = tensor<fp16, [1280]>(BLOBFILE(path = tensor<string, []>("@model_path/weights/weight.bin"), offset = tensor<uint64, []>(336596480)))];
            tensor<fp16, [1280]> text_encoder_text_model_encoder_layers_5_layer_norm2_bias_to_fp16 = const()[name = tensor<string, []>("text_encoder_text_model_encoder_layers_5_layer_norm2_bias_to_fp16"), val = tensor<fp16, [1280]>(BLOBFILE(path = tensor<string, []>("@model_path/weights/weight.bin"), offset = tensor<uint64, []>(336599104)))];
            tensor<fp16, [1, 77, 1280]> input_93_cast = layer_norm(axes = input_93_axes_0, beta = text_encoder_text_model_encoder_layers_5_layer_norm2_bias_to_fp16, epsilon = var_12_to_fp16, gamma = text_encoder_text_model_encoder_layers_5_layer_norm2_weight_to_fp16, x = input_91_cast)[name = tensor<string, []>("input_93_cast")];
            tensor<fp16, [5120, 1280]> text_encoder_text_model_encoder_layers_5_mlp_fc1_weight_to_fp16 = const()[name = tensor<string, []>("text_encoder_text_model_encoder_layers_5_mlp_fc1_weight_to_fp16"), val = tensor<fp16, [5120, 1280]>(BLOBFILE(path = tensor<string, []>("@model_path/weights/weight.bin"), offset = tensor<uint64, []>(336601728)))];
            tensor<fp16, [5120]> text_encoder_text_model_encoder_layers_5_mlp_fc1_bias_to_fp16 = const()[name = tensor<string, []>("text_encoder_text_model_encoder_layers_5_mlp_fc1_bias_to_fp16"), val = tensor<fp16, [5120]>(BLOBFILE(path = tensor<string, []>("@model_path/weights/weight.bin"), offset = tensor<uint64, []>(349708992)))];
            tensor<fp16, [1, 77, 5120]> input_95_cast = linear(bias = text_encoder_text_model_encoder_layers_5_mlp_fc1_bias_to_fp16, weight = text_encoder_text_model_encoder_layers_5_mlp_fc1_weight_to_fp16, x = input_93_cast)[name = tensor<string, []>("input_95_cast")];
            tensor<string, []> input_97_mode_0 = const()[name = tensor<string, []>("input_97_mode_0"), val = tensor<string, []>("EXACT")];
            tensor<fp16, [1, 77, 5120]> input_97_cast = gelu(mode = input_97_mode_0, x = input_95_cast)[name = tensor<string, []>("input_97_cast")];
            tensor<fp16, [1280, 5120]> text_encoder_text_model_encoder_layers_5_mlp_fc2_weight_to_fp16 = const()[name = tensor<string, []>("text_encoder_text_model_encoder_layers_5_mlp_fc2_weight_to_fp16"), val = tensor<fp16, [1280, 5120]>(BLOBFILE(path = tensor<string, []>("@model_path/weights/weight.bin"), offset = tensor<uint64, []>(349719296)))];
            tensor<fp16, [1280]> text_encoder_text_model_encoder_layers_5_mlp_fc2_bias_to_fp16 = const()[name = tensor<string, []>("text_encoder_text_model_encoder_layers_5_mlp_fc2_bias_to_fp16"), val = tensor<fp16, [1280]>(BLOBFILE(path = tensor<string, []>("@model_path/weights/weight.bin"), offset = tensor<uint64, []>(362826560)))];
            tensor<fp16, [1, 77, 1280]> hidden_states_35_cast = linear(bias = text_encoder_text_model_encoder_layers_5_mlp_fc2_bias_to_fp16, weight = text_encoder_text_model_encoder_layers_5_mlp_fc2_weight_to_fp16, x = input_97_cast)[name = tensor<string, []>("hidden_states_35_cast")];
            tensor<fp16, [1, 77, 1280]> input_99_cast = add(x = input_91_cast, y = hidden_states_35_cast)[name = tensor<string, []>("input_99_cast")];
            tensor<int32, [1]> hidden_states_37_axes_0 = const()[name = tensor<string, []>("hidden_states_37_axes_0"), val = tensor<int32, [1]>([-1])];
            tensor<fp16, [1280]> text_encoder_text_model_encoder_layers_6_layer_norm1_weight_to_fp16 = const()[name = tensor<string, []>("text_encoder_text_model_encoder_layers_6_layer_norm1_weight_to_fp16"), val = tensor<fp16, [1280]>(BLOBFILE(path = tensor<string, []>("@model_path/weights/weight.bin"), offset = tensor<uint64, []>(362829184)))];
            tensor<fp16, [1280]> text_encoder_text_model_encoder_layers_6_layer_norm1_bias_to_fp16 = const()[name = tensor<string, []>("text_encoder_text_model_encoder_layers_6_layer_norm1_bias_to_fp16"), val = tensor<fp16, [1280]>(BLOBFILE(path = tensor<string, []>("@model_path/weights/weight.bin"), offset = tensor<uint64, []>(362831808)))];
            tensor<fp16, [1, 77, 1280]> hidden_states_37_cast = layer_norm(axes = hidden_states_37_axes_0, beta = text_encoder_text_model_encoder_layers_6_layer_norm1_bias_to_fp16, epsilon = var_12_to_fp16, gamma = text_encoder_text_model_encoder_layers_6_layer_norm1_weight_to_fp16, x = input_99_cast)[name = tensor<string, []>("hidden_states_37_cast")];
            tensor<fp16, [1280, 1280]> text_encoder_text_model_encoder_layers_6_self_attn_q_proj_weight_to_fp16 = const()[name = tensor<string, []>("text_encoder_text_model_encoder_layers_6_self_attn_q_proj_weight_to_fp16"), val = tensor<fp16, [1280, 1280]>(BLOBFILE(path = tensor<string, []>("@model_path/weights/weight.bin"), offset = tensor<uint64, []>(362834432)))];
            tensor<fp16, [1280]> text_encoder_text_model_encoder_layers_6_self_attn_q_proj_bias_to_fp16 = const()[name = tensor<string, []>("text_encoder_text_model_encoder_layers_6_self_attn_q_proj_bias_to_fp16"), val = tensor<fp16, [1280]>(BLOBFILE(path = tensor<string, []>("@model_path/weights/weight.bin"), offset = tensor<uint64, []>(366111296)))];
            tensor<fp16, [1, 77, 1280]> var_650_cast = linear(bias = text_encoder_text_model_encoder_layers_6_self_attn_q_proj_bias_to_fp16, weight = text_encoder_text_model_encoder_layers_6_self_attn_q_proj_weight_to_fp16, x = hidden_states_37_cast)[name = tensor<string, []>("op_650_cast")];
            tensor<fp16, []> var_651_to_fp16 = const()[name = tensor<string, []>("op_651_to_fp16"), val = tensor<fp16, []>(0x1p-3)];
            tensor<fp16, [1, 77, 1280]> tensor_41_cast = mul(x = var_650_cast, y = var_651_to_fp16)[name = tensor<string, []>("tensor_41_cast")];
            tensor<fp16, [1280, 1280]> text_encoder_text_model_encoder_layers_6_self_attn_k_proj_weight_to_fp16 = const()[name = tensor<string, []>("text_encoder_text_model_encoder_layers_6_self_attn_k_proj_weight_to_fp16"), val = tensor<fp16, [1280, 1280]>(BLOBFILE(path = tensor<string, []>("@model_path/weights/weight.bin"), offset = tensor<uint64, []>(366113920)))];
            tensor<fp16, [1280]> text_encoder_text_model_encoder_layers_6_self_attn_k_proj_bias_to_fp16 = const()[name = tensor<string, []>("text_encoder_text_model_encoder_layers_6_self_attn_k_proj_bias_to_fp16"), val = tensor<fp16, [1280]>(BLOBFILE(path = tensor<string, []>("@model_path/weights/weight.bin"), offset = tensor<uint64, []>(369390784)))];
            tensor<fp16, [1, 77, 1280]> tensor_37_cast = linear(bias = text_encoder_text_model_encoder_layers_6_self_attn_k_proj_bias_to_fp16, weight = text_encoder_text_model_encoder_layers_6_self_attn_k_proj_weight_to_fp16, x = hidden_states_37_cast)[name = tensor<string, []>("tensor_37_cast")];
            tensor<int32, [4]> var_656 = const()[name = tensor<string, []>("op_656"), val = tensor<int32, [4]>([1, -1, 20, 64])];
            tensor<fp16, [1, 77, 20, 64]> var_657_cast = reshape(shape = var_656, x = tensor_37_cast)[name = tensor<string, []>("op_657_cast")];
            tensor<int32, [4]> var_658_perm_0 = const()[name = tensor<string, []>("op_658_perm_0"), val = tensor<int32, [4]>([0, 2, 1, 3])];
            tensor<fp16, [1280, 1280]> text_encoder_text_model_encoder_layers_6_self_attn_v_proj_weight_to_fp16 = const()[name = tensor<string, []>("text_encoder_text_model_encoder_layers_6_self_attn_v_proj_weight_to_fp16"), val = tensor<fp16, [1280, 1280]>(BLOBFILE(path = tensor<string, []>("@model_path/weights/weight.bin"), offset = tensor<uint64, []>(369393408)))];
            tensor<fp16, [1280]> text_encoder_text_model_encoder_layers_6_self_attn_v_proj_bias_to_fp16 = const()[name = tensor<string, []>("text_encoder_text_model_encoder_layers_6_self_attn_v_proj_bias_to_fp16"), val = tensor<fp16, [1280]>(BLOBFILE(path = tensor<string, []>("@model_path/weights/weight.bin"), offset = tensor<uint64, []>(372670272)))];
            tensor<fp16, [1, 77, 1280]> tensor_39_cast = linear(bias = text_encoder_text_model_encoder_layers_6_self_attn_v_proj_bias_to_fp16, weight = text_encoder_text_model_encoder_layers_6_self_attn_v_proj_weight_to_fp16, x = hidden_states_37_cast)[name = tensor<string, []>("tensor_39_cast")];
            tensor<int32, [4]> var_663 = const()[name = tensor<string, []>("op_663"), val = tensor<int32, [4]>([1, -1, 20, 64])];
            tensor<fp16, [1, 77, 20, 64]> var_664_cast = reshape(shape = var_663, x = tensor_39_cast)[name = tensor<string, []>("op_664_cast")];
            tensor<int32, [4]> var_665_perm_0 = const()[name = tensor<string, []>("op_665_perm_0"), val = tensor<int32, [4]>([0, 2, 1, 3])];
            tensor<int32, [4]> var_672 = const()[name = tensor<string, []>("op_672"), val = tensor<int32, [4]>([1, 77, 20, 64])];
            tensor<fp16, [1, 77, 20, 64]> var_673_cast = reshape(shape = var_672, x = tensor_41_cast)[name = tensor<string, []>("op_673_cast")];
            tensor<int32, [4]> var_674_perm_0 = const()[name = tensor<string, []>("op_674_perm_0"), val = tensor<int32, [4]>([0, 2, 1, 3])];
            tensor<int32, [3]> var_676 = const()[name = tensor<string, []>("op_676"), val = tensor<int32, [3]>([20, -1, 64])];
            tensor<fp16, [1, 20, 77, 64]> transpose_128 = transpose(perm = var_674_perm_0, x = var_673_cast)[name = tensor<string, []>("transpose_128")];
            tensor<fp16, [20, 77, 64]> query_states_13_cast = reshape(shape = var_676, x = transpose_128)[name = tensor<string, []>("query_states_13_cast")];
            tensor<int32, [3]> var_678 = const()[name = tensor<string, []>("op_678"), val = tensor<int32, [3]>([20, -1, 64])];
            tensor<fp16, [1, 20, 77, 64]> transpose_130 = transpose(perm = var_658_perm_0, x = var_657_cast)[name = tensor<string, []>("transpose_130")];
            tensor<fp16, [20, 77, 64]> key_states_27_cast = reshape(shape = var_678, x = transpose_130)[name = tensor<string, []>("key_states_27_cast")];
            tensor<int32, [3]> var_680 = const()[name = tensor<string, []>("op_680"), val = tensor<int32, [3]>([20, -1, 64])];
            tensor<fp16, [1, 20, 77, 64]> transpose_129 = transpose(perm = var_665_perm_0, x = var_664_cast)[name = tensor<string, []>("transpose_129")];
            tensor<fp16, [20, 77, 64]> value_states_27_cast = reshape(shape = var_680, x = transpose_129)[name = tensor<string, []>("value_states_27_cast")];
            tensor<int32, [3]> var_683_perm_0 = const()[name = tensor<string, []>("op_683_perm_0"), val = tensor<int32, [3]>([0, 2, 1])];
            tensor<bool, []> attn_weights_37_transpose_x_0 = const()[name = tensor<string, []>("attn_weights_37_transpose_x_0"), val = tensor<bool, []>(false)];
            tensor<bool, []> attn_weights_37_transpose_y_0 = const()[name = tensor<string, []>("attn_weights_37_transpose_y_0"), val = tensor<bool, []>(false)];
            tensor<fp16, [20, 64, 77]> transpose_127 = transpose(perm = var_683_perm_0, x = key_states_27_cast)[name = tensor<string, []>("transpose_127")];
            tensor<fp16, [20, 77, 77]> attn_weights_37_cast = matmul(transpose_x = attn_weights_37_transpose_x_0, transpose_y = attn_weights_37_transpose_y_0, x = query_states_13_cast, y = transpose_127)[name = tensor<string, []>("attn_weights_37_cast")];
            tensor<int32, [4]> var_685 = const()[name = tensor<string, []>("op_685"), val = tensor<int32, [4]>([1, 20, 77, 77])];
            tensor<fp16, [1, 20, 77, 77]> var_686_cast = reshape(shape = var_685, x = attn_weights_37_cast)[name = tensor<string, []>("op_686_cast")];
            tensor<fp16, [1, 20, 77, 77]> attn_weights_39_cast = add(x = var_686_cast, y = causal_attention_mask_to_fp16)[name = tensor<string, []>("attn_weights_39_cast")];
            tensor<int32, [3]> var_691 = const()[name = tensor<string, []>("op_691"), val = tensor<int32, [3]>([20, 77, 77])];
            tensor<fp16, [20, 77, 77]> input_101_cast = reshape(shape = var_691, x = attn_weights_39_cast)[name = tensor<string, []>("input_101_cast")];
            tensor<fp16, [20, 77, 77]> input_103_cast = softmax(axis = var_5, x = input_101_cast)[name = tensor<string, []>("input_103_cast")];
            tensor<bool, []> attn_output_37_transpose_x_0 = const()[name = tensor<string, []>("attn_output_37_transpose_x_0"), val = tensor<bool, []>(false)];
            tensor<bool, []> attn_output_37_transpose_y_0 = const()[name = tensor<string, []>("attn_output_37_transpose_y_0"), val = tensor<bool, []>(false)];
            tensor<fp16, [20, 77, 64]> attn_output_37_cast = matmul(transpose_x = attn_output_37_transpose_x_0, transpose_y = attn_output_37_transpose_y_0, x = input_103_cast, y = value_states_27_cast)[name = tensor<string, []>("attn_output_37_cast")];
            tensor<int32, [4]> var_696 = const()[name = tensor<string, []>("op_696"), val = tensor<int32, [4]>([1, 20, 77, 64])];
            tensor<fp16, [1, 20, 77, 64]> attn_output_39_cast = reshape(shape = var_696, x = attn_output_37_cast)[name = tensor<string, []>("attn_output_39_cast")];
            tensor<int32, [4]> attn_output_41_perm_0 = const()[name = tensor<string, []>("attn_output_41_perm_0"), val = tensor<int32, [4]>([0, 2, 1, 3])];
            tensor<int32, [3]> var_699 = const()[name = tensor<string, []>("op_699"), val = tensor<int32, [3]>([1, 77, 1280])];
            tensor<fp16, [1, 77, 20, 64]> transpose_126 = transpose(perm = attn_output_41_perm_0, x = attn_output_39_cast)[name = tensor<string, []>("transpose_126")];
            tensor<fp16, [1, 77, 1280]> input_105_cast = reshape(shape = var_699, x = transpose_126)[name = tensor<string, []>("input_105_cast")];
            tensor<fp16, [1280, 1280]> text_encoder_text_model_encoder_layers_6_self_attn_out_proj_weight_to_fp16 = const()[name = tensor<string, []>("text_encoder_text_model_encoder_layers_6_self_attn_out_proj_weight_to_fp16"), val = tensor<fp16, [1280, 1280]>(BLOBFILE(path = tensor<string, []>("@model_path/weights/weight.bin"), offset = tensor<uint64, []>(372672896)))];
            tensor<fp16, [1280]> text_encoder_text_model_encoder_layers_6_self_attn_out_proj_bias_to_fp16 = const()[name = tensor<string, []>("text_encoder_text_model_encoder_layers_6_self_attn_out_proj_bias_to_fp16"), val = tensor<fp16, [1280]>(BLOBFILE(path = tensor<string, []>("@model_path/weights/weight.bin"), offset = tensor<uint64, []>(375949760)))];
            tensor<fp16, [1, 77, 1280]> hidden_states_39_cast = linear(bias = text_encoder_text_model_encoder_layers_6_self_attn_out_proj_bias_to_fp16, weight = text_encoder_text_model_encoder_layers_6_self_attn_out_proj_weight_to_fp16, x = input_105_cast)[name = tensor<string, []>("hidden_states_39_cast")];
            tensor<fp16, [1, 77, 1280]> input_107_cast = add(x = input_99_cast, y = hidden_states_39_cast)[name = tensor<string, []>("input_107_cast")];
            tensor<int32, [1]> input_109_axes_0 = const()[name = tensor<string, []>("input_109_axes_0"), val = tensor<int32, [1]>([-1])];
            tensor<fp16, [1280]> text_encoder_text_model_encoder_layers_6_layer_norm2_weight_to_fp16 = const()[name = tensor<string, []>("text_encoder_text_model_encoder_layers_6_layer_norm2_weight_to_fp16"), val = tensor<fp16, [1280]>(BLOBFILE(path = tensor<string, []>("@model_path/weights/weight.bin"), offset = tensor<uint64, []>(375952384)))];
            tensor<fp16, [1280]> text_encoder_text_model_encoder_layers_6_layer_norm2_bias_to_fp16 = const()[name = tensor<string, []>("text_encoder_text_model_encoder_layers_6_layer_norm2_bias_to_fp16"), val = tensor<fp16, [1280]>(BLOBFILE(path = tensor<string, []>("@model_path/weights/weight.bin"), offset = tensor<uint64, []>(375955008)))];
            tensor<fp16, [1, 77, 1280]> input_109_cast = layer_norm(axes = input_109_axes_0, beta = text_encoder_text_model_encoder_layers_6_layer_norm2_bias_to_fp16, epsilon = var_12_to_fp16, gamma = text_encoder_text_model_encoder_layers_6_layer_norm2_weight_to_fp16, x = input_107_cast)[name = tensor<string, []>("input_109_cast")];
            tensor<fp16, [5120, 1280]> text_encoder_text_model_encoder_layers_6_mlp_fc1_weight_to_fp16 = const()[name = tensor<string, []>("text_encoder_text_model_encoder_layers_6_mlp_fc1_weight_to_fp16"), val = tensor<fp16, [5120, 1280]>(BLOBFILE(path = tensor<string, []>("@model_path/weights/weight.bin"), offset = tensor<uint64, []>(375957632)))];
            tensor<fp16, [5120]> text_encoder_text_model_encoder_layers_6_mlp_fc1_bias_to_fp16 = const()[name = tensor<string, []>("text_encoder_text_model_encoder_layers_6_mlp_fc1_bias_to_fp16"), val = tensor<fp16, [5120]>(BLOBFILE(path = tensor<string, []>("@model_path/weights/weight.bin"), offset = tensor<uint64, []>(389064896)))];
            tensor<fp16, [1, 77, 5120]> input_111_cast = linear(bias = text_encoder_text_model_encoder_layers_6_mlp_fc1_bias_to_fp16, weight = text_encoder_text_model_encoder_layers_6_mlp_fc1_weight_to_fp16, x = input_109_cast)[name = tensor<string, []>("input_111_cast")];
            tensor<string, []> input_113_mode_0 = const()[name = tensor<string, []>("input_113_mode_0"), val = tensor<string, []>("EXACT")];
            tensor<fp16, [1, 77, 5120]> input_113_cast = gelu(mode = input_113_mode_0, x = input_111_cast)[name = tensor<string, []>("input_113_cast")];
            tensor<fp16, [1280, 5120]> text_encoder_text_model_encoder_layers_6_mlp_fc2_weight_to_fp16 = const()[name = tensor<string, []>("text_encoder_text_model_encoder_layers_6_mlp_fc2_weight_to_fp16"), val = tensor<fp16, [1280, 5120]>(BLOBFILE(path = tensor<string, []>("@model_path/weights/weight.bin"), offset = tensor<uint64, []>(389075200)))];
            tensor<fp16, [1280]> text_encoder_text_model_encoder_layers_6_mlp_fc2_bias_to_fp16 = const()[name = tensor<string, []>("text_encoder_text_model_encoder_layers_6_mlp_fc2_bias_to_fp16"), val = tensor<fp16, [1280]>(BLOBFILE(path = tensor<string, []>("@model_path/weights/weight.bin"), offset = tensor<uint64, []>(402182464)))];
            tensor<fp16, [1, 77, 1280]> hidden_states_41_cast = linear(bias = text_encoder_text_model_encoder_layers_6_mlp_fc2_bias_to_fp16, weight = text_encoder_text_model_encoder_layers_6_mlp_fc2_weight_to_fp16, x = input_113_cast)[name = tensor<string, []>("hidden_states_41_cast")];
            tensor<fp16, [1, 77, 1280]> input_115_cast = add(x = input_107_cast, y = hidden_states_41_cast)[name = tensor<string, []>("input_115_cast")];
            tensor<int32, [1]> hidden_states_43_axes_0 = const()[name = tensor<string, []>("hidden_states_43_axes_0"), val = tensor<int32, [1]>([-1])];
            tensor<fp16, [1280]> text_encoder_text_model_encoder_layers_7_layer_norm1_weight_to_fp16 = const()[name = tensor<string, []>("text_encoder_text_model_encoder_layers_7_layer_norm1_weight_to_fp16"), val = tensor<fp16, [1280]>(BLOBFILE(path = tensor<string, []>("@model_path/weights/weight.bin"), offset = tensor<uint64, []>(402185088)))];
            tensor<fp16, [1280]> text_encoder_text_model_encoder_layers_7_layer_norm1_bias_to_fp16 = const()[name = tensor<string, []>("text_encoder_text_model_encoder_layers_7_layer_norm1_bias_to_fp16"), val = tensor<fp16, [1280]>(BLOBFILE(path = tensor<string, []>("@model_path/weights/weight.bin"), offset = tensor<uint64, []>(402187712)))];
            tensor<fp16, [1, 77, 1280]> hidden_states_43_cast = layer_norm(axes = hidden_states_43_axes_0, beta = text_encoder_text_model_encoder_layers_7_layer_norm1_bias_to_fp16, epsilon = var_12_to_fp16, gamma = text_encoder_text_model_encoder_layers_7_layer_norm1_weight_to_fp16, x = input_115_cast)[name = tensor<string, []>("hidden_states_43_cast")];
            tensor<fp16, [1280, 1280]> text_encoder_text_model_encoder_layers_7_self_attn_q_proj_weight_to_fp16 = const()[name = tensor<string, []>("text_encoder_text_model_encoder_layers_7_self_attn_q_proj_weight_to_fp16"), val = tensor<fp16, [1280, 1280]>(BLOBFILE(path = tensor<string, []>("@model_path/weights/weight.bin"), offset = tensor<uint64, []>(402190336)))];
            tensor<fp16, [1280]> text_encoder_text_model_encoder_layers_7_self_attn_q_proj_bias_to_fp16 = const()[name = tensor<string, []>("text_encoder_text_model_encoder_layers_7_self_attn_q_proj_bias_to_fp16"), val = tensor<fp16, [1280]>(BLOBFILE(path = tensor<string, []>("@model_path/weights/weight.bin"), offset = tensor<uint64, []>(405467200)))];
            tensor<fp16, [1, 77, 1280]> var_737_cast = linear(bias = text_encoder_text_model_encoder_layers_7_self_attn_q_proj_bias_to_fp16, weight = text_encoder_text_model_encoder_layers_7_self_attn_q_proj_weight_to_fp16, x = hidden_states_43_cast)[name = tensor<string, []>("op_737_cast")];
            tensor<fp16, []> var_738_to_fp16 = const()[name = tensor<string, []>("op_738_to_fp16"), val = tensor<fp16, []>(0x1p-3)];
            tensor<fp16, [1, 77, 1280]> tensor_47_cast = mul(x = var_737_cast, y = var_738_to_fp16)[name = tensor<string, []>("tensor_47_cast")];
            tensor<fp16, [1280, 1280]> text_encoder_text_model_encoder_layers_7_self_attn_k_proj_weight_to_fp16 = const()[name = tensor<string, []>("text_encoder_text_model_encoder_layers_7_self_attn_k_proj_weight_to_fp16"), val = tensor<fp16, [1280, 1280]>(BLOBFILE(path = tensor<string, []>("@model_path/weights/weight.bin"), offset = tensor<uint64, []>(405469824)))];
            tensor<fp16, [1280]> text_encoder_text_model_encoder_layers_7_self_attn_k_proj_bias_to_fp16 = const()[name = tensor<string, []>("text_encoder_text_model_encoder_layers_7_self_attn_k_proj_bias_to_fp16"), val = tensor<fp16, [1280]>(BLOBFILE(path = tensor<string, []>("@model_path/weights/weight.bin"), offset = tensor<uint64, []>(408746688)))];
            tensor<fp16, [1, 77, 1280]> tensor_43_cast = linear(bias = text_encoder_text_model_encoder_layers_7_self_attn_k_proj_bias_to_fp16, weight = text_encoder_text_model_encoder_layers_7_self_attn_k_proj_weight_to_fp16, x = hidden_states_43_cast)[name = tensor<string, []>("tensor_43_cast")];
            tensor<int32, [4]> var_743 = const()[name = tensor<string, []>("op_743"), val = tensor<int32, [4]>([1, -1, 20, 64])];
            tensor<fp16, [1, 77, 20, 64]> var_744_cast = reshape(shape = var_743, x = tensor_43_cast)[name = tensor<string, []>("op_744_cast")];
            tensor<int32, [4]> var_745_perm_0 = const()[name = tensor<string, []>("op_745_perm_0"), val = tensor<int32, [4]>([0, 2, 1, 3])];
            tensor<fp16, [1280, 1280]> text_encoder_text_model_encoder_layers_7_self_attn_v_proj_weight_to_fp16 = const()[name = tensor<string, []>("text_encoder_text_model_encoder_layers_7_self_attn_v_proj_weight_to_fp16"), val = tensor<fp16, [1280, 1280]>(BLOBFILE(path = tensor<string, []>("@model_path/weights/weight.bin"), offset = tensor<uint64, []>(408749312)))];
            tensor<fp16, [1280]> text_encoder_text_model_encoder_layers_7_self_attn_v_proj_bias_to_fp16 = const()[name = tensor<string, []>("text_encoder_text_model_encoder_layers_7_self_attn_v_proj_bias_to_fp16"), val = tensor<fp16, [1280]>(BLOBFILE(path = tensor<string, []>("@model_path/weights/weight.bin"), offset = tensor<uint64, []>(412026176)))];
            tensor<fp16, [1, 77, 1280]> tensor_45_cast = linear(bias = text_encoder_text_model_encoder_layers_7_self_attn_v_proj_bias_to_fp16, weight = text_encoder_text_model_encoder_layers_7_self_attn_v_proj_weight_to_fp16, x = hidden_states_43_cast)[name = tensor<string, []>("tensor_45_cast")];
            tensor<int32, [4]> var_750 = const()[name = tensor<string, []>("op_750"), val = tensor<int32, [4]>([1, -1, 20, 64])];
            tensor<fp16, [1, 77, 20, 64]> var_751_cast = reshape(shape = var_750, x = tensor_45_cast)[name = tensor<string, []>("op_751_cast")];
            tensor<int32, [4]> var_752_perm_0 = const()[name = tensor<string, []>("op_752_perm_0"), val = tensor<int32, [4]>([0, 2, 1, 3])];
            tensor<int32, [4]> var_759 = const()[name = tensor<string, []>("op_759"), val = tensor<int32, [4]>([1, 77, 20, 64])];
            tensor<fp16, [1, 77, 20, 64]> var_760_cast = reshape(shape = var_759, x = tensor_47_cast)[name = tensor<string, []>("op_760_cast")];
            tensor<int32, [4]> var_761_perm_0 = const()[name = tensor<string, []>("op_761_perm_0"), val = tensor<int32, [4]>([0, 2, 1, 3])];
            tensor<int32, [3]> var_763 = const()[name = tensor<string, []>("op_763"), val = tensor<int32, [3]>([20, -1, 64])];
            tensor<fp16, [1, 20, 77, 64]> transpose_123 = transpose(perm = var_761_perm_0, x = var_760_cast)[name = tensor<string, []>("transpose_123")];
            tensor<fp16, [20, 77, 64]> query_states_15_cast = reshape(shape = var_763, x = transpose_123)[name = tensor<string, []>("query_states_15_cast")];
            tensor<int32, [3]> var_765 = const()[name = tensor<string, []>("op_765"), val = tensor<int32, [3]>([20, -1, 64])];
            tensor<fp16, [1, 20, 77, 64]> transpose_125 = transpose(perm = var_745_perm_0, x = var_744_cast)[name = tensor<string, []>("transpose_125")];
            tensor<fp16, [20, 77, 64]> key_states_31_cast = reshape(shape = var_765, x = transpose_125)[name = tensor<string, []>("key_states_31_cast")];
            tensor<int32, [3]> var_767 = const()[name = tensor<string, []>("op_767"), val = tensor<int32, [3]>([20, -1, 64])];
            tensor<fp16, [1, 20, 77, 64]> transpose_124 = transpose(perm = var_752_perm_0, x = var_751_cast)[name = tensor<string, []>("transpose_124")];
            tensor<fp16, [20, 77, 64]> value_states_31_cast = reshape(shape = var_767, x = transpose_124)[name = tensor<string, []>("value_states_31_cast")];
            tensor<int32, [3]> var_770_perm_0 = const()[name = tensor<string, []>("op_770_perm_0"), val = tensor<int32, [3]>([0, 2, 1])];
            tensor<bool, []> attn_weights_43_transpose_x_0 = const()[name = tensor<string, []>("attn_weights_43_transpose_x_0"), val = tensor<bool, []>(false)];
            tensor<bool, []> attn_weights_43_transpose_y_0 = const()[name = tensor<string, []>("attn_weights_43_transpose_y_0"), val = tensor<bool, []>(false)];
            tensor<fp16, [20, 64, 77]> transpose_122 = transpose(perm = var_770_perm_0, x = key_states_31_cast)[name = tensor<string, []>("transpose_122")];
            tensor<fp16, [20, 77, 77]> attn_weights_43_cast = matmul(transpose_x = attn_weights_43_transpose_x_0, transpose_y = attn_weights_43_transpose_y_0, x = query_states_15_cast, y = transpose_122)[name = tensor<string, []>("attn_weights_43_cast")];
            tensor<int32, [4]> var_772 = const()[name = tensor<string, []>("op_772"), val = tensor<int32, [4]>([1, 20, 77, 77])];
            tensor<fp16, [1, 20, 77, 77]> var_773_cast = reshape(shape = var_772, x = attn_weights_43_cast)[name = tensor<string, []>("op_773_cast")];
            tensor<fp16, [1, 20, 77, 77]> attn_weights_45_cast = add(x = var_773_cast, y = causal_attention_mask_to_fp16)[name = tensor<string, []>("attn_weights_45_cast")];
            tensor<int32, [3]> var_778 = const()[name = tensor<string, []>("op_778"), val = tensor<int32, [3]>([20, 77, 77])];
            tensor<fp16, [20, 77, 77]> input_117_cast = reshape(shape = var_778, x = attn_weights_45_cast)[name = tensor<string, []>("input_117_cast")];
            tensor<fp16, [20, 77, 77]> input_119_cast = softmax(axis = var_5, x = input_117_cast)[name = tensor<string, []>("input_119_cast")];
            tensor<bool, []> attn_output_43_transpose_x_0 = const()[name = tensor<string, []>("attn_output_43_transpose_x_0"), val = tensor<bool, []>(false)];
            tensor<bool, []> attn_output_43_transpose_y_0 = const()[name = tensor<string, []>("attn_output_43_transpose_y_0"), val = tensor<bool, []>(false)];
            tensor<fp16, [20, 77, 64]> attn_output_43_cast = matmul(transpose_x = attn_output_43_transpose_x_0, transpose_y = attn_output_43_transpose_y_0, x = input_119_cast, y = value_states_31_cast)[name = tensor<string, []>("attn_output_43_cast")];
            tensor<int32, [4]> var_783 = const()[name = tensor<string, []>("op_783"), val = tensor<int32, [4]>([1, 20, 77, 64])];
            tensor<fp16, [1, 20, 77, 64]> attn_output_45_cast = reshape(shape = var_783, x = attn_output_43_cast)[name = tensor<string, []>("attn_output_45_cast")];
            tensor<int32, [4]> attn_output_47_perm_0 = const()[name = tensor<string, []>("attn_output_47_perm_0"), val = tensor<int32, [4]>([0, 2, 1, 3])];
            tensor<int32, [3]> var_786 = const()[name = tensor<string, []>("op_786"), val = tensor<int32, [3]>([1, 77, 1280])];
            tensor<fp16, [1, 77, 20, 64]> transpose_121 = transpose(perm = attn_output_47_perm_0, x = attn_output_45_cast)[name = tensor<string, []>("transpose_121")];
            tensor<fp16, [1, 77, 1280]> input_121_cast = reshape(shape = var_786, x = transpose_121)[name = tensor<string, []>("input_121_cast")];
            tensor<fp16, [1280, 1280]> text_encoder_text_model_encoder_layers_7_self_attn_out_proj_weight_to_fp16 = const()[name = tensor<string, []>("text_encoder_text_model_encoder_layers_7_self_attn_out_proj_weight_to_fp16"), val = tensor<fp16, [1280, 1280]>(BLOBFILE(path = tensor<string, []>("@model_path/weights/weight.bin"), offset = tensor<uint64, []>(412028800)))];
            tensor<fp16, [1280]> text_encoder_text_model_encoder_layers_7_self_attn_out_proj_bias_to_fp16 = const()[name = tensor<string, []>("text_encoder_text_model_encoder_layers_7_self_attn_out_proj_bias_to_fp16"), val = tensor<fp16, [1280]>(BLOBFILE(path = tensor<string, []>("@model_path/weights/weight.bin"), offset = tensor<uint64, []>(415305664)))];
            tensor<fp16, [1, 77, 1280]> hidden_states_45_cast = linear(bias = text_encoder_text_model_encoder_layers_7_self_attn_out_proj_bias_to_fp16, weight = text_encoder_text_model_encoder_layers_7_self_attn_out_proj_weight_to_fp16, x = input_121_cast)[name = tensor<string, []>("hidden_states_45_cast")];
            tensor<fp16, [1, 77, 1280]> input_123_cast = add(x = input_115_cast, y = hidden_states_45_cast)[name = tensor<string, []>("input_123_cast")];
            tensor<int32, [1]> input_125_axes_0 = const()[name = tensor<string, []>("input_125_axes_0"), val = tensor<int32, [1]>([-1])];
            tensor<fp16, [1280]> text_encoder_text_model_encoder_layers_7_layer_norm2_weight_to_fp16 = const()[name = tensor<string, []>("text_encoder_text_model_encoder_layers_7_layer_norm2_weight_to_fp16"), val = tensor<fp16, [1280]>(BLOBFILE(path = tensor<string, []>("@model_path/weights/weight.bin"), offset = tensor<uint64, []>(415308288)))];
            tensor<fp16, [1280]> text_encoder_text_model_encoder_layers_7_layer_norm2_bias_to_fp16 = const()[name = tensor<string, []>("text_encoder_text_model_encoder_layers_7_layer_norm2_bias_to_fp16"), val = tensor<fp16, [1280]>(BLOBFILE(path = tensor<string, []>("@model_path/weights/weight.bin"), offset = tensor<uint64, []>(415310912)))];
            tensor<fp16, [1, 77, 1280]> input_125_cast = layer_norm(axes = input_125_axes_0, beta = text_encoder_text_model_encoder_layers_7_layer_norm2_bias_to_fp16, epsilon = var_12_to_fp16, gamma = text_encoder_text_model_encoder_layers_7_layer_norm2_weight_to_fp16, x = input_123_cast)[name = tensor<string, []>("input_125_cast")];
            tensor<fp16, [5120, 1280]> text_encoder_text_model_encoder_layers_7_mlp_fc1_weight_to_fp16 = const()[name = tensor<string, []>("text_encoder_text_model_encoder_layers_7_mlp_fc1_weight_to_fp16"), val = tensor<fp16, [5120, 1280]>(BLOBFILE(path = tensor<string, []>("@model_path/weights/weight.bin"), offset = tensor<uint64, []>(415313536)))];
            tensor<fp16, [5120]> text_encoder_text_model_encoder_layers_7_mlp_fc1_bias_to_fp16 = const()[name = tensor<string, []>("text_encoder_text_model_encoder_layers_7_mlp_fc1_bias_to_fp16"), val = tensor<fp16, [5120]>(BLOBFILE(path = tensor<string, []>("@model_path/weights/weight.bin"), offset = tensor<uint64, []>(428420800)))];
            tensor<fp16, [1, 77, 5120]> input_127_cast = linear(bias = text_encoder_text_model_encoder_layers_7_mlp_fc1_bias_to_fp16, weight = text_encoder_text_model_encoder_layers_7_mlp_fc1_weight_to_fp16, x = input_125_cast)[name = tensor<string, []>("input_127_cast")];
            tensor<string, []> input_129_mode_0 = const()[name = tensor<string, []>("input_129_mode_0"), val = tensor<string, []>("EXACT")];
            tensor<fp16, [1, 77, 5120]> input_129_cast = gelu(mode = input_129_mode_0, x = input_127_cast)[name = tensor<string, []>("input_129_cast")];
            tensor<fp16, [1280, 5120]> text_encoder_text_model_encoder_layers_7_mlp_fc2_weight_to_fp16 = const()[name = tensor<string, []>("text_encoder_text_model_encoder_layers_7_mlp_fc2_weight_to_fp16"), val = tensor<fp16, [1280, 5120]>(BLOBFILE(path = tensor<string, []>("@model_path/weights/weight.bin"), offset = tensor<uint64, []>(428431104)))];
            tensor<fp16, [1280]> text_encoder_text_model_encoder_layers_7_mlp_fc2_bias_to_fp16 = const()[name = tensor<string, []>("text_encoder_text_model_encoder_layers_7_mlp_fc2_bias_to_fp16"), val = tensor<fp16, [1280]>(BLOBFILE(path = tensor<string, []>("@model_path/weights/weight.bin"), offset = tensor<uint64, []>(441538368)))];
            tensor<fp16, [1, 77, 1280]> hidden_states_47_cast = linear(bias = text_encoder_text_model_encoder_layers_7_mlp_fc2_bias_to_fp16, weight = text_encoder_text_model_encoder_layers_7_mlp_fc2_weight_to_fp16, x = input_129_cast)[name = tensor<string, []>("hidden_states_47_cast")];
            tensor<fp16, [1, 77, 1280]> input_131_cast = add(x = input_123_cast, y = hidden_states_47_cast)[name = tensor<string, []>("input_131_cast")];
            tensor<int32, [1]> hidden_states_49_axes_0 = const()[name = tensor<string, []>("hidden_states_49_axes_0"), val = tensor<int32, [1]>([-1])];
            tensor<fp16, [1280]> text_encoder_text_model_encoder_layers_8_layer_norm1_weight_to_fp16 = const()[name = tensor<string, []>("text_encoder_text_model_encoder_layers_8_layer_norm1_weight_to_fp16"), val = tensor<fp16, [1280]>(BLOBFILE(path = tensor<string, []>("@model_path/weights/weight.bin"), offset = tensor<uint64, []>(441540992)))];
            tensor<fp16, [1280]> text_encoder_text_model_encoder_layers_8_layer_norm1_bias_to_fp16 = const()[name = tensor<string, []>("text_encoder_text_model_encoder_layers_8_layer_norm1_bias_to_fp16"), val = tensor<fp16, [1280]>(BLOBFILE(path = tensor<string, []>("@model_path/weights/weight.bin"), offset = tensor<uint64, []>(441543616)))];
            tensor<fp16, [1, 77, 1280]> hidden_states_49_cast = layer_norm(axes = hidden_states_49_axes_0, beta = text_encoder_text_model_encoder_layers_8_layer_norm1_bias_to_fp16, epsilon = var_12_to_fp16, gamma = text_encoder_text_model_encoder_layers_8_layer_norm1_weight_to_fp16, x = input_131_cast)[name = tensor<string, []>("hidden_states_49_cast")];
            tensor<fp16, [1280, 1280]> text_encoder_text_model_encoder_layers_8_self_attn_q_proj_weight_to_fp16 = const()[name = tensor<string, []>("text_encoder_text_model_encoder_layers_8_self_attn_q_proj_weight_to_fp16"), val = tensor<fp16, [1280, 1280]>(BLOBFILE(path = tensor<string, []>("@model_path/weights/weight.bin"), offset = tensor<uint64, []>(441546240)))];
            tensor<fp16, [1280]> text_encoder_text_model_encoder_layers_8_self_attn_q_proj_bias_to_fp16 = const()[name = tensor<string, []>("text_encoder_text_model_encoder_layers_8_self_attn_q_proj_bias_to_fp16"), val = tensor<fp16, [1280]>(BLOBFILE(path = tensor<string, []>("@model_path/weights/weight.bin"), offset = tensor<uint64, []>(444823104)))];
            tensor<fp16, [1, 77, 1280]> var_824_cast = linear(bias = text_encoder_text_model_encoder_layers_8_self_attn_q_proj_bias_to_fp16, weight = text_encoder_text_model_encoder_layers_8_self_attn_q_proj_weight_to_fp16, x = hidden_states_49_cast)[name = tensor<string, []>("op_824_cast")];
            tensor<fp16, []> var_825_to_fp16 = const()[name = tensor<string, []>("op_825_to_fp16"), val = tensor<fp16, []>(0x1p-3)];
            tensor<fp16, [1, 77, 1280]> tensor_53_cast = mul(x = var_824_cast, y = var_825_to_fp16)[name = tensor<string, []>("tensor_53_cast")];
            tensor<fp16, [1280, 1280]> text_encoder_text_model_encoder_layers_8_self_attn_k_proj_weight_to_fp16 = const()[name = tensor<string, []>("text_encoder_text_model_encoder_layers_8_self_attn_k_proj_weight_to_fp16"), val = tensor<fp16, [1280, 1280]>(BLOBFILE(path = tensor<string, []>("@model_path/weights/weight.bin"), offset = tensor<uint64, []>(444825728)))];
            tensor<fp16, [1280]> text_encoder_text_model_encoder_layers_8_self_attn_k_proj_bias_to_fp16 = const()[name = tensor<string, []>("text_encoder_text_model_encoder_layers_8_self_attn_k_proj_bias_to_fp16"), val = tensor<fp16, [1280]>(BLOBFILE(path = tensor<string, []>("@model_path/weights/weight.bin"), offset = tensor<uint64, []>(448102592)))];
            tensor<fp16, [1, 77, 1280]> tensor_49_cast = linear(bias = text_encoder_text_model_encoder_layers_8_self_attn_k_proj_bias_to_fp16, weight = text_encoder_text_model_encoder_layers_8_self_attn_k_proj_weight_to_fp16, x = hidden_states_49_cast)[name = tensor<string, []>("tensor_49_cast")];
            tensor<int32, [4]> var_830 = const()[name = tensor<string, []>("op_830"), val = tensor<int32, [4]>([1, -1, 20, 64])];
            tensor<fp16, [1, 77, 20, 64]> var_831_cast = reshape(shape = var_830, x = tensor_49_cast)[name = tensor<string, []>("op_831_cast")];
            tensor<int32, [4]> var_832_perm_0 = const()[name = tensor<string, []>("op_832_perm_0"), val = tensor<int32, [4]>([0, 2, 1, 3])];
            tensor<fp16, [1280, 1280]> text_encoder_text_model_encoder_layers_8_self_attn_v_proj_weight_to_fp16 = const()[name = tensor<string, []>("text_encoder_text_model_encoder_layers_8_self_attn_v_proj_weight_to_fp16"), val = tensor<fp16, [1280, 1280]>(BLOBFILE(path = tensor<string, []>("@model_path/weights/weight.bin"), offset = tensor<uint64, []>(448105216)))];
            tensor<fp16, [1280]> text_encoder_text_model_encoder_layers_8_self_attn_v_proj_bias_to_fp16 = const()[name = tensor<string, []>("text_encoder_text_model_encoder_layers_8_self_attn_v_proj_bias_to_fp16"), val = tensor<fp16, [1280]>(BLOBFILE(path = tensor<string, []>("@model_path/weights/weight.bin"), offset = tensor<uint64, []>(451382080)))];
            tensor<fp16, [1, 77, 1280]> tensor_51_cast = linear(bias = text_encoder_text_model_encoder_layers_8_self_attn_v_proj_bias_to_fp16, weight = text_encoder_text_model_encoder_layers_8_self_attn_v_proj_weight_to_fp16, x = hidden_states_49_cast)[name = tensor<string, []>("tensor_51_cast")];
            tensor<int32, [4]> var_837 = const()[name = tensor<string, []>("op_837"), val = tensor<int32, [4]>([1, -1, 20, 64])];
            tensor<fp16, [1, 77, 20, 64]> var_838_cast = reshape(shape = var_837, x = tensor_51_cast)[name = tensor<string, []>("op_838_cast")];
            tensor<int32, [4]> var_839_perm_0 = const()[name = tensor<string, []>("op_839_perm_0"), val = tensor<int32, [4]>([0, 2, 1, 3])];
            tensor<int32, [4]> var_846 = const()[name = tensor<string, []>("op_846"), val = tensor<int32, [4]>([1, 77, 20, 64])];
            tensor<fp16, [1, 77, 20, 64]> var_847_cast = reshape(shape = var_846, x = tensor_53_cast)[name = tensor<string, []>("op_847_cast")];
            tensor<int32, [4]> var_848_perm_0 = const()[name = tensor<string, []>("op_848_perm_0"), val = tensor<int32, [4]>([0, 2, 1, 3])];
            tensor<int32, [3]> var_850 = const()[name = tensor<string, []>("op_850"), val = tensor<int32, [3]>([20, -1, 64])];
            tensor<fp16, [1, 20, 77, 64]> transpose_118 = transpose(perm = var_848_perm_0, x = var_847_cast)[name = tensor<string, []>("transpose_118")];
            tensor<fp16, [20, 77, 64]> query_states_17_cast = reshape(shape = var_850, x = transpose_118)[name = tensor<string, []>("query_states_17_cast")];
            tensor<int32, [3]> var_852 = const()[name = tensor<string, []>("op_852"), val = tensor<int32, [3]>([20, -1, 64])];
            tensor<fp16, [1, 20, 77, 64]> transpose_120 = transpose(perm = var_832_perm_0, x = var_831_cast)[name = tensor<string, []>("transpose_120")];
            tensor<fp16, [20, 77, 64]> key_states_35_cast = reshape(shape = var_852, x = transpose_120)[name = tensor<string, []>("key_states_35_cast")];
            tensor<int32, [3]> var_854 = const()[name = tensor<string, []>("op_854"), val = tensor<int32, [3]>([20, -1, 64])];
            tensor<fp16, [1, 20, 77, 64]> transpose_119 = transpose(perm = var_839_perm_0, x = var_838_cast)[name = tensor<string, []>("transpose_119")];
            tensor<fp16, [20, 77, 64]> value_states_35_cast = reshape(shape = var_854, x = transpose_119)[name = tensor<string, []>("value_states_35_cast")];
            tensor<int32, [3]> var_857_perm_0 = const()[name = tensor<string, []>("op_857_perm_0"), val = tensor<int32, [3]>([0, 2, 1])];
            tensor<bool, []> attn_weights_49_transpose_x_0 = const()[name = tensor<string, []>("attn_weights_49_transpose_x_0"), val = tensor<bool, []>(false)];
            tensor<bool, []> attn_weights_49_transpose_y_0 = const()[name = tensor<string, []>("attn_weights_49_transpose_y_0"), val = tensor<bool, []>(false)];
            tensor<fp16, [20, 64, 77]> transpose_117 = transpose(perm = var_857_perm_0, x = key_states_35_cast)[name = tensor<string, []>("transpose_117")];
            tensor<fp16, [20, 77, 77]> attn_weights_49_cast = matmul(transpose_x = attn_weights_49_transpose_x_0, transpose_y = attn_weights_49_transpose_y_0, x = query_states_17_cast, y = transpose_117)[name = tensor<string, []>("attn_weights_49_cast")];
            tensor<int32, [4]> var_859 = const()[name = tensor<string, []>("op_859"), val = tensor<int32, [4]>([1, 20, 77, 77])];
            tensor<fp16, [1, 20, 77, 77]> var_860_cast = reshape(shape = var_859, x = attn_weights_49_cast)[name = tensor<string, []>("op_860_cast")];
            tensor<fp16, [1, 20, 77, 77]> attn_weights_51_cast = add(x = var_860_cast, y = causal_attention_mask_to_fp16)[name = tensor<string, []>("attn_weights_51_cast")];
            tensor<int32, [3]> var_865 = const()[name = tensor<string, []>("op_865"), val = tensor<int32, [3]>([20, 77, 77])];
            tensor<fp16, [20, 77, 77]> input_133_cast = reshape(shape = var_865, x = attn_weights_51_cast)[name = tensor<string, []>("input_133_cast")];
            tensor<fp16, [20, 77, 77]> input_135_cast = softmax(axis = var_5, x = input_133_cast)[name = tensor<string, []>("input_135_cast")];
            tensor<bool, []> attn_output_49_transpose_x_0 = const()[name = tensor<string, []>("attn_output_49_transpose_x_0"), val = tensor<bool, []>(false)];
            tensor<bool, []> attn_output_49_transpose_y_0 = const()[name = tensor<string, []>("attn_output_49_transpose_y_0"), val = tensor<bool, []>(false)];
            tensor<fp16, [20, 77, 64]> attn_output_49_cast = matmul(transpose_x = attn_output_49_transpose_x_0, transpose_y = attn_output_49_transpose_y_0, x = input_135_cast, y = value_states_35_cast)[name = tensor<string, []>("attn_output_49_cast")];
            tensor<int32, [4]> var_870 = const()[name = tensor<string, []>("op_870"), val = tensor<int32, [4]>([1, 20, 77, 64])];
            tensor<fp16, [1, 20, 77, 64]> attn_output_51_cast = reshape(shape = var_870, x = attn_output_49_cast)[name = tensor<string, []>("attn_output_51_cast")];
            tensor<int32, [4]> attn_output_53_perm_0 = const()[name = tensor<string, []>("attn_output_53_perm_0"), val = tensor<int32, [4]>([0, 2, 1, 3])];
            tensor<int32, [3]> var_873 = const()[name = tensor<string, []>("op_873"), val = tensor<int32, [3]>([1, 77, 1280])];
            tensor<fp16, [1, 77, 20, 64]> transpose_116 = transpose(perm = attn_output_53_perm_0, x = attn_output_51_cast)[name = tensor<string, []>("transpose_116")];
            tensor<fp16, [1, 77, 1280]> input_137_cast = reshape(shape = var_873, x = transpose_116)[name = tensor<string, []>("input_137_cast")];
            tensor<fp16, [1280, 1280]> text_encoder_text_model_encoder_layers_8_self_attn_out_proj_weight_to_fp16 = const()[name = tensor<string, []>("text_encoder_text_model_encoder_layers_8_self_attn_out_proj_weight_to_fp16"), val = tensor<fp16, [1280, 1280]>(BLOBFILE(path = tensor<string, []>("@model_path/weights/weight.bin"), offset = tensor<uint64, []>(451384704)))];
            tensor<fp16, [1280]> text_encoder_text_model_encoder_layers_8_self_attn_out_proj_bias_to_fp16 = const()[name = tensor<string, []>("text_encoder_text_model_encoder_layers_8_self_attn_out_proj_bias_to_fp16"), val = tensor<fp16, [1280]>(BLOBFILE(path = tensor<string, []>("@model_path/weights/weight.bin"), offset = tensor<uint64, []>(454661568)))];
            tensor<fp16, [1, 77, 1280]> hidden_states_51_cast = linear(bias = text_encoder_text_model_encoder_layers_8_self_attn_out_proj_bias_to_fp16, weight = text_encoder_text_model_encoder_layers_8_self_attn_out_proj_weight_to_fp16, x = input_137_cast)[name = tensor<string, []>("hidden_states_51_cast")];
            tensor<fp16, [1, 77, 1280]> input_139_cast = add(x = input_131_cast, y = hidden_states_51_cast)[name = tensor<string, []>("input_139_cast")];
            tensor<int32, [1]> input_141_axes_0 = const()[name = tensor<string, []>("input_141_axes_0"), val = tensor<int32, [1]>([-1])];
            tensor<fp16, [1280]> text_encoder_text_model_encoder_layers_8_layer_norm2_weight_to_fp16 = const()[name = tensor<string, []>("text_encoder_text_model_encoder_layers_8_layer_norm2_weight_to_fp16"), val = tensor<fp16, [1280]>(BLOBFILE(path = tensor<string, []>("@model_path/weights/weight.bin"), offset = tensor<uint64, []>(454664192)))];
            tensor<fp16, [1280]> text_encoder_text_model_encoder_layers_8_layer_norm2_bias_to_fp16 = const()[name = tensor<string, []>("text_encoder_text_model_encoder_layers_8_layer_norm2_bias_to_fp16"), val = tensor<fp16, [1280]>(BLOBFILE(path = tensor<string, []>("@model_path/weights/weight.bin"), offset = tensor<uint64, []>(454666816)))];
            tensor<fp16, [1, 77, 1280]> input_141_cast = layer_norm(axes = input_141_axes_0, beta = text_encoder_text_model_encoder_layers_8_layer_norm2_bias_to_fp16, epsilon = var_12_to_fp16, gamma = text_encoder_text_model_encoder_layers_8_layer_norm2_weight_to_fp16, x = input_139_cast)[name = tensor<string, []>("input_141_cast")];
            tensor<fp16, [5120, 1280]> text_encoder_text_model_encoder_layers_8_mlp_fc1_weight_to_fp16 = const()[name = tensor<string, []>("text_encoder_text_model_encoder_layers_8_mlp_fc1_weight_to_fp16"), val = tensor<fp16, [5120, 1280]>(BLOBFILE(path = tensor<string, []>("@model_path/weights/weight.bin"), offset = tensor<uint64, []>(454669440)))];
            tensor<fp16, [5120]> text_encoder_text_model_encoder_layers_8_mlp_fc1_bias_to_fp16 = const()[name = tensor<string, []>("text_encoder_text_model_encoder_layers_8_mlp_fc1_bias_to_fp16"), val = tensor<fp16, [5120]>(BLOBFILE(path = tensor<string, []>("@model_path/weights/weight.bin"), offset = tensor<uint64, []>(467776704)))];
            tensor<fp16, [1, 77, 5120]> input_143_cast = linear(bias = text_encoder_text_model_encoder_layers_8_mlp_fc1_bias_to_fp16, weight = text_encoder_text_model_encoder_layers_8_mlp_fc1_weight_to_fp16, x = input_141_cast)[name = tensor<string, []>("input_143_cast")];
            tensor<string, []> input_145_mode_0 = const()[name = tensor<string, []>("input_145_mode_0"), val = tensor<string, []>("EXACT")];
            tensor<fp16, [1, 77, 5120]> input_145_cast = gelu(mode = input_145_mode_0, x = input_143_cast)[name = tensor<string, []>("input_145_cast")];
            tensor<fp16, [1280, 5120]> text_encoder_text_model_encoder_layers_8_mlp_fc2_weight_to_fp16 = const()[name = tensor<string, []>("text_encoder_text_model_encoder_layers_8_mlp_fc2_weight_to_fp16"), val = tensor<fp16, [1280, 5120]>(BLOBFILE(path = tensor<string, []>("@model_path/weights/weight.bin"), offset = tensor<uint64, []>(467787008)))];
            tensor<fp16, [1280]> text_encoder_text_model_encoder_layers_8_mlp_fc2_bias_to_fp16 = const()[name = tensor<string, []>("text_encoder_text_model_encoder_layers_8_mlp_fc2_bias_to_fp16"), val = tensor<fp16, [1280]>(BLOBFILE(path = tensor<string, []>("@model_path/weights/weight.bin"), offset = tensor<uint64, []>(480894272)))];
            tensor<fp16, [1, 77, 1280]> hidden_states_53_cast = linear(bias = text_encoder_text_model_encoder_layers_8_mlp_fc2_bias_to_fp16, weight = text_encoder_text_model_encoder_layers_8_mlp_fc2_weight_to_fp16, x = input_145_cast)[name = tensor<string, []>("hidden_states_53_cast")];
            tensor<fp16, [1, 77, 1280]> input_147_cast = add(x = input_139_cast, y = hidden_states_53_cast)[name = tensor<string, []>("input_147_cast")];
            tensor<int32, [1]> hidden_states_55_axes_0 = const()[name = tensor<string, []>("hidden_states_55_axes_0"), val = tensor<int32, [1]>([-1])];
            tensor<fp16, [1280]> text_encoder_text_model_encoder_layers_9_layer_norm1_weight_to_fp16 = const()[name = tensor<string, []>("text_encoder_text_model_encoder_layers_9_layer_norm1_weight_to_fp16"), val = tensor<fp16, [1280]>(BLOBFILE(path = tensor<string, []>("@model_path/weights/weight.bin"), offset = tensor<uint64, []>(480896896)))];
            tensor<fp16, [1280]> text_encoder_text_model_encoder_layers_9_layer_norm1_bias_to_fp16 = const()[name = tensor<string, []>("text_encoder_text_model_encoder_layers_9_layer_norm1_bias_to_fp16"), val = tensor<fp16, [1280]>(BLOBFILE(path = tensor<string, []>("@model_path/weights/weight.bin"), offset = tensor<uint64, []>(480899520)))];
            tensor<fp16, [1, 77, 1280]> hidden_states_55_cast = layer_norm(axes = hidden_states_55_axes_0, beta = text_encoder_text_model_encoder_layers_9_layer_norm1_bias_to_fp16, epsilon = var_12_to_fp16, gamma = text_encoder_text_model_encoder_layers_9_layer_norm1_weight_to_fp16, x = input_147_cast)[name = tensor<string, []>("hidden_states_55_cast")];
            tensor<fp16, [1280, 1280]> text_encoder_text_model_encoder_layers_9_self_attn_q_proj_weight_to_fp16 = const()[name = tensor<string, []>("text_encoder_text_model_encoder_layers_9_self_attn_q_proj_weight_to_fp16"), val = tensor<fp16, [1280, 1280]>(BLOBFILE(path = tensor<string, []>("@model_path/weights/weight.bin"), offset = tensor<uint64, []>(480902144)))];
            tensor<fp16, [1280]> text_encoder_text_model_encoder_layers_9_self_attn_q_proj_bias_to_fp16 = const()[name = tensor<string, []>("text_encoder_text_model_encoder_layers_9_self_attn_q_proj_bias_to_fp16"), val = tensor<fp16, [1280]>(BLOBFILE(path = tensor<string, []>("@model_path/weights/weight.bin"), offset = tensor<uint64, []>(484179008)))];
            tensor<fp16, [1, 77, 1280]> var_911_cast = linear(bias = text_encoder_text_model_encoder_layers_9_self_attn_q_proj_bias_to_fp16, weight = text_encoder_text_model_encoder_layers_9_self_attn_q_proj_weight_to_fp16, x = hidden_states_55_cast)[name = tensor<string, []>("op_911_cast")];
            tensor<fp16, []> var_912_to_fp16 = const()[name = tensor<string, []>("op_912_to_fp16"), val = tensor<fp16, []>(0x1p-3)];
            tensor<fp16, [1, 77, 1280]> tensor_59_cast = mul(x = var_911_cast, y = var_912_to_fp16)[name = tensor<string, []>("tensor_59_cast")];
            tensor<fp16, [1280, 1280]> text_encoder_text_model_encoder_layers_9_self_attn_k_proj_weight_to_fp16 = const()[name = tensor<string, []>("text_encoder_text_model_encoder_layers_9_self_attn_k_proj_weight_to_fp16"), val = tensor<fp16, [1280, 1280]>(BLOBFILE(path = tensor<string, []>("@model_path/weights/weight.bin"), offset = tensor<uint64, []>(484181632)))];
            tensor<fp16, [1280]> text_encoder_text_model_encoder_layers_9_self_attn_k_proj_bias_to_fp16 = const()[name = tensor<string, []>("text_encoder_text_model_encoder_layers_9_self_attn_k_proj_bias_to_fp16"), val = tensor<fp16, [1280]>(BLOBFILE(path = tensor<string, []>("@model_path/weights/weight.bin"), offset = tensor<uint64, []>(487458496)))];
            tensor<fp16, [1, 77, 1280]> tensor_55_cast = linear(bias = text_encoder_text_model_encoder_layers_9_self_attn_k_proj_bias_to_fp16, weight = text_encoder_text_model_encoder_layers_9_self_attn_k_proj_weight_to_fp16, x = hidden_states_55_cast)[name = tensor<string, []>("tensor_55_cast")];
            tensor<int32, [4]> var_917 = const()[name = tensor<string, []>("op_917"), val = tensor<int32, [4]>([1, -1, 20, 64])];
            tensor<fp16, [1, 77, 20, 64]> var_918_cast = reshape(shape = var_917, x = tensor_55_cast)[name = tensor<string, []>("op_918_cast")];
            tensor<int32, [4]> var_919_perm_0 = const()[name = tensor<string, []>("op_919_perm_0"), val = tensor<int32, [4]>([0, 2, 1, 3])];
            tensor<fp16, [1280, 1280]> text_encoder_text_model_encoder_layers_9_self_attn_v_proj_weight_to_fp16 = const()[name = tensor<string, []>("text_encoder_text_model_encoder_layers_9_self_attn_v_proj_weight_to_fp16"), val = tensor<fp16, [1280, 1280]>(BLOBFILE(path = tensor<string, []>("@model_path/weights/weight.bin"), offset = tensor<uint64, []>(487461120)))];
            tensor<fp16, [1280]> text_encoder_text_model_encoder_layers_9_self_attn_v_proj_bias_to_fp16 = const()[name = tensor<string, []>("text_encoder_text_model_encoder_layers_9_self_attn_v_proj_bias_to_fp16"), val = tensor<fp16, [1280]>(BLOBFILE(path = tensor<string, []>("@model_path/weights/weight.bin"), offset = tensor<uint64, []>(490737984)))];
            tensor<fp16, [1, 77, 1280]> tensor_57_cast = linear(bias = text_encoder_text_model_encoder_layers_9_self_attn_v_proj_bias_to_fp16, weight = text_encoder_text_model_encoder_layers_9_self_attn_v_proj_weight_to_fp16, x = hidden_states_55_cast)[name = tensor<string, []>("tensor_57_cast")];
            tensor<int32, [4]> var_924 = const()[name = tensor<string, []>("op_924"), val = tensor<int32, [4]>([1, -1, 20, 64])];
            tensor<fp16, [1, 77, 20, 64]> var_925_cast = reshape(shape = var_924, x = tensor_57_cast)[name = tensor<string, []>("op_925_cast")];
            tensor<int32, [4]> var_926_perm_0 = const()[name = tensor<string, []>("op_926_perm_0"), val = tensor<int32, [4]>([0, 2, 1, 3])];
            tensor<int32, [4]> var_933 = const()[name = tensor<string, []>("op_933"), val = tensor<int32, [4]>([1, 77, 20, 64])];
            tensor<fp16, [1, 77, 20, 64]> var_934_cast = reshape(shape = var_933, x = tensor_59_cast)[name = tensor<string, []>("op_934_cast")];
            tensor<int32, [4]> var_935_perm_0 = const()[name = tensor<string, []>("op_935_perm_0"), val = tensor<int32, [4]>([0, 2, 1, 3])];
            tensor<int32, [3]> var_937 = const()[name = tensor<string, []>("op_937"), val = tensor<int32, [3]>([20, -1, 64])];
            tensor<fp16, [1, 20, 77, 64]> transpose_113 = transpose(perm = var_935_perm_0, x = var_934_cast)[name = tensor<string, []>("transpose_113")];
            tensor<fp16, [20, 77, 64]> query_states_19_cast = reshape(shape = var_937, x = transpose_113)[name = tensor<string, []>("query_states_19_cast")];
            tensor<int32, [3]> var_939 = const()[name = tensor<string, []>("op_939"), val = tensor<int32, [3]>([20, -1, 64])];
            tensor<fp16, [1, 20, 77, 64]> transpose_115 = transpose(perm = var_919_perm_0, x = var_918_cast)[name = tensor<string, []>("transpose_115")];
            tensor<fp16, [20, 77, 64]> key_states_39_cast = reshape(shape = var_939, x = transpose_115)[name = tensor<string, []>("key_states_39_cast")];
            tensor<int32, [3]> var_941 = const()[name = tensor<string, []>("op_941"), val = tensor<int32, [3]>([20, -1, 64])];
            tensor<fp16, [1, 20, 77, 64]> transpose_114 = transpose(perm = var_926_perm_0, x = var_925_cast)[name = tensor<string, []>("transpose_114")];
            tensor<fp16, [20, 77, 64]> value_states_39_cast = reshape(shape = var_941, x = transpose_114)[name = tensor<string, []>("value_states_39_cast")];
            tensor<int32, [3]> var_944_perm_0 = const()[name = tensor<string, []>("op_944_perm_0"), val = tensor<int32, [3]>([0, 2, 1])];
            tensor<bool, []> attn_weights_55_transpose_x_0 = const()[name = tensor<string, []>("attn_weights_55_transpose_x_0"), val = tensor<bool, []>(false)];
            tensor<bool, []> attn_weights_55_transpose_y_0 = const()[name = tensor<string, []>("attn_weights_55_transpose_y_0"), val = tensor<bool, []>(false)];
            tensor<fp16, [20, 64, 77]> transpose_112 = transpose(perm = var_944_perm_0, x = key_states_39_cast)[name = tensor<string, []>("transpose_112")];
            tensor<fp16, [20, 77, 77]> attn_weights_55_cast = matmul(transpose_x = attn_weights_55_transpose_x_0, transpose_y = attn_weights_55_transpose_y_0, x = query_states_19_cast, y = transpose_112)[name = tensor<string, []>("attn_weights_55_cast")];
            tensor<int32, [4]> var_946 = const()[name = tensor<string, []>("op_946"), val = tensor<int32, [4]>([1, 20, 77, 77])];
            tensor<fp16, [1, 20, 77, 77]> var_947_cast = reshape(shape = var_946, x = attn_weights_55_cast)[name = tensor<string, []>("op_947_cast")];
            tensor<fp16, [1, 20, 77, 77]> attn_weights_57_cast = add(x = var_947_cast, y = causal_attention_mask_to_fp16)[name = tensor<string, []>("attn_weights_57_cast")];
            tensor<int32, [3]> var_952 = const()[name = tensor<string, []>("op_952"), val = tensor<int32, [3]>([20, 77, 77])];
            tensor<fp16, [20, 77, 77]> input_149_cast = reshape(shape = var_952, x = attn_weights_57_cast)[name = tensor<string, []>("input_149_cast")];
            tensor<fp16, [20, 77, 77]> input_151_cast = softmax(axis = var_5, x = input_149_cast)[name = tensor<string, []>("input_151_cast")];
            tensor<bool, []> attn_output_55_transpose_x_0 = const()[name = tensor<string, []>("attn_output_55_transpose_x_0"), val = tensor<bool, []>(false)];
            tensor<bool, []> attn_output_55_transpose_y_0 = const()[name = tensor<string, []>("attn_output_55_transpose_y_0"), val = tensor<bool, []>(false)];
            tensor<fp16, [20, 77, 64]> attn_output_55_cast = matmul(transpose_x = attn_output_55_transpose_x_0, transpose_y = attn_output_55_transpose_y_0, x = input_151_cast, y = value_states_39_cast)[name = tensor<string, []>("attn_output_55_cast")];
            tensor<int32, [4]> var_957 = const()[name = tensor<string, []>("op_957"), val = tensor<int32, [4]>([1, 20, 77, 64])];
            tensor<fp16, [1, 20, 77, 64]> attn_output_57_cast = reshape(shape = var_957, x = attn_output_55_cast)[name = tensor<string, []>("attn_output_57_cast")];
            tensor<int32, [4]> attn_output_59_perm_0 = const()[name = tensor<string, []>("attn_output_59_perm_0"), val = tensor<int32, [4]>([0, 2, 1, 3])];
            tensor<int32, [3]> var_960 = const()[name = tensor<string, []>("op_960"), val = tensor<int32, [3]>([1, 77, 1280])];
            tensor<fp16, [1, 77, 20, 64]> transpose_111 = transpose(perm = attn_output_59_perm_0, x = attn_output_57_cast)[name = tensor<string, []>("transpose_111")];
            tensor<fp16, [1, 77, 1280]> input_153_cast = reshape(shape = var_960, x = transpose_111)[name = tensor<string, []>("input_153_cast")];
            tensor<fp16, [1280, 1280]> text_encoder_text_model_encoder_layers_9_self_attn_out_proj_weight_to_fp16 = const()[name = tensor<string, []>("text_encoder_text_model_encoder_layers_9_self_attn_out_proj_weight_to_fp16"), val = tensor<fp16, [1280, 1280]>(BLOBFILE(path = tensor<string, []>("@model_path/weights/weight.bin"), offset = tensor<uint64, []>(490740608)))];
            tensor<fp16, [1280]> text_encoder_text_model_encoder_layers_9_self_attn_out_proj_bias_to_fp16 = const()[name = tensor<string, []>("text_encoder_text_model_encoder_layers_9_self_attn_out_proj_bias_to_fp16"), val = tensor<fp16, [1280]>(BLOBFILE(path = tensor<string, []>("@model_path/weights/weight.bin"), offset = tensor<uint64, []>(494017472)))];
            tensor<fp16, [1, 77, 1280]> hidden_states_57_cast = linear(bias = text_encoder_text_model_encoder_layers_9_self_attn_out_proj_bias_to_fp16, weight = text_encoder_text_model_encoder_layers_9_self_attn_out_proj_weight_to_fp16, x = input_153_cast)[name = tensor<string, []>("hidden_states_57_cast")];
            tensor<fp16, [1, 77, 1280]> input_155_cast = add(x = input_147_cast, y = hidden_states_57_cast)[name = tensor<string, []>("input_155_cast")];
            tensor<int32, [1]> input_157_axes_0 = const()[name = tensor<string, []>("input_157_axes_0"), val = tensor<int32, [1]>([-1])];
            tensor<fp16, [1280]> text_encoder_text_model_encoder_layers_9_layer_norm2_weight_to_fp16 = const()[name = tensor<string, []>("text_encoder_text_model_encoder_layers_9_layer_norm2_weight_to_fp16"), val = tensor<fp16, [1280]>(BLOBFILE(path = tensor<string, []>("@model_path/weights/weight.bin"), offset = …
uint64, []>(1254905088)))];
            tensor<fp16, [1280]> text_encoder_text_model_encoder_layers_28_mlp_fc2_bias_to_fp16 = const()[name = tensor<string, []>("text_encoder_text_model_encoder_layers_28_mlp_fc2_bias_to_fp16"), val = tensor<fp16, [1280]>(BLOBFILE(path = tensor<string, []>("@model_path/weights/weight.bin"), offset = tensor<uint64, []>(1268012352)))];
            tensor<fp16, [1, 77, 1280]> hidden_states_173_cast = linear(bias = text_encoder_text_model_encoder_layers_28_mlp_fc2_bias_to_fp16, weight = text_encoder_text_model_encoder_layers_28_mlp_fc2_weight_to_fp16, x = input_465_cast)[name = tensor<string, []>("hidden_states_173_cast")];
            tensor<fp16, [1, 77, 1280]> input_467_cast = add(x = input_459_cast, y = hidden_states_173_cast)[name = tensor<string, []>("input_467_cast")];
            tensor<int32, [1]> hidden_states_175_axes_0 = const()[name = tensor<string, []>("hidden_states_175_axes_0"), val = tensor<int32, [1]>([-1])];
            tensor<fp16, [1280]> text_encoder_text_model_encoder_layers_29_layer_norm1_weight_to_fp16 = const()[name = tensor<string, []>("text_encoder_text_model_encoder_layers_29_layer_norm1_weight_to_fp16"), val = tensor<fp16, [1280]>(BLOBFILE(path = tensor<string, []>("@model_path/weights/weight.bin"), offset = tensor<uint64, []>(1268014976)))];
            tensor<fp16, [1280]> text_encoder_text_model_encoder_layers_29_layer_norm1_bias_to_fp16 = const()[name = tensor<string, []>("text_encoder_text_model_encoder_layers_29_layer_norm1_bias_to_fp16"), val = tensor<fp16, [1280]>(BLOBFILE(path = tensor<string, []>("@model_path/weights/weight.bin"), offset = tensor<uint64, []>(1268017600)))];
            tensor<fp16, [1, 77, 1280]> hidden_states_175_cast = layer_norm(axes = hidden_states_175_axes_0, beta = text_encoder_text_model_encoder_layers_29_layer_norm1_bias_to_fp16, epsilon = var_12_to_fp16, gamma = text_encoder_text_model_encoder_layers_29_layer_norm1_weight_to_fp16, x = input_467_cast)[name = tensor<string, []>("hidden_states_175_cast")];
            tensor<fp16, [1280, 1280]> text_encoder_text_model_encoder_layers_29_self_attn_q_proj_weight_to_fp16 = const()[name = tensor<string, []>("text_encoder_text_model_encoder_layers_29_self_attn_q_proj_weight_to_fp16"), val = tensor<fp16, [1280, 1280]>(BLOBFILE(path = tensor<string, []>("@model_path/weights/weight.bin"), offset = tensor<uint64, []>(1268020224)))];
            tensor<fp16, [1280]> text_encoder_text_model_encoder_layers_29_self_attn_q_proj_bias_to_fp16 = const()[name = tensor<string, []>("text_encoder_text_model_encoder_layers_29_self_attn_q_proj_bias_to_fp16"), val = tensor<fp16, [1280]>(BLOBFILE(path = tensor<string, []>("@model_path/weights/weight.bin"), offset = tensor<uint64, []>(1271297088)))];
            tensor<fp16, [1, 77, 1280]> var_2651_cast = linear(bias = text_encoder_text_model_encoder_layers_29_self_attn_q_proj_bias_to_fp16, weight = text_encoder_text_model_encoder_layers_29_self_attn_q_proj_weight_to_fp16, x = hidden_states_175_cast)[name = tensor<string, []>("op_2651_cast")];
            tensor<fp16, []> var_2652_to_fp16 = const()[name = tensor<string, []>("op_2652_to_fp16"), val = tensor<fp16, []>(0x1p-3)];
            tensor<fp16, [1, 77, 1280]> tensor_179_cast = mul(x = var_2651_cast, y = var_2652_to_fp16)[name = tensor<string, []>("tensor_179_cast")];
            tensor<fp16, [1280, 1280]> text_encoder_text_model_encoder_layers_29_self_attn_k_proj_weight_to_fp16 = const()[name = tensor<string, []>("text_encoder_text_model_encoder_layers_29_self_attn_k_proj_weight_to_fp16"), val = tensor<fp16, [1280, 1280]>(BLOBFILE(path = tensor<string, []>("@model_path/weights/weight.bin"), offset = tensor<uint64, []>(1271299712)))];
            tensor<fp16, [1280]> text_encoder_text_model_encoder_layers_29_self_attn_k_proj_bias_to_fp16 = const()[name = tensor<string, []>("text_encoder_text_model_encoder_layers_29_self_attn_k_proj_bias_to_fp16"), val = tensor<fp16, [1280]>(BLOBFILE(path = tensor<string, []>("@model_path/weights/weight.bin"), offset = tensor<uint64, []>(1274576576)))];
            tensor<fp16, [1, 77, 1280]> tensor_175_cast = linear(bias = text_encoder_text_model_encoder_layers_29_self_attn_k_proj_bias_to_fp16, weight = text_encoder_text_model_encoder_layers_29_self_attn_k_proj_weight_to_fp16, x = hidden_states_175_cast)[name = tensor<string, []>("tensor_175_cast")];
            tensor<int32, [4]> var_2657 = const()[name = tensor<string, []>("op_2657"), val = tensor<int32, [4]>([1, -1, 20, 64])];
            tensor<fp16, [1, 77, 20, 64]> var_2658_cast = reshape(shape = var_2657, x = tensor_175_cast)[name = tensor<string, []>("op_2658_cast")];
            tensor<int32, [4]> var_2659_perm_0 = const()[name = tensor<string, []>("op_2659_perm_0"), val = tensor<int32, [4]>([0, 2, 1, 3])];
            tensor<fp16, [1280, 1280]> text_encoder_text_model_encoder_layers_29_self_attn_v_proj_weight_to_fp16 = const()[name = tensor<string, []>("text_encoder_text_model_encoder_layers_29_self_attn_v_proj_weight_to_fp16"), val = tensor<fp16, [1280, 1280]>(BLOBFILE(path = tensor<string, []>("@model_path/weights/weight.bin"), offset = tensor<uint64, []>(1274579200)))];
            tensor<fp16, [1280]> text_encoder_text_model_encoder_layers_29_self_attn_v_proj_bias_to_fp16 = const()[name = tensor<string, []>("text_encoder_text_model_encoder_layers_29_self_attn_v_proj_bias_to_fp16"), val = tensor<fp16, [1280]>(BLOBFILE(path = tensor<string, []>("@model_path/weights/weight.bin"), offset = tensor<uint64, []>(1277856064)))];
            tensor<fp16, [1, 77, 1280]> tensor_177_cast = linear(bias = text_encoder_text_model_encoder_layers_29_self_attn_v_proj_bias_to_fp16, weight = text_encoder_text_model_encoder_layers_29_self_attn_v_proj_weight_to_fp16, x = hidden_states_175_cast)[name = tensor<string, []>("tensor_177_cast")];
            tensor<int32, [4]> var_2664 = const()[name = tensor<string, []>("op_2664"), val = tensor<int32, [4]>([1, -1, 20, 64])];
            tensor<fp16, [1, 77, 20, 64]> var_2665_cast = reshape(shape = var_2664, x = tensor_177_cast)[name = tensor<string, []>("op_2665_cast")];
            tensor<int32, [4]> var_2666_perm_0 = const()[name = tensor<string, []>("op_2666_perm_0"), val = tensor<int32, [4]>([0, 2, 1, 3])];
            tensor<int32, [4]> var_2673 = const()[name = tensor<string, []>("op_2673"), val = tensor<int32, [4]>([1, 77, 20, 64])];
            tensor<fp16, [1, 77, 20, 64]> var_2674_cast = reshape(shape = var_2673, x = tensor_179_cast)[name = tensor<string, []>("op_2674_cast")];
            tensor<int32, [4]> var_2675_perm_0 = const()[name = tensor<string, []>("op_2675_perm_0"), val = tensor<int32, [4]>([0, 2, 1, 3])];
            tensor<int32, [3]> var_2677 = const()[name = tensor<string, []>("op_2677"), val = tensor<int32, [3]>([20, -1, 64])];
            tensor<fp16, [1, 20, 77, 64]> transpose_13 = transpose(perm = var_2675_perm_0, x = var_2674_cast)[name = tensor<string, []>("transpose_13")];
            tensor<fp16, [20, 77, 64]> query_states_59_cast = reshape(shape = var_2677, x = transpose_13)[name = tensor<string, []>("query_states_59_cast")];
            tensor<int32, [3]> var_2679 = const()[name = tensor<string, []>("op_2679"), val = tensor<int32, [3]>([20, -1, 64])];
            tensor<fp16, [1, 20, 77, 64]> transpose_15 = transpose(perm = var_2659_perm_0, x = var_2658_cast)[name = tensor<string, []>("transpose_15")];
            tensor<fp16, [20, 77, 64]> key_states_119_cast = reshape(shape = var_2679, x = transpose_15)[name = tensor<string, []>("key_states_119_cast")];
            tensor<int32, [3]> var_2681 = const()[name = tensor<string, []>("op_2681"), val = tensor<int32, [3]>([20, -1, 64])];
            tensor<fp16, [1, 20, 77, 64]> transpose_14 = transpose(perm = var_2666_perm_0, x = var_2665_cast)[name = tensor<string, []>("transpose_14")];
            tensor<fp16, [20, 77, 64]> value_states_119_cast = reshape(shape = var_2681, x = transpose_14)[name = tensor<string, []>("value_states_119_cast")];
            tensor<int32, [3]> var_2684_perm_0 = const()[name = tensor<string, []>("op_2684_perm_0"), val = tensor<int32, [3]>([0, 2, 1])];
            tensor<bool, []> attn_weights_175_transpose_x_0 = const()[name = tensor<string, []>("attn_weights_175_transpose_x_0"), val = tensor<bool, []>(false)];
            tensor<bool, []> attn_weights_175_transpose_y_0 = const()[name = tensor<string, []>("attn_weights_175_transpose_y_0"), val = tensor<bool, []>(false)];
            tensor<fp16, [20, 64, 77]> transpose_12 = transpose(perm = var_2684_perm_0, x = key_states_119_cast)[name = tensor<string, []>("transpose_12")];
            tensor<fp16, [20, 77, 77]> attn_weights_175_cast = matmul(transpose_x = attn_weights_175_transpose_x_0, transpose_y = attn_weights_175_transpose_y_0, x = query_states_59_cast, y = transpose_12)[name = tensor<string, []>("attn_weights_175_cast")];
            tensor<int32, [4]> var_2686 = const()[name = tensor<string, []>("op_2686"), val = tensor<int32, [4]>([1, 20, 77, 77])];
            tensor<fp16, [1, 20, 77, 77]> var_2687_cast = reshape(shape = var_2686, x = attn_weights_175_cast)[name = tensor<string, []>("op_2687_cast")];
            tensor<fp16, [1, 20, 77, 77]> attn_weights_177_cast = add(x = var_2687_cast, y = causal_attention_mask_to_fp16)[name = tensor<string, []>("attn_weights_177_cast")];
            tensor<int32, [3]> var_2692 = const()[name = tensor<string, []>("op_2692"), val = tensor<int32, [3]>([20, 77, 77])];
            tensor<fp16, [20, 77, 77]> input_469_cast = reshape(shape = var_2692, x = attn_weights_177_cast)[name = tensor<string, []>("input_469_cast")];
            tensor<fp16, [20, 77, 77]> input_471_cast = softmax(axis = var_5, x = input_469_cast)[name = tensor<string, []>("input_471_cast")];
            tensor<bool, []> attn_output_175_transpose_x_0 = const()[name = tensor<string, []>("attn_output_175_transpose_x_0"), val = tensor<bool, []>(false)];
            tensor<bool, []> attn_output_175_transpose_y_0 = const()[name = tensor<string, []>("attn_output_175_transpose_y_0"), val = tensor<bool, []>(false)];
            tensor<fp16, [20, 77, 64]> attn_output_175_cast = matmul(transpose_x = attn_output_175_transpose_x_0, transpose_y = attn_output_175_transpose_y_0, x = input_471_cast, y = value_states_119_cast)[name = tensor<string, []>("attn_output_175_cast")];
            tensor<int32, [4]> var_2697 = const()[name = tensor<string, []>("op_2697"), val = tensor<int32, [4]>([1, 20, 77, 64])];
            tensor<fp16, [1, 20, 77, 64]> attn_output_177_cast = reshape(shape = var_2697, x = attn_output_175_cast)[name = tensor<string, []>("attn_output_177_cast")];
            tensor<int32, [4]> attn_output_179_perm_0 = const()[name = tensor<string, []>("attn_output_179_perm_0"), val = tensor<int32, [4]>([0, 2, 1, 3])];
            tensor<int32, [3]> var_2700 = const()[name = tensor<string, []>("op_2700"), val = tensor<int32, [3]>([1, 77, 1280])];
            tensor<fp16, [1, 77, 20, 64]> transpose_11 = transpose(perm = attn_output_179_perm_0, x = attn_output_177_cast)[name = tensor<string, []>("transpose_11")];
            tensor<fp16, [1, 77, 1280]> input_473_cast = reshape(shape = var_2700, x = transpose_11)[name = tensor<string, []>("input_473_cast")];
            tensor<fp16, [1280, 1280]> text_encoder_text_model_encoder_layers_29_self_attn_out_proj_weight_to_fp16 = const()[name = tensor<string, []>("text_encoder_text_model_encoder_layers_29_self_attn_out_proj_weight_to_fp16"), val = tensor<fp16, [1280, 1280]>(BLOBFILE(path = tensor<string, []>("@model_path/weights/weight.bin"), offset = tensor<uint64, []>(1277858688)))];
            tensor<fp16, [1280]> text_encoder_text_model_encoder_layers_29_self_attn_out_proj_bias_to_fp16 = const()[name = tensor<string, []>("text_encoder_text_model_encoder_layers_29_self_attn_out_proj_bias_to_fp16"), val = tensor<fp16, [1280]>(BLOBFILE(path = tensor<string, []>("@model_path/weights/weight.bin"), offset = tensor<uint64, []>(1281135552)))];
            tensor<fp16, [1, 77, 1280]> hidden_states_177_cast = linear(bias = text_encoder_text_model_encoder_layers_29_self_attn_out_proj_bias_to_fp16, weight = text_encoder_text_model_encoder_layers_29_self_attn_out_proj_weight_to_fp16, x = input_473_cast)[name = tensor<string, []>("hidden_states_177_cast")];
            tensor<fp16, [1, 77, 1280]> input_475_cast = add(x = input_467_cast, y = hidden_states_177_cast)[name = tensor<string, []>("input_475_cast")];
            tensor<int32, [1]> input_477_axes_0 = const()[name = tensor<string, []>("input_477_axes_0"), val = tensor<int32, [1]>([-1])];
            tensor<fp16, [1280]> text_encoder_text_model_encoder_layers_29_layer_norm2_weight_to_fp16 = const()[name = tensor<string, []>("text_encoder_text_model_encoder_layers_29_layer_norm2_weight_to_fp16"), val = tensor<fp16, [1280]>(BLOBFILE(path = tensor<string, []>("@model_path/weights/weight.bin"), offset = tensor<uint64, []>(1281138176)))];
            tensor<fp16, [1280]> text_encoder_text_model_encoder_layers_29_layer_norm2_bias_to_fp16 = const()[name = tensor<string, []>("text_encoder_text_model_encoder_layers_29_layer_norm2_bias_to_fp16"), val = tensor<fp16, [1280]>(BLOBFILE(path = tensor<string, []>("@model_path/weights/weight.bin"), offset = tensor<uint64, []>(1281140800)))];
            tensor<fp16, [1, 77, 1280]> input_477_cast = layer_norm(axes = input_477_axes_0, beta = text_encoder_text_model_encoder_layers_29_layer_norm2_bias_to_fp16, epsilon = var_12_to_fp16, gamma = text_encoder_text_model_encoder_layers_29_layer_norm2_weight_to_fp16, x = input_475_cast)[name = tensor<string, []>("input_477_cast")];
            tensor<fp16, [5120, 1280]> text_encoder_text_model_encoder_layers_29_mlp_fc1_weight_to_fp16 = const()[name = tensor<string, []>("text_encoder_text_model_encoder_layers_29_mlp_fc1_weight_to_fp16"), val = tensor<fp16, [5120, 1280]>(BLOBFILE(path = tensor<string, []>("@model_path/weights/weight.bin"), offset = tensor<uint64, []>(1281143424)))];
            tensor<fp16, [5120]> text_encoder_text_model_encoder_layers_29_mlp_fc1_bias_to_fp16 = const()[name = tensor<string, []>("text_encoder_text_model_encoder_layers_29_mlp_fc1_bias_to_fp16"), val = tensor<fp16, [5120]>(BLOBFILE(path = tensor<string, []>("@model_path/weights/weight.bin"), offset = tensor<uint64, []>(1294250688)))];
            tensor<fp16, [1, 77, 5120]> input_479_cast = linear(bias = text_encoder_text_model_encoder_layers_29_mlp_fc1_bias_to_fp16, weight = text_encoder_text_model_encoder_layers_29_mlp_fc1_weight_to_fp16, x = input_477_cast)[name = tensor<string, []>("input_479_cast")];
            tensor<string, []> input_481_mode_0 = const()[name = tensor<string, []>("input_481_mode_0"), val = tensor<string, []>("EXACT")];
            tensor<fp16, [1, 77, 5120]> input_481_cast = gelu(mode = input_481_mode_0, x = input_479_cast)[name = tensor<string, []>("input_481_cast")];
            tensor<fp16, [1280, 5120]> text_encoder_text_model_encoder_layers_29_mlp_fc2_weight_to_fp16 = const()[name = tensor<string, []>("text_encoder_text_model_encoder_layers_29_mlp_fc2_weight_to_fp16"), val = tensor<fp16, [1280, 5120]>(BLOBFILE(path = tensor<string, []>("@model_path/weights/weight.bin"), offset = tensor<uint64, []>(1294260992)))];
            tensor<fp16, [1280]> text_encoder_text_model_encoder_layers_29_mlp_fc2_bias_to_fp16 = const()[name = tensor<string, []>("text_encoder_text_model_encoder_layers_29_mlp_fc2_bias_to_fp16"), val = tensor<fp16, [1280]>(BLOBFILE(path = tensor<string, []>("@model_path/weights/weight.bin"), offset = tensor<uint64, []>(1307368256)))];
            tensor<fp16, [1, 77, 1280]> hidden_states_179_cast = linear(bias = text_encoder_text_model_encoder_layers_29_mlp_fc2_bias_to_fp16, weight = text_encoder_text_model_encoder_layers_29_mlp_fc2_weight_to_fp16, x = input_481_cast)[name = tensor<string, []>("hidden_states_179_cast")];
            tensor<fp16, [1, 77, 1280]> input_483_cast = add(x = input_475_cast, y = hidden_states_179_cast)[name = tensor<string, []>("input_483_cast")];
            tensor<int32, [1]> hidden_states_181_axes_0 = const()[name = tensor<string, []>("hidden_states_181_axes_0"), val = tensor<int32, [1]>([-1])];
            tensor<fp16, [1280]> text_encoder_text_model_encoder_layers_30_layer_norm1_weight_to_fp16 = const()[name = tensor<string, []>("text_encoder_text_model_encoder_layers_30_layer_norm1_weight_to_fp16"), val = tensor<fp16, [1280]>(BLOBFILE(path = tensor<string, []>("@model_path/weights/weight.bin"), offset = tensor<uint64, []>(1307370880)))];
            tensor<fp16, [1280]> text_encoder_text_model_encoder_layers_30_layer_norm1_bias_to_fp16 = const()[name = tensor<string, []>("text_encoder_text_model_encoder_layers_30_layer_norm1_bias_to_fp16"), val = tensor<fp16, [1280]>(BLOBFILE(path = tensor<string, []>("@model_path/weights/weight.bin"), offset = tensor<uint64, []>(1307373504)))];
            tensor<fp16, [1, 77, 1280]> hidden_states_181_cast = layer_norm(axes = hidden_states_181_axes_0, beta = text_encoder_text_model_encoder_layers_30_layer_norm1_bias_to_fp16, epsilon = var_12_to_fp16, gamma = text_encoder_text_model_encoder_layers_30_layer_norm1_weight_to_fp16, x = input_483_cast)[name = tensor<string, []>("hidden_states_181_cast")];
            tensor<fp16, [1280, 1280]> text_encoder_text_model_encoder_layers_30_self_attn_q_proj_weight_to_fp16 = const()[name = tensor<string, []>("text_encoder_text_model_encoder_layers_30_self_attn_q_proj_weight_to_fp16"), val = tensor<fp16, [1280, 1280]>(BLOBFILE(path = tensor<string, []>("@model_path/weights/weight.bin"), offset = tensor<uint64, []>(1307376128)))];
            tensor<fp16, [1280]> text_encoder_text_model_encoder_layers_30_self_attn_q_proj_bias_to_fp16 = const()[name = tensor<string, []>("text_encoder_text_model_encoder_layers_30_self_attn_q_proj_bias_to_fp16"), val = tensor<fp16, [1280]>(BLOBFILE(path = tensor<string, []>("@model_path/weights/weight.bin"), offset = tensor<uint64, []>(1310652992)))];
            tensor<fp16, [1, 77, 1280]> var_2738_cast = linear(bias = text_encoder_text_model_encoder_layers_30_self_attn_q_proj_bias_to_fp16, weight = text_encoder_text_model_encoder_layers_30_self_attn_q_proj_weight_to_fp16, x = hidden_states_181_cast)[name = tensor<string, []>("op_2738_cast")];
            tensor<fp16, []> var_2739_to_fp16 = const()[name = tensor<string, []>("op_2739_to_fp16"), val = tensor<fp16, []>(0x1p-3)];
            tensor<fp16, [1, 77, 1280]> tensor_185_cast = mul(x = var_2738_cast, y = var_2739_to_fp16)[name = tensor<string, []>("tensor_185_cast")];
            tensor<fp16, [1280, 1280]> text_encoder_text_model_encoder_layers_30_self_attn_k_proj_weight_to_fp16 = const()[name = tensor<string, []>("text_encoder_text_model_encoder_layers_30_self_attn_k_proj_weight_to_fp16"), val = tensor<fp16, [1280, 1280]>(BLOBFILE(path = tensor<string, []>("@model_path/weights/weight.bin"), offset = tensor<uint64, []>(1310655616)))];
            tensor<fp16, [1280]> text_encoder_text_model_encoder_layers_30_self_attn_k_proj_bias_to_fp16 = const()[name = tensor<string, []>("text_encoder_text_model_encoder_layers_30_self_attn_k_proj_bias_to_fp16"), val = tensor<fp16, [1280]>(BLOBFILE(path = tensor<string, []>("@model_path/weights/weight.bin"), offset = tensor<uint64, []>(1313932480)))];
            tensor<fp16, [1, 77, 1280]> tensor_181_cast = linear(bias = text_encoder_text_model_encoder_layers_30_self_attn_k_proj_bias_to_fp16, weight = text_encoder_text_model_encoder_layers_30_self_attn_k_proj_weight_to_fp16, x = hidden_states_181_cast)[name = tensor<string, []>("tensor_181_cast")];
            tensor<int32, [4]> var_2744 = const()[name = tensor<string, []>("op_2744"), val = tensor<int32, [4]>([1, -1, 20, 64])];
            tensor<fp16, [1, 77, 20, 64]> var_2745_cast = reshape(shape = var_2744, x = tensor_181_cast)[name = tensor<string, []>("op_2745_cast")];
            tensor<int32, [4]> var_2746_perm_0 = const()[name = tensor<string, []>("op_2746_perm_0"), val = tensor<int32, [4]>([0, 2, 1, 3])];
            tensor<fp16, [1280, 1280]> text_encoder_text_model_encoder_layers_30_self_attn_v_proj_weight_to_fp16 = const()[name = tensor<string, []>("text_encoder_text_model_encoder_layers_30_self_attn_v_proj_weight_to_fp16"), val = tensor<fp16, [1280, 1280]>(BLOBFILE(path = tensor<string, []>("@model_path/weights/weight.bin"), offset = tensor<uint64, []>(1313935104)))];
            tensor<fp16, [1280]> text_encoder_text_model_encoder_layers_30_self_attn_v_proj_bias_to_fp16 = const()[name = tensor<string, []>("text_encoder_text_model_encoder_layers_30_self_attn_v_proj_bias_to_fp16"), val = tensor<fp16, [1280]>(BLOBFILE(path = tensor<string, []>("@model_path/weights/weight.bin"), offset = tensor<uint64, []>(1317211968)))];
            tensor<fp16, [1, 77, 1280]> tensor_183_cast = linear(bias = text_encoder_text_model_encoder_layers_30_self_attn_v_proj_bias_to_fp16, weight = text_encoder_text_model_encoder_layers_30_self_attn_v_proj_weight_to_fp16, x = hidden_states_181_cast)[name = tensor<string, []>("tensor_183_cast")];
            tensor<int32, [4]> var_2751 = const()[name = tensor<string, []>("op_2751"), val = tensor<int32, [4]>([1, -1, 20, 64])];
            tensor<fp16, [1, 77, 20, 64]> var_2752_cast = reshape(shape = var_2751, x = tensor_183_cast)[name = tensor<string, []>("op_2752_cast")];
            tensor<int32, [4]> var_2753_perm_0 = const()[name = tensor<string, []>("op_2753_perm_0"), val = tensor<int32, [4]>([0, 2, 1, 3])];
            tensor<int32, [4]> var_2760 = const()[name = tensor<string, []>("op_2760"), val = tensor<int32, [4]>([1, 77, 20, 64])];
            tensor<fp16, [1, 77, 20, 64]> var_2761_cast = reshape(shape = var_2760, x = tensor_185_cast)[name = tensor<string, []>("op_2761_cast")];
            tensor<int32, [4]> var_2762_perm_0 = const()[name = tensor<string, []>("op_2762_perm_0"), val = tensor<int32, [4]>([0, 2, 1, 3])];
            tensor<int32, [3]> var_2764 = const()[name = tensor<string, []>("op_2764"), val = tensor<int32, [3]>([20, -1, 64])];
            tensor<fp16, [1, 20, 77, 64]> transpose_8 = transpose(perm = var_2762_perm_0, x = var_2761_cast)[name = tensor<string, []>("transpose_8")];
            tensor<fp16, [20, 77, 64]> query_states_61_cast = reshape(shape = var_2764, x = transpose_8)[name = tensor<string, []>("query_states_61_cast")];
            tensor<int32, [3]> var_2766 = const()[name = tensor<string, []>("op_2766"), val = tensor<int32, [3]>([20, -1, 64])];
            tensor<fp16, [1, 20, 77, 64]> transpose_10 = transpose(perm = var_2746_perm_0, x = var_2745_cast)[name = tensor<string, []>("transpose_10")];
            tensor<fp16, [20, 77, 64]> key_states_123_cast = reshape(shape = var_2766, x = transpose_10)[name = tensor<string, []>("key_states_123_cast")];
            tensor<int32, [3]> var_2768 = const()[name = tensor<string, []>("op_2768"), val = tensor<int32, [3]>([20, -1, 64])];
            tensor<fp16, [1, 20, 77, 64]> transpose_9 = transpose(perm = var_2753_perm_0, x = var_2752_cast)[name = tensor<string, []>("transpose_9")];
            tensor<fp16, [20, 77, 64]> value_states_123_cast = reshape(shape = var_2768, x = transpose_9)[name = tensor<string, []>("value_states_123_cast")];
            tensor<int32, [3]> var_2771_perm_0 = const()[name = tensor<string, []>("op_2771_perm_0"), val = tensor<int32, [3]>([0, 2, 1])];
            tensor<bool, []> attn_weights_181_transpose_x_0 = const()[name = tensor<string, []>("attn_weights_181_transpose_x_0"), val = tensor<bool, []>(false)];
            tensor<bool, []> attn_weights_181_transpose_y_0 = const()[name = tensor<string, []>("attn_weights_181_transpose_y_0"), val = tensor<bool, []>(false)];
            tensor<fp16, [20, 64, 77]> transpose_7 = transpose(perm = var_2771_perm_0, x = key_states_123_cast)[name = tensor<string, []>("transpose_7")];
            tensor<fp16, [20, 77, 77]> attn_weights_181_cast = matmul(transpose_x = attn_weights_181_transpose_x_0, transpose_y = attn_weights_181_transpose_y_0, x = query_states_61_cast, y = transpose_7)[name = tensor<string, []>("attn_weights_181_cast")];
            tensor<int32, [4]> var_2773 = const()[name = tensor<string, []>("op_2773"), val = tensor<int32, [4]>([1, 20, 77, 77])];
            tensor<fp16, [1, 20, 77, 77]> var_2774_cast = reshape(shape = var_2773, x = attn_weights_181_cast)[name = tensor<string, []>("op_2774_cast")];
            tensor<fp16, [1, 20, 77, 77]> attn_weights_183_cast = add(x = var_2774_cast, y = causal_attention_mask_to_fp16)[name = tensor<string, []>("attn_weights_183_cast")];
            tensor<int32, [3]> var_2779 = const()[name = tensor<string, []>("op_2779"), val = tensor<int32, [3]>([20, 77, 77])];
            tensor<fp16, [20, 77, 77]> input_485_cast = reshape(shape = var_2779, x = attn_weights_183_cast)[name = tensor<string, []>("input_485_cast")];
            tensor<fp16, [20, 77, 77]> input_487_cast = softmax(axis = var_5, x = input_485_cast)[name = tensor<string, []>("input_487_cast")];
            tensor<bool, []> attn_output_181_transpose_x_0 = const()[name = tensor<string, []>("attn_output_181_transpose_x_0"), val = tensor<bool, []>(false)];
            tensor<bool, []> attn_output_181_transpose_y_0 = const()[name = tensor<string, []>("attn_output_181_transpose_y_0"), val = tensor<bool, []>(false)];
            tensor<fp16, [20, 77, 64]> attn_output_181_cast = matmul(transpose_x = attn_output_181_transpose_x_0, transpose_y = attn_output_181_transpose_y_0, x = input_487_cast, y = value_states_123_cast)[name = tensor<string, []>("attn_output_181_cast")];
            tensor<int32, [4]> var_2784 = const()[name = tensor<string, []>("op_2784"), val = tensor<int32, [4]>([1, 20, 77, 64])];
            tensor<fp16, [1, 20, 77, 64]> attn_output_183_cast = reshape(shape = var_2784, x = attn_output_181_cast)[name = tensor<string, []>("attn_output_183_cast")];
            tensor<int32, [4]> attn_output_185_perm_0 = const()[name = tensor<string, []>("attn_output_185_perm_0"), val = tensor<int32, [4]>([0, 2, 1, 3])];
            tensor<int32, [3]> var_2787 = const()[name = tensor<string, []>("op_2787"), val = tensor<int32, [3]>([1, 77, 1280])];
            tensor<fp16, [1, 77, 20, 64]> transpose_6 = transpose(perm = attn_output_185_perm_0, x = attn_output_183_cast)[name = tensor<string, []>("transpose_6")];
            tensor<fp16, [1, 77, 1280]> input_489_cast = reshape(shape = var_2787, x = transpose_6)[name = tensor<string, []>("input_489_cast")];
            tensor<fp16, [1280, 1280]> text_encoder_text_model_encoder_layers_30_self_attn_out_proj_weight_to_fp16 = const()[name = tensor<string, []>("text_encoder_text_model_encoder_layers_30_self_attn_out_proj_weight_to_fp16"), val = tensor<fp16, [1280, 1280]>(BLOBFILE(path = tensor<string, []>("@model_path/weights/weight.bin"), offset = tensor<uint64, []>(1317214592)))];
            tensor<fp16, [1280]> text_encoder_text_model_encoder_layers_30_self_attn_out_proj_bias_to_fp16 = const()[name = tensor<string, []>("text_encoder_text_model_encoder_layers_30_self_attn_out_proj_bias_to_fp16"), val = tensor<fp16, [1280]>(BLOBFILE(path = tensor<string, []>("@model_path/weights/weight.bin"), offset = tensor<uint64, []>(1320491456)))];
            tensor<fp16, [1, 77, 1280]> hidden_states_183_cast = linear(bias = text_encoder_text_model_encoder_layers_30_self_attn_out_proj_bias_to_fp16, weight = text_encoder_text_model_encoder_layers_30_self_attn_out_proj_weight_to_fp16, x = input_489_cast)[name = tensor<string, []>("hidden_states_183_cast")];
            tensor<fp16, [1, 77, 1280]> input_491_cast = add(x = input_483_cast, y = hidden_states_183_cast)[name = tensor<string, []>("input_491_cast")];
            tensor<int32, [1]> input_493_axes_0 = const()[name = tensor<string, []>("input_493_axes_0"), val = tensor<int32, [1]>([-1])];
            tensor<fp16, [1280]> text_encoder_text_model_encoder_layers_30_layer_norm2_weight_to_fp16 = const()[name = tensor<string, []>("text_encoder_text_model_encoder_layers_30_layer_norm2_weight_to_fp16"), val = tensor<fp16, [1280]>(BLOBFILE(path = tensor<string, []>("@model_path/weights/weight.bin"), offset = tensor<uint64, []>(1320494080)))];
            tensor<fp16, [1280]> text_encoder_text_model_encoder_layers_30_layer_norm2_bias_to_fp16 = const()[name = tensor<string, []>("text_encoder_text_model_encoder_layers_30_layer_norm2_bias_to_fp16"), val = tensor<fp16, [1280]>(BLOBFILE(path = tensor<string, []>("@model_path/weights/weight.bin"), offset = tensor<uint64, []>(1320496704)))];
            tensor<fp16, [1, 77, 1280]> input_493_cast = layer_norm(axes = input_493_axes_0, beta = text_encoder_text_model_encoder_layers_30_layer_norm2_bias_to_fp16, epsilon = var_12_to_fp16, gamma = text_encoder_text_model_encoder_layers_30_layer_norm2_weight_to_fp16, x = input_491_cast)[name = tensor<string, []>("input_493_cast")];
            tensor<fp16, [5120, 1280]> text_encoder_text_model_encoder_layers_30_mlp_fc1_weight_to_fp16 = const()[name = tensor<string, []>("text_encoder_text_model_encoder_layers_30_mlp_fc1_weight_to_fp16"), val = tensor<fp16, [5120, 1280]>(BLOBFILE(path = tensor<string, []>("@model_path/weights/weight.bin"), offset = tensor<uint64, []>(1320499328)))];
            tensor<fp16, [5120]> text_encoder_text_model_encoder_layers_30_mlp_fc1_bias_to_fp16 = const()[name = tensor<string, []>("text_encoder_text_model_encoder_layers_30_mlp_fc1_bias_to_fp16"), val = tensor<fp16, [5120]>(BLOBFILE(path = tensor<string, []>("@model_path/weights/weight.bin"), offset = tensor<uint64, []>(1333606592)))];
            tensor<fp16, [1, 77, 5120]> input_495_cast = linear(bias = text_encoder_text_model_encoder_layers_30_mlp_fc1_bias_to_fp16, weight = text_encoder_text_model_encoder_layers_30_mlp_fc1_weight_to_fp16, x = input_493_cast)[name = tensor<string, []>("input_495_cast")];
            tensor<string, []> input_497_mode_0 = const()[name = tensor<string, []>("input_497_mode_0"), val = tensor<string, []>("EXACT")];
            tensor<fp16, [1, 77, 5120]> input_497_cast = gelu(mode = input_497_mode_0, x = input_495_cast)[name = tensor<string, []>("input_497_cast")];
            tensor<fp16, [1280, 5120]> text_encoder_text_model_encoder_layers_30_mlp_fc2_weight_to_fp16 = const()[name = tensor<string, []>("text_encoder_text_model_encoder_layers_30_mlp_fc2_weight_to_fp16"), val = tensor<fp16, [1280, 5120]>(BLOBFILE(path = tensor<string, []>("@model_path/weights/weight.bin"), offset = tensor<uint64, []>(1333616896)))];
            tensor<fp16, [1280]> text_encoder_text_model_encoder_layers_30_mlp_fc2_bias_to_fp16 = const()[name = tensor<string, []>("text_encoder_text_model_encoder_layers_30_mlp_fc2_bias_to_fp16"), val = tensor<fp16, [1280]>(BLOBFILE(path = tensor<string, []>("@model_path/weights/weight.bin"), offset = tensor<uint64, []>(1346724160)))];
            tensor<fp16, [1, 77, 1280]> hidden_states_185_cast = linear(bias = text_encoder_text_model_encoder_layers_30_mlp_fc2_bias_to_fp16, weight = text_encoder_text_model_encoder_layers_30_mlp_fc2_weight_to_fp16, x = input_497_cast)[name = tensor<string, []>("hidden_states_185_cast")];
            tensor<fp16, [1, 77, 1280]> input_499_cast = add(x = input_491_cast, y = hidden_states_185_cast)[name = tensor<string, []>("input_499_cast")];
            tensor<string, []> input_499_cast_to_fp32_dtype_0 = const()[name = tensor<string, []>("input_499_cast_to_fp32_dtype_0"), val = tensor<string, []>("fp32")];
            tensor<int32, [1]> hidden_states_187_axes_0 = const()[name = tensor<string, []>("hidden_states_187_axes_0"), val = tensor<int32, [1]>([-1])];
            tensor<fp16, [1280]> text_encoder_text_model_encoder_layers_31_layer_norm1_weight_to_fp16 = const()[name = tensor<string, []>("text_encoder_text_model_encoder_layers_31_layer_norm1_weight_to_fp16"), val = tensor<fp16, [1280]>(BLOBFILE(path = tensor<string, []>("@model_path/weights/weight.bin"), offset = tensor<uint64, []>(1346726784)))];
            tensor<fp16, [1280]> text_encoder_text_model_encoder_layers_31_layer_norm1_bias_to_fp16 = const()[name = tensor<string, []>("text_encoder_text_model_encoder_layers_31_layer_norm1_bias_to_fp16"), val = tensor<fp16, [1280]>(BLOBFILE(path = tensor<string, []>("@model_path/weights/weight.bin"), offset = tensor<uint64, []>(1346729408)))];
            tensor<fp16, [1, 77, 1280]> hidden_states_187_cast = layer_norm(axes = hidden_states_187_axes_0, beta = text_encoder_text_model_encoder_layers_31_layer_norm1_bias_to_fp16, epsilon = var_12_to_fp16, gamma = text_encoder_text_model_encoder_layers_31_layer_norm1_weight_to_fp16, x = input_499_cast)[name = tensor<string, []>("hidden_states_187_cast")];
            tensor<fp16, [1280, 1280]> text_encoder_text_model_encoder_layers_31_self_attn_q_proj_weight_to_fp16 = const()[name = tensor<string, []>("text_encoder_text_model_encoder_layers_31_self_attn_q_proj_weight_to_fp16"), val = tensor<fp16, [1280, 1280]>(BLOBFILE(path = tensor<string, []>("@model_path/weights/weight.bin"), offset = tensor<uint64, []>(1346732032)))];
            tensor<fp16, [1280]> text_encoder_text_model_encoder_layers_31_self_attn_q_proj_bias_to_fp16 = const()[name = tensor<string, []>("text_encoder_text_model_encoder_layers_31_self_attn_q_proj_bias_to_fp16"), val = tensor<fp16, [1280]>(BLOBFILE(path = tensor<string, []>("@model_path/weights/weight.bin"), offset = tensor<uint64, []>(1350008896)))];
            tensor<fp16, [1, 77, 1280]> var_2825_cast = linear(bias = text_encoder_text_model_encoder_layers_31_self_attn_q_proj_bias_to_fp16, weight = text_encoder_text_model_encoder_layers_31_self_attn_q_proj_weight_to_fp16, x = hidden_states_187_cast)[name = tensor<string, []>("op_2825_cast")];
            tensor<fp16, []> var_2826_to_fp16 = const()[name = tensor<string, []>("op_2826_to_fp16"), val = tensor<fp16, []>(0x1p-3)];
            tensor<fp16, [1, 77, 1280]> tensor_cast = mul(x = var_2825_cast, y = var_2826_to_fp16)[name = tensor<string, []>("tensor_cast")];
            tensor<fp16, [1280, 1280]> text_encoder_text_model_encoder_layers_31_self_attn_k_proj_weight_to_fp16 = const()[name = tensor<string, []>("text_encoder_text_model_encoder_layers_31_self_attn_k_proj_weight_to_fp16"), val = tensor<fp16, [1280, 1280]>(BLOBFILE(path = tensor<string, []>("@model_path/weights/weight.bin"), offset = tensor<uint64, []>(1350011520)))];
            tensor<fp16, [1280]> text_encoder_text_model_encoder_layers_31_self_attn_k_proj_bias_to_fp16 = const()[name = tensor<string, []>("text_encoder_text_model_encoder_layers_31_self_attn_k_proj_bias_to_fp16"), val = tensor<fp16, [1280]>(BLOBFILE(path = tensor<string, []>("@model_path/weights/weight.bin"), offset = tensor<uint64, []>(1353288384)))];
            tensor<fp16, [1, 77, 1280]> tensor_187_cast = linear(bias = text_encoder_text_model_encoder_layers_31_self_attn_k_proj_bias_to_fp16, weight = text_encoder_text_model_encoder_layers_31_self_attn_k_proj_weight_to_fp16, x = hidden_states_187_cast)[name = tensor<string, []>("tensor_187_cast")];
            tensor<int32, [4]> var_2831 = const()[name = tensor<string, []>("op_2831"), val = tensor<int32, [4]>([1, -1, 20, 64])];
            tensor<fp16, [1, 77, 20, 64]> var_2832_cast = reshape(shape = var_2831, x = tensor_187_cast)[name = tensor<string, []>("op_2832_cast")];
            tensor<int32, [4]> var_2833_perm_0 = const()[name = tensor<string, []>("op_2833_perm_0"), val = tensor<int32, [4]>([0, 2, 1, 3])];
            tensor<fp16, [1280, 1280]> text_encoder_text_model_encoder_layers_31_self_attn_v_proj_weight_to_fp16 = const()[name = tensor<string, []>("text_encoder_text_model_encoder_layers_31_self_attn_v_proj_weight_to_fp16"), val = tensor<fp16, [1280, 1280]>(BLOBFILE(path = tensor<string, []>("@model_path/weights/weight.bin"), offset = tensor<uint64, []>(1353291008)))];
            tensor<fp16, [1280]> text_encoder_text_model_encoder_layers_31_self_attn_v_proj_bias_to_fp16 = const()[name = tensor<string, []>("text_encoder_text_model_encoder_layers_31_self_attn_v_proj_bias_to_fp16"), val = tensor<fp16, [1280]>(BLOBFILE(path = tensor<string, []>("@model_path/weights/weight.bin"), offset = tensor<uint64, []>(1356567872)))];
            tensor<fp16, [1, 77, 1280]> tensor_189_cast = linear(bias = text_encoder_text_model_encoder_layers_31_self_attn_v_proj_bias_to_fp16, weight = text_encoder_text_model_encoder_layers_31_self_attn_v_proj_weight_to_fp16, x = hidden_states_187_cast)[name = tensor<string, []>("tensor_189_cast")];
            tensor<int32, [4]> var_2838 = const()[name = tensor<string, []>("op_2838"), val = tensor<int32, [4]>([1, -1, 20, 64])];
            tensor<fp16, [1, 77, 20, 64]> var_2839_cast = reshape(shape = var_2838, x = tensor_189_cast)[name = tensor<string, []>("op_2839_cast")];
            tensor<int32, [4]> var_2840_perm_0 = const()[name = tensor<string, []>("op_2840_perm_0"), val = tensor<int32, [4]>([0, 2, 1, 3])];
            tensor<int32, [4]> var_2847 = const()[name = tensor<string, []>("op_2847"), val = tensor<int32, [4]>([1, 77, 20, 64])];
            tensor<fp16, [1, 77, 20, 64]> var_2848_cast = reshape(shape = var_2847, x = tensor_cast)[name = tensor<string, []>("op_2848_cast")];
            tensor<int32, [4]> var_2849_perm_0 = const()[name = tensor<string, []>("op_2849_perm_0"), val = tensor<int32, [4]>([0, 2, 1, 3])];
            tensor<int32, [3]> var_2851 = const()[name = tensor<string, []>("op_2851"), val = tensor<int32, [3]>([20, -1, 64])];
            tensor<fp16, [1, 20, 77, 64]> transpose_3 = transpose(perm = var_2849_perm_0, x = var_2848_cast)[name = tensor<string, []>("transpose_3")];
            tensor<fp16, [20, 77, 64]> query_states_cast = reshape(shape = var_2851, x = transpose_3)[name = tensor<string, []>("query_states_cast")];
            tensor<int32, [3]> var_2853 = const()[name = tensor<string, []>("op_2853"), val = tensor<int32, [3]>([20, -1, 64])];
            tensor<fp16, [1, 20, 77, 64]> transpose_5 = transpose(perm = var_2833_perm_0, x = var_2832_cast)[name = tensor<string, []>("transpose_5")];
            tensor<fp16, [20, 77, 64]> key_states_cast = reshape(shape = var_2853, x = transpose_5)[name = tensor<string, []>("key_states_cast")];
            tensor<int32, [3]> var_2855 = const()[name = tensor<string, []>("op_2855"), val = tensor<int32, [3]>([20, -1, 64])];
            tensor<fp16, [1, 20, 77, 64]> transpose_4 = transpose(perm = var_2840_perm_0, x = var_2839_cast)[name = tensor<string, []>("transpose_4")];
            tensor<fp16, [20, 77, 64]> value_states_cast = reshape(shape = var_2855, x = transpose_4)[name = tensor<string, []>("value_states_cast")];
            tensor<int32, [3]> var_2858_perm_0 = const()[name = tensor<string, []>("op_2858_perm_0"), val = tensor<int32, [3]>([0, 2, 1])];
            tensor<bool, []> attn_weights_187_transpose_x_0 = const()[name = tensor<string, []>("attn_weights_187_transpose_x_0"), val = tensor<bool, []>(false)];
            tensor<bool, []> attn_weights_187_transpose_y_0 = const()[name = tensor<string, []>("attn_weights_187_transpose_y_0"), val = tensor<bool, []>(false)];
            tensor<fp16, [20, 64, 77]> transpose_2 = transpose(perm = var_2858_perm_0, x = key_states_cast)[name = tensor<string, []>("transpose_2")];
            tensor<fp16, [20, 77, 77]> attn_weights_187_cast = matmul(transpose_x = attn_weights_187_transpose_x_0, transpose_y = attn_weights_187_transpose_y_0, x = query_states_cast, y = transpose_2)[name = tensor<string, []>("attn_weights_187_cast")];
            tensor<int32, [4]> var_2860 = const()[name = tensor<string, []>("op_2860"), val = tensor<int32, [4]>([1, 20, 77, 77])];
            tensor<fp16, [1, 20, 77, 77]> var_2861_cast = reshape(shape = var_2860, x = attn_weights_187_cast)[name = tensor<string, []>("op_2861_cast")];
            tensor<fp16, [1, 20, 77, 77]> attn_weights_189_cast = add(x = var_2861_cast, y = causal_attention_mask_to_fp16)[name = tensor<string, []>("attn_weights_189_cast")];
            tensor<int32, [3]> var_2866 = const()[name = tensor<string, []>("op_2866"), val = tensor<int32, [3]>([20, 77, 77])];
            tensor<fp16, [20, 77, 77]> input_501_cast = reshape(shape = var_2866, x = attn_weights_189_cast)[name = tensor<string, []>("input_501_cast")];
            tensor<fp16, [20, 77, 77]> input_503_cast = softmax(axis = var_5, x = input_501_cast)[name = tensor<string, []>("input_503_cast")];
            tensor<bool, []> attn_output_187_transpose_x_0 = const()[name = tensor<string, []>("attn_output_187_transpose_x_0"), val = tensor<bool, []>(false)];
            tensor<bool, []> attn_output_187_transpose_y_0 = const()[name = tensor<string, []>("attn_output_187_transpose_y_0"), val = tensor<bool, []>(false)];
            tensor<fp16, [20, 77, 64]> attn_output_187_cast = matmul(transpose_x = attn_output_187_transpose_x_0, transpose_y = attn_output_187_transpose_y_0, x = input_503_cast, y = value_states_cast)[name = tensor<string, []>("attn_output_187_cast")];
            tensor<int32, [4]> var_2871 = const()[name = tensor<string, []>("op_2871"), val = tensor<int32, [4]>([1, 20, 77, 64])];
            tensor<fp16, [1, 20, 77, 64]> attn_output_189_cast = reshape(shape = var_2871, x = attn_output_187_cast)[name = tensor<string, []>("attn_output_189_cast")];
            tensor<int32, [4]> attn_output_perm_0 = const()[name = tensor<string, []>("attn_output_perm_0"), val = tensor<int32, [4]>([0, 2, 1, 3])];
            tensor<int32, [3]> var_2874 = const()[name = tensor<string, []>("op_2874"), val = tensor<int32, [3]>([1, 77, 1280])];
            tensor<fp16, [1, 77, 20, 64]> transpose_1 = transpose(perm = attn_output_perm_0, x = attn_output_189_cast)[name = tensor<string, []>("transpose_1")];
            tensor<fp16, [1, 77, 1280]> input_505_cast = reshape(shape = var_2874, x = transpose_1)[name = tensor<string, []>("input_505_cast")];
            tensor<fp16, [1280, 1280]> text_encoder_text_model_encoder_layers_31_self_attn_out_proj_weight_to_fp16 = const()[name = tensor<string, []>("text_encoder_text_model_encoder_layers_31_self_attn_out_proj_weight_to_fp16"), val = tensor<fp16, [1280, 1280]>(BLOBFILE(path = tensor<string, []>("@model_path/weights/weight.bin"), offset = tensor<uint64, []>(1356570496)))];
            tensor<fp16, [1280]> text_encoder_text_model_encoder_layers_31_self_attn_out_proj_bias_to_fp16 = const()[name = tensor<string, []>("text_encoder_text_model_encoder_layers_31_self_attn_out_proj_bias_to_fp16"), val = tensor<fp16, [1280]>(BLOBFILE(path = tensor<string, []>("@model_path/weights/weight.bin"), offset = tensor<uint64, []>(1359847360)))];
            tensor<fp16, [1, 77, 1280]> hidden_states_189_cast = linear(bias = text_encoder_text_model_encoder_layers_31_self_attn_out_proj_bias_to_fp16, weight = text_encoder_text_model_encoder_layers_31_self_attn_out_proj_weight_to_fp16, x = input_505_cast)[name = tensor<string, []>("hidden_states_189_cast")];
            tensor<fp16, [1, 77, 1280]> input_507_cast = add(x = input_499_cast, y = hidden_states_189_cast)[name = tensor<string, []>("input_507_cast")];
            tensor<int32, [1]> input_509_axes_0 = const()[name = tensor<string, []>("input_509_axes_0"), val = tensor<int32, [1]>([-1])];
            tensor<fp16, [1280]> text_encoder_text_model_encoder_layers_31_layer_norm2_weight_to_fp16 = const()[name = tensor<string, []>("text_encoder_text_model_encoder_layers_31_layer_norm2_weight_to_fp16"), val = tensor<fp16, [1280]>(BLOBFILE(path = tensor<string, []>("@model_path/weights/weight.bin"), offset = tensor<uint64, []>(1359849984)))];
            tensor<fp16, [1280]> text_encoder_text_model_encoder_layers_31_layer_norm2_bias_to_fp16 = const()[name = tensor<string, []>("text_encoder_text_model_encoder_layers_31_layer_norm2_bias_to_fp16"), val = tensor<fp16, [1280]>(BLOBFILE(path = tensor<string, []>("@model_path/weights/weight.bin"), offset = tensor<uint64, []>(1359852608)))];
            tensor<fp16, [1, 77, 1280]> input_509_cast = layer_norm(axes = input_509_axes_0, beta = text_encoder_text_model_encoder_layers_31_layer_norm2_bias_to_fp16, epsilon = var_12_to_fp16, gamma = text_encoder_text_model_encoder_layers_31_layer_norm2_weight_to_fp16, x = input_507_cast)[name = tensor<string, []>("input_509_cast")];
            tensor<fp16, [5120, 1280]> text_encoder_text_model_encoder_layers_31_mlp_fc1_weight_to_fp16 = const()[name = tensor<string, []>("text_encoder_text_model_encoder_layers_31_mlp_fc1_weight_to_fp16"), val = tensor<fp16, [5120, 1280]>(BLOBFILE(path = tensor<string, []>("@model_path/weights/weight.bin"), offset = tensor<uint64, []>(1359855232)))];
            tensor<fp16, [5120]> text_encoder_text_model_encoder_layers_31_mlp_fc1_bias_to_fp16 = const()[name = tensor<string, []>("text_encoder_text_model_encoder_layers_31_mlp_fc1_bias_to_fp16"), val = tensor<fp16, [5120]>(BLOBFILE(path = tensor<string, []>("@model_path/weights/weight.bin"), offset = tensor<uint64, []>(1372962496)))];
            tensor<fp16, [1, 77, 5120]> input_511_cast = linear(bias = text_encoder_text_model_encoder_layers_31_mlp_fc1_bias_to_fp16, weight = text_encoder_text_model_encoder_layers_31_mlp_fc1_weight_to_fp16, x = input_509_cast)[name = tensor<string, []>("input_511_cast")];
            tensor<string, []> input_513_mode_0 = const()[name = tensor<string, []>("input_513_mode_0"), val = tensor<string, []>("EXACT")];
            tensor<fp16, [1, 77, 5120]> input_513_cast = gelu(mode = input_513_mode_0, x = input_511_cast)[name = tensor<string, []>("input_513_cast")];
            tensor<fp16, [1280, 5120]> text_encoder_text_model_encoder_layers_31_mlp_fc2_weight_to_fp16 = const()[name = tensor<string, []>("text_encoder_text_model_encoder_layers_31_mlp_fc2_weight_to_fp16"), val = tensor<fp16, [1280, 5120]>(BLOBFILE(path = tensor<string, []>("@model_path/weights/weight.bin"), offset = tensor<uint64, []>(1372972800)))];
            tensor<fp16, [1280]> text_encoder_text_model_encoder_layers_31_mlp_fc2_bias_to_fp16 = const()[name = tensor<string, []>("text_encoder_text_model_encoder_layers_31_mlp_fc2_bias_to_fp16"), val = tensor<fp16, [1280]>(BLOBFILE(path = tensor<string, []>("@model_path/weights/weight.bin"), offset = tensor<uint64, []>(1386080064)))];
            tensor<fp16, [1, 77, 1280]> hidden_states_cast = linear(bias = text_encoder_text_model_encoder_layers_31_mlp_fc2_bias_to_fp16, weight = text_encoder_text_model_encoder_layers_31_mlp_fc2_weight_to_fp16, x = input_513_cast)[name = tensor<string, []>("hidden_states_cast")];
            tensor<fp16, [1, 77, 1280]> input_515_cast = add(x = input_507_cast, y = hidden_states_cast)[name = tensor<string, []>("input_515_cast")];
            tensor<int32, [1]> last_hidden_state_axes_0 = const()[name = tensor<string, []>("last_hidden_state_axes_0"), val = tensor<int32, [1]>([-1])];
            tensor<fp16, [1280]> text_encoder_text_model_final_layer_norm_weight_to_fp16 = const()[name = tensor<string, []>("text_encoder_text_model_final_layer_norm_weight_to_fp16"), val = tensor<fp16, [1280]>(BLOBFILE(path = tensor<string, []>("@model_path/weights/weight.bin"), offset = tensor<uint64, []>(1386082688)))];
            tensor<fp16, [1280]> text_encoder_text_model_final_layer_norm_bias_to_fp16 = const()[name = tensor<string, []>("text_encoder_text_model_final_layer_norm_bias_to_fp16"), val = tensor<fp16, [1280]>(BLOBFILE(path = tensor<string, []>("@model_path/weights/weight.bin"), offset = tensor<uint64, []>(1386085312)))];
            tensor<fp16, [1, 77, 1280]> last_hidden_state_cast = layer_norm(axes = last_hidden_state_axes_0, beta = text_encoder_text_model_final_layer_norm_bias_to_fp16, epsilon = var_12_to_fp16, gamma = text_encoder_text_model_final_layer_norm_weight_to_fp16, x = input_515_cast)[name = tensor<string, []>("last_hidden_state_cast")];
            tensor<int32, [1]> var_2902 = const()[name = tensor<string, []>("op_2902"), val = tensor<int32, [1]>([0])];
            tensor<int32, [1]> var_2904 = reduce_argmax(axis = var_5, keep_dims = var_6, x = cast_1322)[name = tensor<string, []>("op_2904")];
            tensor<int32, []> stack_0_axis_0 = const()[name = tensor<string, []>("stack_0_axis_0"), val = tensor<int32, []>(1)];
            tensor<int32, [1, 2]> stack_0 = stack(axis = stack_0_axis_0, values = (var_2902, var_2904))[name = tensor<string, []>("stack_0")];
            tensor<int32, []> input_transpose_batch_dims_0 = const()[name = tensor<string, []>("input_transpose_batch_dims_0"), val = tensor<int32, []>(0)];
            tensor<fp16, [1, 1280]> input_transpose_cast = gather_nd(batch_dims = input_transpose_batch_dims_0, indices = stack_0, x = last_hidden_state_cast)[name = tensor<string, []>("input_transpose_cast")];
            tensor<fp16, [1280, 1280]> text_encoder_text_projection_weight_to_fp16 = const()[name = tensor<string, []>("text_encoder_text_projection_weight_to_fp16"), val = tensor<fp16, [1280, 1280]>(BLOBFILE(path = tensor<string, []>("@model_path/weights/weight.bin"), offset = tensor<uint64, []>(1386087936)))];
            tensor<fp16, [1280]> var_2911_bias_0_to_fp16 = const()[name = tensor<string, []>("op_2911_bias_0_to_fp16"), val = tensor<fp16, [1280]>(BLOBFILE(path = tensor<string, []>("@model_path/weights/weight.bin"), offset = tensor<uint64, []>(1389364800)))];
            tensor<fp16, [1, 1280]> var_2911_cast = linear(bias = var_2911_bias_0_to_fp16, weight = text_encoder_text_projection_weight_to_fp16, x = input_transpose_cast)[name = tensor<string, []>("op_2911_cast")];
            tensor<string, []> var_2911_cast_to_fp32_dtype_0 = const()[name = tensor<string, []>("op_2911_cast_to_fp32_dtype_0"), val = tensor<string, []>("fp32")];
            tensor<fp32, [1, 1280]> pooled_outputs = cast(dtype = var_2911_cast_to_fp32_dtype_0, x = var_2911_cast)[name = tensor<string, []>("cast_325")];
            tensor<fp32, [1, 77, 1280]> hidden_embeds = cast(dtype = input_499_cast_to_fp32_dtype_0, x = input_499_cast)[name = tensor<string, []>("cast_359")];
        } -> (hidden_embeds, pooled_outputs);
}