program(1.0)
[buildInfo = dict<tensor<string, []>, tensor<string, []>>({{"coremlc-component-MIL", "5.33.4"}, {"coremlc-version", "1839.0.0"}, {"coremltools-component-torch", "2.0.1+cu117"}, {"coremltools-version", "7.0b1"}})]
{
    func main<ios16>(tensor<fp16, [2, 2048, 1, 77]> encoder_hidden_states, tensor<fp16, [2, 4, 128, 128]> sample, tensor<fp16, [2, 1280]> text_embeds, tensor<fp16, [12]> time_ids, tensor<fp16, [2]> timestep) {
            tensor<int32, []> var_24 = const()[name = tensor<string, []>("op_24"), val = tensor<int32, []>(-1)];
            tensor<int32, [1]> var_41_axes_0 = const()[name = tensor<string, []>("op_41_axes_0"), val = tensor<int32, [1]>([1])];
            tensor<fp16, [2, 1]> var_41_cast = expand_dims(axes = var_41_axes_0, x = timestep)[name = tensor<string, []>("op_41_cast")];
            tensor<fp16, [1, 160]> var_43_to_fp16 = const()[name = tensor<string, []>("op_43_to_fp16"), val = tensor<fp16, [1, 160]>(BLOBFILE(path = tensor<string, []>("@model_path/weights/weight.bin"), offset = tensor<uint64, []>(64)))];
            tensor<fp16, [2, 160]> emb_3_cast = mul(x = var_41_cast, y = var_43_to_fp16)[name = tensor<string, []>("emb_3_cast")];
            tensor<fp16, [2, 160]> var_48_cast = sin(x = emb_3_cast)[name = tensor<string, []>("op_48_cast")];
            tensor<fp16, [2, 160]> var_49_cast = cos(x = emb_3_cast)[name = tensor<string, []>("op_49_cast")];
            tensor<bool, []> emb_7_interleave_0 = const()[name = tensor<string, []>("emb_7_interleave_0"), val = tensor<bool, []>(false)];
            tensor<fp16, [2, 320]> emb_7_cast = concat(axis = var_24, interleave = emb_7_interleave_0, values = (var_48_cast, var_49_cast))[name = tensor<string, []>("emb_7_cast")];
            tensor<int32, [2]> var_53_begin_0 = const()[name = tensor<string, []>("op_53_begin_0"), val = tensor<int32, [2]>([0, 160])];
            tensor<int32, [2]> var_53_end_0 = const()[name = tensor<string, []>("op_53_end_0"), val = tensor<int32, [2]>([2, 320])];
            tensor<bool, [2]> var_53_end_mask_0 = const()[name = tensor<string, []>("op_53_end_mask_0"), val = tensor<bool, [2]>([true, true])];
            tensor<fp16, [2, 160]> var_53_cast = slice_by_index(begin = var_53_begin_0, end = var_53_end_0, end_mask = var_53_end_mask_0, x = emb_7_cast)[name = tensor<string, []>("op_53_cast")];
            tensor<int32, [2]> var_55_begin_0 = const()[name = tensor<string, []>("op_55_begin_0"), val = tensor<int32, [2]>([0, 0])];
            tensor<int32, [2]> var_55_end_0 = const()[name = tensor<string, []>("op_55_end_0"), val = tensor<int32, [2]>([2, 160])];
            tensor<bool, [2]> var_55_end_mask_0 = const()[name = tensor<string, []>("op_55_end_mask_0"), val = tensor<bool, [2]>([true, false])];
            tensor<fp16, [2, 160]> var_55_cast = slice_by_index(begin = var_55_begin_0, end = var_55_end_0, end_mask = var_55_end_mask_0, x = emb_7_cast)[name = tensor<string, []>("op_55_cast")];
            tensor<bool, []> sample_3_interleave_0 = const()[name = tensor<string, []>("sample_3_interleave_0"), val = tensor<bool, []>(false)];
            tensor<fp16, [2, 320]> sample_3_cast = concat(axis = var_24, interleave = sample_3_interleave_0, values = (var_53_cast, var_55_cast))[name = tensor<string, []>("sample_3_cast")];
            tensor<int32, []> var_58 = const()[name = tensor<string, []>("op_58"), val = tensor<int32, []>(1)];
            tensor<int32, [1]> var_65_axes_0 = const()[name = tensor<string, []>("op_65_axes_0"), val = tensor<int32, [1]>([-1])];
            tensor<fp16, [2, 320, 1]> var_65_cast = expand_dims(axes = var_65_axes_0, x = sample_3_cast)[name = tensor<string, []>("op_65_cast")];
            tensor<int32, [1]> input_1_axes_0 = const()[name = tensor<string, []>("input_1_axes_0"), val = tensor<int32, [1]>([-1])];
            tensor<fp16, [2, 320, 1, 1]> input_1_cast = expand_dims(axes = input_1_axes_0, x = var_65_cast)[name = tensor<string, []>("input_1_cast")];
            tensor<int32, [2]> var_69 = const()[name = tensor<string, []>("op_69"), val = tensor<int32, [2]>([1, 1])];
            tensor<int32, [2]> var_71 = const()[name = tensor<string, []>("op_71"), val = tensor<int32, [2]>([1, 1])];
            tensor<string, []> input_3_pad_type_0 = const()[name = tensor<string, []>("input_3_pad_type_0"), val = tensor<string, []>("custom")];
            tensor<int32, [4]> input_3_pad_0 = const()[name = tensor<string, []>("input_3_pad_0"), val = tensor<int32, [4]>([0, 0, 0, 0])];
            tensor<fp16, [1280, 320, 1, 1]> time_embedding_linear_1_weight_to_fp16 = const()[name = tensor<string, []>("time_embedding_linear_1_weight_to_fp16"), val = tensor<fp16, [1280, 320, 1, 1]>(BLOBFILE(path = tensor<string, []>("@model_path/weights/weight.bin"), offset = tensor<uint64, []>(448)))];
            tensor<fp16, [1280]> time_embedding_linear_1_bias_to_fp16 = const()[name = tensor<string, []>("time_embedding_linear_1_bias_to_fp16"), val = tensor<fp16, [1280]>(BLOBFILE(path = tensor<string, []>("@model_path/weights/weight.bin"), offset = tensor<uint64, []>(819712)))];
            tensor<fp16, [2, 1280, 1, 1]> input_3_cast = conv(bias = time_embedding_linear_1_bias_to_fp16, dilations = var_71, groups = var_58, pad = input_3_pad_0, pad_type = input_3_pad_type_0, strides = var_69, weight = time_embedding_linear_1_weight_to_fp16, x = input_1_cast)[name = tensor<string, []>("input_3_cast")];
            tensor<fp16, [2, 1280, 1, 1]> input_5_cast = silu(x = input_3_cast)[name = tensor<string, []>("input_5_cast")];
            tensor<int32, [2]> var_77 = const()[name = tensor<string, []>("op_77"), val = tensor<int32, [2]>([1, 1])];
            tensor<int32, [2]> var_79 = const()[name = tensor<string, []>("op_79"), val = tensor<int32, [2]>([1, 1])];
            tensor<string, []> emb_pad_type_0 = const()[name = tensor<string, []>("emb_pad_type_0"), val = tensor<string, []>("custom")];
            tensor<int32, [4]> emb_pad_0 = const()[name = tensor<string, []>("emb_pad_0"), val = tensor<int32, [4]>([0, 0, 0, 0])];
            tensor<fp16, [1280, 1280, 1, 1]> time_embedding_linear_2_weight_to_fp16 = const()[name = tensor<string, []>("time_embedding_linear_2_weight_to_fp16"), val = tensor<fp16, [1280, 1280, 1, 1]>(BLOBFILE(path = tensor<string, []>("@model_path/weights/weight.bin"), offset = tensor<uint64, []>(822336)))];
            tensor<fp16, [1280]> time_embedding_linear_2_bias_to_fp16 = const()[name = tensor<string, []>("time_embedding_linear_2_bias_to_fp16"), val = tensor<fp16, [1280]>(BLOBFILE(path = tensor<string, []>("@model_path/weights/weight.bin"), offset = tensor<uint64, []>(4099200)))];
            tensor<fp16, [2, 1280, 1, 1]> emb_cast = conv(bias = time_embedding_linear_2_bias_to_fp16, dilations = var_79, groups = var_58, pad = emb_pad_0, pad_type = emb_pad_type_0, strides = var_77, weight = time_embedding_linear_2_weight_to_fp16, x = input_5_cast)[name = tensor<string, []>("emb_cast")];
            tensor<int32, []> var_85 = const()[name = tensor<string, []>("op_85"), val = tensor<int32, []>(-1)];
            tensor<int32, [1]> var_102_axes_0 = const()[name = tensor<string, []>("op_102_axes_0"), val = tensor<int32, [1]>([1])];
            tensor<fp16, [12, 1]> var_102_cast = expand_dims(axes = var_102_axes_0, x = time_ids)[name = tensor<string, []>("op_102_cast")];
            tensor<fp16, [1, 128]> var_104_to_fp16 = const()[name = tensor<string, []>("op_104_to_fp16"), val = tensor<fp16, [1, 128]>(BLOBFILE(path = tensor<string, []>("@model_path/weights/weight.bin"), offset = tensor<uint64, []>(4101824)))];
            tensor<fp16, [12, 128]> emb_11_cast = mul(x = var_102_cast, y = var_104_to_fp16)[name = tensor<string, []>("emb_11_cast")];
            tensor<fp16, [12, 128]> var_109_cast = sin(x = emb_11_cast)[name = tensor<string, []>("op_109_cast")];
            tensor<fp16, [12, 128]> var_110_cast = cos(x = emb_11_cast)[name = tensor<string, []>("op_110_cast")];
            tensor<bool, []> emb_15_interleave_0 = const()[name = tensor<string, []>("emb_15_interleave_0"), val = tensor<bool, []>(false)];
            tensor<fp16, [12, 256]> emb_15_cast = concat(axis = var_85, interleave = emb_15_interleave_0, values = (var_109_cast, var_110_cast))[name = tensor<string, []>("emb_15_cast")];
            tensor<int32, [2]> var_114_begin_0 = const()[name = tensor<string, []>("op_114_begin_0"), val = tensor<int32, [2]>([0, 128])];
            tensor<int32, [2]> var_114_end_0 = const()[name = tensor<string, []>("op_114_end_0"), val = tensor<int32, [2]>([12, 256])];
            tensor<bool, [2]> var_114_end_mask_0 = const()[name = tensor<string, []>("op_114_end_mask_0"), val = tensor<bool, [2]>([true, true])];
            tensor<fp16, [12, 128]> var_114_cast = slice_by_index(begin = var_114_begin_0, end = var_114_end_0, end_mask = var_114_end_mask_0, x = emb_15_cast)[name = tensor<string, []>("op_114_cast")];
            tensor<int32, [2]> var_116_begin_0 = const()[name = tensor<string, []>("op_116_begin_0"), val = tensor<int32, [2]>([0, 0])];
            tensor<int32, [2]> var_116_end_0 = const()[name = tensor<string, []>("op_116_end_0"), val = tensor<int32, [2]>([12, 128])];
            tensor<bool, [2]> var_116_end_mask_0 = const()[name = tensor<string, []>("op_116_end_mask_0"), val = tensor<bool, [2]>([true, false])];
            tensor<fp16, [12, 128]> var_116_cast = slice_by_index(begin = var_116_begin_0, end = var_116_end_0, end_mask = var_116_end_mask_0, x = emb_15_cast)[name = tensor<string, []>("op_116_cast")];
            tensor<bool, []> time_embeds_1_interleave_0 = const()[name = tensor<string, []>("time_embeds_1_interleave_0"), val = tensor<bool, []>(false)];
            tensor<fp16, [12, 256]> time_embeds_1_cast = concat(axis = var_85, interleave = time_embeds_1_interleave_0, values = (var_114_cast, var_116_cast))[name = tensor<string, []>("time_embeds_1_cast")];
            tensor<int32, [2]> var_124 = const()[name = tensor<string, []>("op_124"), val = tensor<int32, [2]>([2, -1])];
            tensor<fp16, [2, 1536]> time_embeds_cast = reshape(shape = var_124, x = time_embeds_1_cast)[name = tensor<string, []>("time_embeds_cast")];
            tensor<int32, []> var_127 = const()[name = tensor<string, []>("op_127"), val = tensor<int32, []>(-1)];
            tensor<bool, []> sample_interleave_0 = const()[name = tensor<string, []>("sample_interleave_0"), val = tensor<bool, []>(false)];
            tensor<fp16, [2, 2816]> sample_cast = concat(axis = var_127, interleave = sample_interleave_0, values = (text_embeds, time_embeds_cast))[name = tensor<string, []>("sample_cast")];
            tensor<int32, []> var_129 = const()[name = tensor<string, []>("op_129"), val = tensor<int32, []>(1)];
            tensor<int32, [1]> var_136_axes_0 = const()[name = tensor<string, []>("op_136_axes_0"), val = tensor<int32, [1]>([-1])];
            tensor<fp16, [2, 2816, 1]> var_136_cast = expand_dims(axes = var_136_axes_0, x = sample_cast)[name = tensor<string, []>("op_136_cast")];
            tensor<int32, [1]> input_7_axes_0 = const()[name = tensor<string, []>("input_7_axes_0"), val = tensor<int32, [1]>([-1])];
            tensor<fp16, [2, 2816, 1, 1]> input_7_cast = expand_dims(axes = input_7_axes_0, x = var_136_cast)[name = tensor<string, []>("input_7_cast")];
            tensor<int32, [2]> var_140 = const()[name = tensor<string, []>("op_140"), val = tensor<int32, [2]>([1, 1])];
            tensor<int32, [2]> var_142 = const()[name = tensor<string, []>("op_142"), val = tensor<int32, [2]>([1, 1])];
            tensor<string, []> input_9_pad_type_0 = const()[name = tensor<string, []>("input_9_pad_type_0"), val = tensor<string, []>("custom")];
            tensor<int32, [4]> input_9_pad_0 = const()[name = tensor<string, []>("input_9_pad_0"), val = tensor<int32, [4]>([0, 0, 0, 0])];
            tensor<fp16, [1280, 2816, 1, 1]> add_embedding_linear_1_weight_to_fp16 = const()[name = tensor<string, []>("add_embedding_linear_1_weight_to_fp16"), val = tensor<fp16, [1280, 2816, 1, 1]>(BLOBFILE(path = tensor<string, []>("@model_path/weights/weight.bin"), offset = tensor<uint64, []>(4102144)))];
            tensor<fp16, [1280]> add_embedding_linear_1_bias_to_fp16 = const()[name = tensor<string, []>("add_embedding_linear_1_bias_to_fp16"), val = tensor<fp16, [1280]>(BLOBFILE(path = tensor<string, []>("@model_path/weights/weight.bin"), offset = tensor<uint64, []>(11311168)))];
            tensor<fp16, [2, 1280, 1, 1]> input_9_cast = conv(bias = add_embedding_linear_1_bias_to_fp16, dilations = var_142, groups = var_129, pad = input_9_pad_0, pad_type = input_9_pad_type_0, strides = var_140, weight = add_embedding_linear_1_weight_to_fp16, x = input_7_cast)[name = tensor<string, []>("input_9_cast")];
            tensor<fp16, [2, 1280, 1, 1]> input_11_cast = silu(x = input_9_cast)[name = tensor<string, []>("input_11_cast")];
            tensor<int32, [2]> var_148 = const()[name = tensor<string, []>("op_148"), val = tensor<int32, [2]>([1, 1])];
            tensor<int32, [2]> var_150 = const()[name = tensor<string, []>("op_150"), val = tensor<int32, [2]>([1, 1])];
            tensor<string, []> aug_emb_pad_type_0 = const()[name = tensor<string, []>("aug_emb_pad_type_0"), val = tensor<string, []>("custom")];
            tensor<int32, [4]> aug_emb_pad_0 = const()[name = tensor<string, []>("aug_emb_pad_0"), val = tensor<int32, [4]>([0, 0, 0, 0])];
            tensor<fp16, [1280, 1280, 1, 1]> add_embedding_linear_2_weight_to_fp16 = const()[name = tensor<string, []>("add_embedding_linear_2_weight_to_fp16"), val = tensor<fp16, [1280, 1280, 1, 1]>(BLOBFILE(path = tensor<string, []>("@model_path/weights/weight.bin"), offset = tensor<uint64, []>(11313792)))];
            tensor<fp16, [1280]> add_embedding_linear_2_bias_to_fp16 = const()[name = tensor<string, []>("add_embedding_linear_2_bias_to_fp16"), val = tensor<fp16, [1280]>(BLOBFILE(path = tensor<string, []>("@model_path/weights/weight.bin"), offset = tensor<uint64, []>(14590656)))];
            tensor<fp16, [2, 1280, 1, 1]> aug_emb_cast = conv(bias = add_embedding_linear_2_bias_to_fp16, dilations = var_150, groups = var_129, pad = aug_emb_pad_0, pad_type = aug_emb_pad_type_0, strides = var_148, weight = add_embedding_linear_2_weight_to_fp16, x = input_11_cast)[name = tensor<string, []>("aug_emb_cast")];
            tensor<fp16, [2, 1280, 1, 1]> input_19_cast = add(x = emb_cast, y = aug_emb_cast)[name = tensor<string, []>("input_19_cast")];
            tensor<int32, []> var_158 = const()[name = tensor<string, []>("op_158"), val = tensor<int32, []>(1)];
            tensor<int32, [2]> var_161 = const()[name = tensor<string, []>("op_161"), val = tensor<int32, [2]>([1, 1])];
            tensor<int32, [2]> var_163 = const()[name = tensor<string, []>("op_163"), val = tensor<int32, [2]>([1, 1])];
            tensor<string, []> input_13_pad_type_0 = const()[name = tensor<string, []>("input_13_pad_type_0"), val = tensor<string, []>("custom")];
            tensor<int32, [4]> input_13_pad_0 = const()[name = tensor<string, []>("input_13_pad_0"), val = tensor<int32, [4]>([1, 1, 1, 1])];
            tensor<fp16, [320, 4, 3, 3]> conv_in_weight_to_fp16 = const()[name = tensor<string, []>("conv_in_weight_to_fp16"), val = tensor<fp16, [320, 4, 3, 3]>(BLOBFILE(path = tensor<string, []>("@model_path/weights/weight.bin"), offset = tensor<uint64, []>(14593280)))];
            tensor<fp16, [320]> conv_in_bias_to_fp16 = const()[name = tensor<string, []>("conv_in_bias_to_fp16"), val = tensor<fp16, [320]>(BLOBFILE(path = tensor<string, []>("@model_path/weights/weight.bin"), offset = tensor<uint64, []>(14616384)))];
            tensor<fp16, [2, 320, 128, 128]> input_13_cast = conv(bias = conv_in_bias_to_fp16, dilations = var_163, groups = var_158, pad = input_13_pad_0, pad_type = input_13_pad_type_0, strides = var_161, weight = conv_in_weight_to_fp16, x = sample)[name = tensor<string, []>("input_13_cast")];
            tensor<int32, []> var_172 = const()[name = tensor<string, []>("op_172"), val = tensor<int32, []>(1)];
            tensor<int32, [5]> reshape_0_shape_0 = const()[name = tensor<string, []>("reshape_0_shape_0"), val = tensor<int32, [5]>([2, 32, 10, 128, 128])];
            tensor<fp16, [2, 32, 10, 128, 128]> reshape_0_cast = reshape(shape = reshape_0_shape_0, x = input_13_cast)[name = tensor<string, []>("reshape_0_cast")];
            tensor<int32, [3]> reduce_mean_0_axes_0 = const()[name = tensor<string, []>("reduce_mean_0_axes_0"), val = tensor<int32, [3]>([2, 3, 4])];
            tensor<bool, []> reduce_mean_0_keep_dims_0 = const()[name = tensor<string, []>("reduce_mean_0_keep_dims_0"), val = tensor<bool, []>(true)];
            tensor<fp16, [2, 32, 1, 1, 1]> reduce_mean_0_cast = reduce_mean(axes = reduce_mean_0_axes_0, keep_dims = reduce_mean_0_keep_dims_0, x = reshape_0_cast)[name = tensor<string, []>("reduce_mean_0_cast")];
            tensor<fp16, [2, 32, 10, 128, 128]> sub_0_cast = sub(x = reshape_0_cast, y = reduce_mean_0_cast)[name = tensor<string, []>("sub_0_cast")];
            tensor<fp16, [2, 32, 10, 128, 128]> square_0_cast = square(x = sub_0_cast)[name = tensor<string, []>("square_0_cast")];
            tensor<int32, [3]> reduce_mean_2_axes_0 = const()[name = tensor<string, []>("reduce_mean_2_axes_0"), val = tensor<int32, [3]>([2, 3, 4])];
            tensor<bool, []> reduce_mean_2_keep_dims_0 = const()[name = tensor<string, []>("reduce_mean_2_keep_dims_0"), val = tensor<bool, []>(true)];
            tensor<fp16, [2, 32, 1, 1, 1]> reduce_mean_2_cast = reduce_mean(axes = reduce_mean_2_axes_0, keep_dims = reduce_mean_2_keep_dims_0, x = square_0_cast)[name = tensor<string, []>("reduce_mean_2_cast")];
            tensor<fp16, []> add_0_y_0_to_fp16 = const()[name = tensor<string, []>("add_0_y_0_to_fp16"), val = tensor<fp16, []>(0x1.5p-17)];
            tensor<fp16, [2, 32, 1, 1, 1]> add_0_cast = add(x = reduce_mean_2_cast, y = add_0_y_0_to_fp16)[name = tensor<string, []>("add_0_cast")];
            tensor<fp16, [2, 32, 1, 1, 1]> sqrt_0_cast = sqrt(x = add_0_cast)[name = tensor<string, []>("sqrt_0_cast")];
            tensor<fp16, [2, 32, 10, 128, 128]> real_div_0_cast = real_div(x = sub_0_cast, y = sqrt_0_cast)[name = tensor<string, []>("real_div_0_cast")];
            tensor<int32, [4]> reshape_1_shape_0 = const()[name = tensor<string, []>("reshape_1_shape_0"), val = tensor<int32, [4]>([2, 320, 128, 128])];
            tensor<fp16, [2, 320, 128, 128]> reshape_1_cast = reshape(shape = reshape_1_shape_0, x = real_div_0_cast)[name = tensor<string, []>("reshape_1_cast")];
            tensor<fp16, [320]> add_1_mean_0_to_fp16 = const()[name = tensor<string, []>("add_1_mean_0_to_fp16"), val = tensor<fp16, [320]>(BLOBFILE(path = tensor<string, []>("@model_path/weights/weight.bin"), offset = tensor<uint64, []>(14617088)))];
            tensor<fp16, [320]> add_1_variance_0_to_fp16 = const()[name = tensor<string, []>("add_1_variance_0_to_fp16"), val = tensor<fp16, [320]>(BLOBFILE(path = tensor<string, []>("@model_path/weights/weight.bin"), offset = tensor<uint64, []>(14617792)))];
            tensor<fp16, [320]> add_1_gamma_0_to_fp16 = const()[name = tensor<string, []>("add_1_gamma_0_to_fp16"), val = tensor<fp16, [320]>(BLOBFILE(path = tensor<string, []>("@model_path/weights/weight.bin"), offset = tensor<uint64, []>(14618496)))];
            tensor<fp16, [320]> add_1_beta_0_to_fp16 = const()[name = tensor<string, []>("add_1_beta_0_to_fp16"), val = tensor<fp16, [320]>(BLOBFILE(path = tensor<string, []>("@model_path/weights/weight.bin"), offset = tensor<uint64, []>(14619200)))];
            tensor<fp16, []> add_1_epsilon_0_to_fp16 = const()[name = tensor<string, []>("add_1_epsilon_0_to_fp16"), val = tensor<fp16, []>(0x1.5p-17)];
            tensor<fp16, [2, 320, 128, 128]> add_1_cast = batch_norm(beta = add_1_beta_0_to_fp16, epsilon = add_1_epsilon_0_to_fp16, gamma = add_1_gamma_0_to_fp16, mean = add_1_mean_0_to_fp16, variance = add_1_variance_0_to_fp16, x = reshape_1_cast)[name = tensor<string, []>("add_1_cast")];
            tensor<fp16, [2, 320, 128, 128]> input_17_cast = silu(x = add_1_cast)[name = tensor<string, []>("input_17_cast")];
            tensor<int32, [2]> var_190 = const()[name = tensor<string, []>("op_190"), val = tensor<int32, [2]>([1, 1])];
            tensor<int32, [2]> var_192 = const()[name = tensor<string, []>("op_192"), val = tensor<int32, [2]>([1, 1])];
            tensor<string, []> hidden_states_1_pad_type_0 = const()[name = tensor<string, []>("hidden_states_1_pad_type_0"), val = tensor<string, []>("custom")];
            tensor<int32, [4]> hidden_states_1_pad_0 = const()[name = tensor<string, []>("hidden_states_1_pad_0"), val = tensor<int32, [4]>([1, 1, 1, 1])];
            tensor<fp16, [320, 320, 3, 3]> down_blocks_0_resnets_0_conv1_weight_to_fp16 = const()[name = tensor<string, []>("down_blocks_0_resnets_0_conv1_weight_to_fp16"), val = tensor<fp16, [320, 320, 3, 3]>(BLOBFILE(path = tensor<string, []>("@model_path/weights/weight.bin"), offset = tensor<uint64, []>(14619904)))];
            tensor<fp16, [320]> down_blocks_0_resnets_0_conv1_bias_to_fp16 = const()[name = tensor<string, []>("down_blocks_0_resnets_0_conv1_bias_to_fp16"), val = tensor<fp16, [320]>(BLOBFILE(path = tensor<string, []>("@model_path/weights/weight.bin"), offset = tensor<uint64, []>(16463168)))];
            tensor<fp16, [2, 320, 128, 128]> hidden_states_1_cast = conv(bias = down_blocks_0_resnets_0_conv1_bias_to_fp16, dilations = var_192, groups = var_172, pad = hidden_states_1_pad_0, pad_type = hidden_states_1_pad_type_0, strides = var_190, weight = down_blocks_0_resnets_0_conv1_weight_to_fp16, x = input_17_cast)[name = tensor<string, []>("hidden_states_1_cast")];
            tensor<fp16, [2, 1280, 1, 1]> input_21_cast = silu(x = input_19_cast)[name = tensor<string, []>("input_21_cast")];
            tensor<int32, [2]> var_198 = const()[name = tensor<string, []>("op_198"), val = tensor<int32, [2]>([1, 1])];
            tensor<int32, [2]> var_200 = const()[name = tensor<string, []>("op_200"), val = tensor<int32, [2]>([1, 1])];
            tensor<string, []> temb_1_pad_type_0 = const()[name = tensor<string, []>("temb_1_pad_type_0"), val = tensor<string, []>("custom")];
            tensor<int32, [4]> temb_1_pad_0 = const()[name = tensor<string, []>("temb_1_pad_0"), val = tensor<int32, [4]>([0, 0, 0, 0])];
            tensor<fp16, [320, 1280, 1, 1]> down_blocks_0_resnets_0_time_emb_proj_weight_to_fp16 = const()[name = tensor<string, []>("down_blocks_0_resnets_0_time_emb_proj_weight_to_fp16"), val = tensor<fp16, [320, 1280, 1, 1]>(BLOBFILE(path = tensor<string, []>("@model_path/weights/weight.bin"), offset = tensor<uint64, []>(16463872)))];
            tensor<fp16, [320]> down_blocks_0_resnets_0_time_emb_proj_bias_to_fp16 = const()[name = tensor<string, []>("down_blocks_0_resnets_0_time_emb_proj_bias_to_fp16"), val = tensor<fp16, [320]>(BLOBFILE(path = tensor<string, []>("@model_path/weights/weight.bin"), offset = tensor<uint64, []>(17283136)))];
            tensor<fp16, [2, 320, 1, 1]> temb_1_cast = conv(bias = down_blocks_0_resnets_0_time_emb_proj_bias_to_fp16, dilations = var_200, groups = var_172, pad = temb_1_pad_0, pad_type = temb_1_pad_type_0, strides = var_198, weight = down_blocks_0_resnets_0_time_emb_proj_weight_to_fp16, x = input_21_cast)[name = tensor<string, []>("temb_1_cast")];
            tensor<fp16, [2, 320, 128, 128]> input_23_cast = add(x = hidden_states_1_cast, y = temb_1_cast)[name = tensor<string, []>("input_23_cast")];
            tensor<int32, [5]> reshape_4_shape_0 = const()[name = tensor<string, []>("reshape_4_shape_0"), val = tensor<int32, [5]>([2, 32, 10, 128, 128])];
            tensor<fp16, [2, 32, 10, 128, 128]> reshape_4_cast = reshape(shape = reshape_4_shape_0, x = input_23_cast)[name = tensor<string, []>("reshape_4_cast")];
            tensor<int32, [3]> reduce_mean_3_axes_0 = const()[name = tensor<string, []>("reduce_mean_3_axes_0"), val = tensor<int32, [3]>([2, 3, 4])];
            tensor<bool, []> reduce_mean_3_keep_dims_0 = const()[name = tensor<string, []>("reduce_mean_3_keep_dims_0"), val = tensor<bool, []>(true)];
            tensor<fp16, [2, 32, 1, 1, 1]> reduce_mean_3_cast = reduce_mean(axes = reduce_mean_3_axes_0, keep_dims = reduce_mean_3_keep_dims_0, x = reshape_4_cast)[name = tensor<string, []>("reduce_mean_3_cast")];
            tensor<fp16, [2, 32, 10, 128, 128]> sub_2_cast = sub(x = reshape_4_cast, y = reduce_mean_3_cast)[name = tensor<string, []>("sub_2_cast")];
            tensor<fp16, [2, 32, 10, 128, 128]> square_1_cast = square(x = sub_2_cast)[name = tensor<string, []>("square_1_cast")];
            tensor<int32, [3]> reduce_mean_5_axes_0 = const()[name = tensor<string, []>("reduce_mean_5_axes_0"), val = tensor<int32, [3]>([2, 3, 4])];
            tensor<bool, []> reduce_mean_5_keep_dims_0 = const()[name = tensor<string, []>("reduce_mean_5_keep_dims_0"), val = tensor<bool, []>(true)];
            tensor<fp16, [2, 32, 1, 1, 1]> reduce_mean_5_cast = reduce_mean(axes = reduce_mean_5_axes_0, keep_dims = reduce_mean_5_keep_dims_0, x = square_1_cast)[name = tensor<string, []>("reduce_mean_5_cast")];
            tensor<fp16, []> add_2_y_0_to_fp16 = const()[name = tensor<string, []>("add_2_y_0_to_fp16"), val = tensor<fp16, []>(0x1.5p-17)];
            tensor<fp16, [2, 32, 1, 1, 1]> add_2_cast = add(x = reduce_mean_5_cast, y = add_2_y_0_to_fp16)[name = tensor<string, []>("add_2_cast")];
            tensor<fp16, [2, 32, 1, 1, 1]> sqrt_1_cast = sqrt(x = add_2_cast)[name = tensor<string, []>("sqrt_1_cast")];
            tensor<fp16, [2, 32, 10, 128, 128]> real_div_1_cast = real_div(x = sub_2_cast, y = sqrt_1_cast)[name = tensor<string, []>("real_div_1_cast")];
            tensor<int32, [4]> reshape_5_shape_0 = const()[name = tensor<string, []>("reshape_5_shape_0"), val = tensor<int32, [4]>([2, 320, 128, 128])];
            tensor<fp16, [2, 320, 128, 128]> reshape_5_cast = reshape(shape = reshape_5_shape_0, x = real_div_1_cast)[name = tensor<string, []>("reshape_5_cast")];
            tensor<fp16, [320]> add_3_gamma_0_to_fp16 = const()[name = tensor<string, []>("add_3_gamma_0_to_fp16"), val = tensor<fp16, [320]>(BLOBFILE(path = tensor<string, []>("@model_path/weights/weight.bin"), offset = tensor<uint64, []>(17283840)))];
            tensor<fp16, [320]> add_3_beta_0_to_fp16 = const()[name = tensor<string, []>("add_3_beta_0_to_fp16"), val = tensor<fp16, [320]>(BLOBFILE(path = tensor<string, []>("@model_path/weights/weight.bin"), offset = tensor<uint64, []>(17284544)))];
            tensor<fp16, []> add_3_epsilon_0_to_fp16 = const()[name = tensor<string, []>("add_3_epsilon_0_to_fp16"), val = tensor<fp16, []>(0x1.5p-17)];
            tensor<fp16, [2, 320, 128, 128]> add_3_cast = batch_norm(beta = add_3_beta_0_to_fp16, epsilon = add_3_epsilon_0_to_fp16, gamma = add_3_gamma_0_to_fp16, mean = add_1_mean_0_to_fp16, variance = add_1_variance_0_to_fp16, x = reshape_5_cast)[name = tensor<string, []>("add_3_cast")];
            tensor<fp16, [2, 320, 128, 128]> input_27_cast = silu(x = add_3_cast)[name = tensor<string, []>("input_27_cast")];
            tensor<int32, [2]> var_210 = const()[name = tensor<string, []>("op_210"), val = tensor<int32, [2]>([1, 1])];
            tensor<int32, [2]> var_212 = const()[name = tensor<string, []>("op_212"), val = tensor<int32, [2]>([1, 1])];
            tensor<string, []> hidden_states_3_pad_type_0 = const()[name = tensor<string, []>("hidden_states_3_pad_type_0"), val = tensor<string, []>("custom")];
            tensor<int32, [4]> hidden_states_3_pad_0 = const()[name = tensor<string, []>("hidden_states_3_pad_0"), val = tensor<int32, [4]>([1, 1, 1, 1])];
            tensor<fp16, [320, 320, 3, 3]> down_blocks_0_resnets_0_conv2_weight_to_fp16 = const()[name = tensor<string, []>("down_blocks_0_resnets_0_conv2_weight_to_fp16"), val = tensor<fp16, [320, 320, 3, 3]>(BLOBFILE(path = tensor<string, []>("@model_path/weights/weight.bin"), offset = tensor<uint64, []>(17285248)))];
            tensor<fp16, [320]> down_blocks_0_resnets_0_conv2_bias_to_fp16 = const()[name = tensor<string, []>("down_blocks_0_resnets_0_conv2_bias_to_fp16"), val = tensor<fp16, [320]>(BLOBFILE(path = tensor<string, []>("@model_path/weights/weight.bin"), offset = tensor<uint64, []>(19128512)))];
            tensor<fp16, [2, 320, 128, 128]> hidden_states_3_cast = conv(bias = down_blocks_0_resnets_0_conv2_bias_to_fp16, dilations = var_212, groups = var_172, pad = hidden_states_3_pad_0, pad_type = hidden_states_3_pad_type_0, strides = var_210, weight = down_blocks_0_resnets_0_conv2_weight_to_fp16, x = input_27_cast)[name = tensor<string, []>("hidden_states_3_cast")];
            tensor<fp16, [2, 320, 128, 128]> input_29_cast = add(x = input_13_cast, y = hidden_states_3_cast)[name = tensor<string, []>("input_29_cast")];
            tensor<int32, [5]> reshape_8_shape_0 = const()[name = tensor<string, []>("reshape_8_shape_0"), val = tensor<int32, [5]>([2, 32, 10, 128, 128])];
            tensor<fp16, [2, 32, 10, 128, 128]> reshape_8_cast = reshape(shape = reshape_8_shape_0, x = input_29_cast)[name = tensor<string, []>("reshape_8_cast")];
            tensor<int32, [3]> reduce_mean_6_axes_0 = const()[name = tensor<string, []>("reduce_mean_6_axes_0"), val = tensor<int32, [3]>([2, 3, 4])];
            tensor<bool, []> reduce_mean_6_keep_dims_0 = const()[name = tensor<string, []>("reduce_mean_6_keep_dims_0"), val = tensor<bool, []>(true)];
            tensor<fp16, [2, 32, 1, 1, 1]> reduce_mean_6_cast = reduce_mean(axes = reduce_mean_6_axes_0, keep_dims = reduce_mean_6_keep_dims_0, x = reshape_8_cast)[name = tensor<string, []>("reduce_mean_6_cast")];
            tensor<fp16, [2, 32, 10, 128, 128]> sub_4_cast = sub(x = reshape_8_cast, y = reduce_mean_6_cast)[name = tensor<string, []>("sub_4_cast")];
            tensor<fp16, [2, 32, 10, 128, 128]> square_2_cast = square(x = sub_4_cast)[name = tensor<string, []>("square_2_cast")];
            tensor<int32, [3]> reduce_mean_8_axes_0 = const()[name = tensor<string, []>("reduce_mean_8_axes_0"), val = tensor<int32, [3]>([2, 3, 4])];
            tensor<bool, []> reduce_mean_8_keep_dims_0 = const()[name = tensor<string, []>("reduce_mean_8_keep_dims_0"), val = tensor<bool, []>(true)];
            tensor<fp16, [2, 32, 1, 1, 1]> reduce_mean_8_cast = reduce_mean(axes = reduce_mean_8_axes_0, keep_dims = reduce_mean_8_keep_dims_0, x = square_2_cast)[name = tensor<string, []>("reduce_mean_8_cast")];
            tensor<fp16, []> add_4_y_0_to_fp16 = const()[name = tensor<string, []>("add_4_y_0_to_fp16"), val = tensor<fp16, []>(0x1.5p-17)];
            tensor<fp16, [2, 32, 1, 1, 1]> add_4_cast = add(x = reduce_mean_8_cast, y = add_4_y_0_to_fp16)[name = tensor<string, []>("add_4_cast")];
            tensor<fp16, [2, 32, 1, 1, 1]> sqrt_2_cast = sqrt(x = add_4_cast)[name = tensor<string, []>("sqrt_2_cast")];
            tensor<fp16, [2, 32, 10, 128, 128]> real_div_2_cast = real_div(x = sub_4_cast, y = sqrt_2_cast)[name = tensor<string, []>("real_div_2_cast")];
            tensor<int32, [4]> reshape_9_shape_0 = const()[name = tensor<string, []>("reshape_9_shape_0"), val = tensor<int32, [4]>([2, 320, 128, 128])];
            tensor<fp16, [2, 320, 128, 128]> reshape_9_cast = reshape(shape = reshape_9_shape_0, x = real_div_2_cast)[name = tensor<string, []>("reshape_9_cast")];
            tensor<fp16, [320]> add_5_gamma_0_to_fp16 = const()[name = tensor<string, []>("add_5_gamma_0_to_fp16"), val = tensor<fp16, [320]>(BLOBFILE(path = tensor<string, []>("@model_path/weights/weight.bin"), offset = tensor<uint64, []>(19129216)))];
            tensor<fp16, [320]> add_5_beta_0_to_fp16 = const()[name = tensor<string, []>("add_5_beta_0_to_fp16"), val = tensor<fp16, [320]>(BLOBFILE(path = tensor<string, []>("@model_path/weights/weight.bin"), offset = tensor<uint64, []>(19129920)))];
            tensor<fp16, []> add_5_epsilon_0_to_fp16 = const()[name = tensor<string, []>("add_5_epsilon_0_to_fp16"), val = tensor<fp16, []>(0x1.5p-17)];
            tensor<fp16, [2, 320, 128, 128]> add_5_cast = batch_norm(beta = add_5_beta_0_to_fp16, epsilon = add_5_epsilon_0_to_fp16, gamma = add_5_gamma_0_to_fp16, mean = add_1_mean_0_to_fp16, variance = add_1_variance_0_to_fp16, x = reshape_9_cast)[name = tensor<string, []>("add_5_cast")];
            tensor<fp16, [2, 320, 128, 128]> input_33_cast = silu(x = add_5_cast)[name = tensor<string, []>("input_33_cast")];
            tensor<int32, [2]> var_227 = const()[name = tensor<string, []>("op_227"), val = tensor<int32, [2]>([1, 1])];
            tensor<int32, [2]> var_229 = const()[name = tensor<string, []>("op_229"), val = tensor<int32, [2]>([1, 1])];
            tensor<string, []> hidden_states_5_pad_type_0 = const()[name = tensor<string, []>("hidden_states_5_pad_type_0"), val = tensor<string, []>("custom")];
            tensor<int32, [4]> hidden_states_5_pad_0 = const()[name = tensor<string, []>("hidden_states_5_pad_0"), val = tensor<int32, [4]>([1, 1, 1, 1])];
            tensor<fp16, [320, 320, 3, 3]> down_blocks_0_resnets_1_conv1_weight_to_fp16 = const()[name = tensor<string, []>("down_blocks_0_resnets_1_conv1_weight_to_fp16"), val = tensor<fp16, [320, 320, 3, 3]>(BLOBFILE(path = tensor<string, []>("@model_path/weights/weight.bin"), offset = tensor<uint64, []>(19130624)))];
            tensor<fp16, [320]> down_blocks_0_resnets_1_conv1_bias_to_fp16 = const()[name = tensor<string, []>("down_blocks_0_resnets_1_conv1_bias_to_fp16"), val = tensor<fp16, [320]>(BLOBFILE(path = tensor<string, []>("@model_path/weights/weight.bin"), offset = tensor<uint64, []>(20973888)))];
            tensor<fp16, [2, 320, 128, 128]> hidden_states_5_cast = conv(bias = down_blocks_0_resnets_1_conv1_bias_to_fp16, dilations = var_229, groups = var_172, pad = hidden_states_5_pad_0, pad_type = hidden_states_5_pad_type_0, strides = var_227, weight = down_blocks_0_resnets_1_conv1_weight_to_fp16, x = input_33_cast)[name = tensor<string, []>("hidden_states_5_cast")];
            tensor<int32, [2]> var_235 = const()[name = tensor<string, []>("op_235"), val = tensor<int32, [2]>([1, 1])];
            tensor<int32, [2]> var_237 = const()[name = tensor<string, []>("op_237"), val = tensor<int32, [2]>([1, 1])];
            tensor<string, []> temb_3_pad_type_0 = const()[name = tensor<string, []>("temb_3_pad_type_0"), val = tensor<string, []>("custom")];
            tensor<int32, [4]> temb_3_pad_0 = const()[name = tensor<string, []>("temb_3_pad_0"), val = tensor<int32, [4]>([0, 0, 0, 0])];
            tensor<fp16, [320, 1280, 1, 1]> down_blocks_0_resnets_1_time_emb_proj_weight_to_fp16 = const()[name = tensor<string, []>("down_blocks_0_resnets_1_time_emb_proj_weight_to_fp16"), val = tensor<fp16, [320, 1280, 1, 1]>(BLOBFILE(path = tensor<string, []>("@model_path/weights/weight.bin"), offset = tensor<uint64, []>(20974592)))];
            tensor<fp16, [320]> down_blocks_0_resnets_1_time_emb_proj_bias_to_fp16 = const()[name = tensor<string, []>("down_blocks_0_resnets_1_time_emb_proj_bias_to_fp16"), val = tensor<fp16, [320]>(BLOBFILE(path = tensor<string, []>("@model_path/weights/weight.bin"), offset = tensor<uint64, []>(21793856)))];
            tensor<fp16, [2, 320, 1, 1]> temb_3_cast = conv(bias = down_blocks_0_resnets_1_time_emb_proj_bias_to_fp16, dilations = var_237, groups = var_172, pad = temb_3_pad_0, pad_type = temb_3_pad_type_0, strides = var_235, weight = down_blocks_0_resnets_1_time_emb_proj_weight_to_fp16, x = input_21_cast)[name = tensor<string, []>("temb_3_cast")];
            tensor<fp16, [2, 320, 128, 128]> input_37_cast = add(x = hidden_states_5_cast, y = temb_3_cast)[name = tensor<string, []>("input_37_cast")];
            tensor<int32, [5]> reshape_12_shape_0 = const()[name = tensor<string, []>("reshape_12_shape_0"), val = tensor<int32, [5]>([2, 32, 10, 128, 128])];
            tensor<fp16, [2, 32, 10, 128, 128]> reshape_12_cast = reshape(shape = reshape_12_shape_0, x = input_37_cast)[name = tensor<string, []>("reshape_12_cast")];
            tensor<int32, [3]> reduce_mean_9_axes_0 = const()[name = tensor<string, []>("reduce_mean_9_axes_0"), val = tensor<int32, [3]>([2, 3, 4])];
            tensor<bool, []> reduce_mean_9_keep_dims_0 = const()[name = tensor<string, []>("reduce_mean_9_keep_dims_0"), val = tensor<bool, []>(true)];
            tensor<fp16, [2, 32, 1, 1, 1]> reduce_mean_9_cast = reduce_mean(axes = reduce_mean_9_axes_0, keep_dims = reduce_mean_9_keep_dims_0, x = reshape_12_cast)[name = tensor<string, []>("reduce_mean_9_cast")];
            tensor<fp16, [2, 32, 10, 128, 128]> sub_6_cast = sub(x = reshape_12_cast, y = reduce_mean_9_cast)[name = tensor<string, []>("sub_6_cast")];
            tensor<fp16, [2, 32, 10, 128, 128]> square_3_cast = square(x = sub_6_cast)[name = tensor<string, []>("square_3_cast")];
            tensor<int32, [3]> reduce_mean_11_axes_0 = const()[name = tensor<string, []>("reduce_mean_11_axes_0"), val = tensor<int32, [3]>([2, 3, 4])];
            tensor<bool, []> reduce_mean_11_keep_dims_0 = const()[name = tensor<string, []>("reduce_mean_11_keep_dims_0"), val = tensor<bool, []>(true)];
            tensor<fp16, [2, 32, 1, 1, 1]> reduce_mean_11_cast = reduce_mean(axes = reduce_mean_11_axes_0, keep_dims = reduce_mean_11_keep_dims_0, x = square_3_cast)[name = tensor<string, []>("reduce_mean_11_cast")];
            tensor<fp16, []> add_6_y_0_to_fp16 = const()[name = tensor<string, []>("add_6_y_0_to_fp16"), val = tensor<fp16, []>(0x1.5p-17)];
            tensor<fp16, [2, 32, 1, 1, 1]> add_6_cast = add(x = reduce_mean_11_cast, y = add_6_y_0_to_fp16)[name = tensor<string, []>("add_6_cast")];
            tensor<fp16, [2, 32, 1, 1, 1]> sqrt_3_cast = sqrt(x = add_6_cast)[name = tensor<string, []>("sqrt_3_cast")];
            tensor<fp16, [2, 32, 10, 128, 128]> real_div_3_cast = real_div(x = sub_6_cast, y = sqrt_3_cast)[name = tensor<string, []>("real_div_3_cast")];
            tensor<int32, [4]> reshape_13_shape_0 = const()[name = tensor<string, []>("reshape_13_shape_0"), val = tensor<int32, [4]>([2, 320, 128, 128])];
            tensor<fp16, [2, 320, 128, 128]> reshape_13_cast = reshape(shape = reshape_13_shape_0, x = real_div_3_cast)[name = tensor<string, []>("reshape_13_cast")];
            tensor<fp16, [320]> add_7_gamma_0_to_fp16 = const()[name = tensor<string, []>("add_7_gamma_0_to_fp16"), val = tensor<fp16, [320]>(BLOBFILE(path = tensor<string, []>("@model_path/weights/weight.bin"), offset = tensor<uint64, []>(21794560)))];
            tensor<fp16, [320]> add_7_beta_0_to_fp16 = const()[name = tensor<string, []>("add_7_beta_0_to_fp16"), val = tensor<fp16, [320]>(BLOBFILE(path = tensor<string, []>("@model_path/weights/weight.bin"), offset = tensor<uint64, []>(21795264)))];
            tensor<fp16, []> add_7_epsilon_0_to_fp16 = const()[name = tensor<string, []>("add_7_epsilon_0_to_fp16"), val = tensor<fp16, []>(0x1.5p-17)];
            tensor<fp16, [2, 320, 128, 128]> add_7_cast = batch_norm(beta = add_7_beta_0_to_fp16, epsilon = add_7_epsilon_0_to_fp16, gamma = add_7_gamma_0_to_fp16, mean = add_1_mean_0_to_fp16, variance = add_1_variance_0_to_fp16, x = reshape_13_cast)[name = tensor<string, []>("add_7_cast")];
            tensor<fp16, [2, 320, 128, 128]> input_41_cast = silu(x = add_7_cast)[name = tensor<string, []>("input_41_cast")];
            tensor<int32, [2]> var_247 = const()[name = tensor<string, []>("op_247"), val = tensor<int32, [2]>([1, 1])];
            tensor<int32, [2]> var_249 = const()[name = tensor<string, []>("op_249"), val = tensor<int32, [2]>([1, 1])];
            tensor<string, []> hidden_states_7_pad_type_0 = const()[name = tensor<string, []>("hidden_states_7_pad_type_0"), val = tensor<string, []>("custom")];
            tensor<int32, [4]> hidden_states_7_pad_0 = const()[name = tensor<string, []>("hidden_states_7_pad_0"), val = tensor<int32, [4]>([1, 1, 1, 1])];
            tensor<fp16, [320, 320, 3, 3]> down_blocks_0_resnets_1_conv2_weight_to_fp16 = const()[name = tensor<string, []>("down_blocks_0_resnets_1_conv2_weight_to_fp16"), val = tensor<fp16, [320, 320, 3, 3]>(BLOBFILE(path = tensor<string, []>("@model_path/weights/weight.bin"), offset = tensor<uint64, []>(21795968)))];
            tensor<fp16, [320]> down_blocks_0_resnets_1_conv2_bias_to_fp16 = const()[name = tensor<string, []>("down_blocks_0_resnets_1_conv2_bias_to_fp16"), val = tensor<fp16, [320]>(BLOBFILE(path = tensor<string, []>("@model_path/weights/weight.bin"), offset = tensor<uint64, []>(23639232)))];
            tensor<fp16, [2, 320, 128, 128]> hidden_states_7_cast = conv(bias = down_blocks_0_resnets_1_conv2_bias_to_fp16, dilations = var_249, groups = var_172, pad = hidden_states_7_pad_0, pad_type = hidden_states_7_pad_type_0, strides = var_247, weight = down_blocks_0_resnets_1_conv2_weight_to_fp16, x = input_41_cast)[name = tensor<string, []>("hidden_states_7_cast")];
            tensor<fp16, [2, 320, 128, 128]> input_43_cast = add(x = input_29_cast, y = hidden_states_7_cast)[name = tensor<string, []>("input_43_cast")];
            tensor<int32, [2]> var_256 = const()[name = tensor<string, []>("op_256"), val = tensor<int32, [2]>([2, 2])];
            tensor<int32, [2]> var_258 = const()[name = tensor<string, []>("op_258"), val = tensor<int32, [2]>([1, 1])];
            tensor<string, []> input_45_pad_type_0 = const()[name = tensor<string, []>("input_45_pad_type_0"), val = tensor<string, []>("custom")];
            tensor<int32, [4]> input_45_pad_0 = const()[name = tensor<string, []>("input_45_pad_0"), val = tensor<int32, [4]>([1, 1, 1, 1])];
            tensor<fp16, [320, 320, 3, 3]> down_blocks_0_downsamplers_0_conv_weight_to_fp16 = const()[name = tensor<string, []>("down_blocks_0_downsamplers_0_conv_weight_to_fp16"), val = tensor<fp16, [320, 320, 3, 3]>(BLOBFILE(path = tensor<string, []>("@model_path/weights/weight.bin"), offset = tensor<uint64, []>(23639936)))];
            tensor<fp16, [320]> down_blocks_0_downsamplers_0_conv_bias_to_fp16 = const()[name = tensor<string, []>("down_blocks_0_downsamplers_0_conv_bias_to_fp16"), val = tensor<fp16, [320]>(BLOBFILE(path = tensor<string, []>("@model_path/weights/weight.bin"), offset = tensor<uint64, []>(25483200)))];
            tensor<fp16, [2, 320, 64, 64]> input_45_cast = conv(bias = down_blocks_0_downsamplers_0_conv_bias_to_fp16, dilations = var_258, groups = var_172, pad = input_45_pad_0, pad_type = input_45_pad_type_0, strides = var_256, weight = down_blocks_0_downsamplers_0_conv_weight_to_fp16, x = input_43_cast)[name = tensor<string, []>("input_45_cast")];
            tensor<int32, []> var_266 = const()[name = tensor<string, []>("op_266"), val = tensor<int32, []>(3)];
            tensor<bool, []> var_277 = const()[name = tensor<string, []>("op_277"), val = tensor<bool, []>(true)];
            tensor<int32, []> var_282 = const()[name = tensor<string, []>("op_282"), val = tensor<int32, []>(1)];
            tensor<int32, [5]> reshape_16_shape_0 = const()[name = tensor<string, []>("reshape_16_shape_0"), val = tensor<int32, [5]>([2, 32, 10, 64, 64])];
            tensor<fp16, [2, 32, 10, 64, 64]> reshape_16_cast = reshape(shape = reshape_16_shape_0, x = input_45_cast)[name = tensor<string, []>("reshape_16_cast")];
            tensor<int32, [3]> reduce_mean_12_axes_0 = const()[name = tensor<string, []>("reduce_mean_12_axes_0"), val = tensor<int32, [3]>([2, 3, 4])];
            tensor<bool, []> reduce_mean_12_keep_dims_0 = const()[name = tensor<string, []>("reduce_mean_12_keep_dims_0"), val = tensor<bool, []>(true)];
            tensor<fp16, [2, 32, 1, 1, 1]> reduce_mean_12_cast = reduce_mean(axes = reduce_mean_12_axes_0, keep_dims = reduce_mean_12_keep_dims_0, x = reshape_16_cast)[name = tensor<string, []>("reduce_mean_12_cast")];
            tensor<fp16, [2, 32, 10, 64, 64]> sub_8_cast = sub(x = reshape_16_cast, y = reduce_mean_12_cast)[name = tensor<string, []>("sub_8_cast")];
            tensor<fp16, [2, 32, 10, 64, 64]> square_4_cast = square(x = sub_8_cast)[name = tensor<string, []>("square_4_cast")];
            tensor<int32, [3]> reduce_mean_14_axes_0 = const()[name = tensor<string, []>("reduce_mean_14_axes_0"), val = tensor<int32, [3]>([2, 3, 4])];
            tensor<bool, []> reduce_mean_14_keep_dims_0 = const()[name = tensor<string, []>("reduce_mean_14_keep_dims_0"), val = tensor<bool, []>(true)];
            tensor<fp16, [2, 32, 1, 1, 1]> reduce_mean_14_cast = reduce_mean(axes = reduce_mean_14_axes_0, keep_dims = reduce_mean_14_keep_dims_0, x = square_4_cast)[name = tensor<string, []>("reduce_mean_14_cast")];
            tensor<fp16, []> add_8_y_0_to_fp16 = const()[name = tensor<string, []>("add_8_y_0_to_fp16"), val = tensor<fp16, []>(0x1.5p-17)];
            tensor<fp16, [2, 32, 1, 1, 1]> add_8_cast = add(x = reduce_mean_14_cast, y = add_8_y_0_to_fp16)[name = tensor<string, []>("add_8_cast")];
            tensor<fp16, [2, 32, 1, 1, 1]> sqrt_4_cast = sqrt(x = add_8_cast)[name = tensor<string, []>("sqrt_4_cast")];
            tensor<fp16, [2, 32, 10, 64, 64]> real_div_4_cast = real_div(x = sub_8_cast, y = sqrt_4_cast)[name = tensor<string, []>("real_div_4_cast")];
            tensor<int32, [4]> reshape_17_shape_0 = const()[name = tensor<string, []>("reshape_17_shape_0"), val = tensor<int32, [4]>([2, 320, 64, 64])];
            tensor<fp16, [2, 320, 64, 64]> reshape_17_cast = reshape(shape = reshape_17_shape_0, x = real_div_4_cast)[name = tensor<string, []>("reshape_17_cast")];
            tensor<fp16, [320]> add_9_gamma_0_to_fp16 = const()[name = tensor<string, []>("add_9_gamma_0_to_fp16"), val = tensor<fp16, [320]>(BLOBFILE(path = tensor<string, []>("@model_path/weights/weight.bin"), offset = tensor<uint64, []>(25483904)))];
            tensor<fp16, [320]> add_9_beta_0_to_fp16 = const()[name = tensor<string, []>("add_9_beta_0_to_fp16"), val = tensor<fp16, [320]>(BLOBFILE(path = tensor<string, []>("@model_path/weights/weight.bin"), offset = tensor<uint64, []>(25484608)))];
            tensor<fp16, []> add_9_epsilon_0_to_fp16 = const()[name = tensor<string, []>("add_9_epsilon_0_to_fp16"), val = tensor<fp16, []>(0x1.5p-17)];
            tensor<fp16, [2, 320, 64, 64]> add_9_cast = batch_norm(beta = add_9_beta_0_to_fp16, epsilon = add_9_epsilon_0_to_fp16, gamma = add_9_gamma_0_to_fp16, mean = add_1_mean_0_to_fp16, variance = add_1_variance_0_to_fp16, x = reshape_17_cast)[name = tensor<string, []>("add_9_cast")];
            tensor<fp16, [2, 320, 64, 64]> input_49_cast = silu(x = add_9_cast)[name = tensor<string, []>("input_49_cast")];
            tensor<int32, [2]> var_305 = const()[name = tensor<string, []>("op_305"), val = tensor<int32, [2]>([1, 1])];
            tensor<int32, [2]> var_307 = const()[name = tensor<string, []>("op_307"), val = tensor<int32, [2]>([1, 1])];
            tensor<string, []> hidden_states_9_pad_type_0 = const()[name = tensor<string, []>("hidden_states_9_pad_type_0"), val = tensor<string, []>("custom")];
            tensor<int32, [4]> hidden_states_9_pad_0 = const()[name = tensor<string, []>("hidden_states_9_pad_0"), val = tensor<int32, [4]>([1, 1, 1, 1])];
            tensor<fp16, [640, 320, 3, 3]> down_blocks_1_resnets_0_conv1_weight_to_fp16 = const()[name = tensor<string, []>("down_blocks_1_resnets_0_conv1_weight_to_fp16"), val = tensor<fp16, [640, 320, 3, 3]>(BLOBFILE(path = tensor<string, []>("@model_path/weights/weight.bin"), offset = tensor<uint64, []>(25485312)))];
            tensor<fp16, [640]> down_blocks_1_resnets_0_conv1_bias_to_fp16 = const()[name = tensor<string, []>("down_blocks_1_resnets_0_conv1_bias_to_fp16"), val = tensor<fp16, [640]>(BLOBFILE(path = tensor<string, []>("@model_path/weights/weight.bin"), offset = tensor<uint64, []>(29171776)))];
            tensor<fp16, [2, 640, 64, 64]> hidden_states_9_cast = conv(bias = down_blocks_1_resnets_0_conv1_bias_to_fp16, dilations = var_307, groups = var_282, pad = hidden_states_9_pad_0, pad_type = hidden_states_9_pad_type_0, strides = var_305, weight = down_blocks_1_resnets_0_conv1_weight_to_fp16, x = input_49_cast)[name = tensor<string, []>("hidden_states_9_cast")];
            tensor<int32, [2]> var_313 = const()[name = tensor<string, []>("op_313"), val = tensor<int32, [2]>([1, 1])];
            tensor<int32, [2]> var_315 = const()[name = tensor<string, []>("op_315"), val = tensor<int32, [2]>([1, 1])];
            tensor<string, []> temb_5_pad_type_0 = const()[name = tensor<string, []>("temb_5_pad_type_0"), val = tensor<string, []>("custom")];
            tensor<int32, [4]> temb_5_pad_0 = const()[name = tensor<string, []>("temb_5_pad_0"), val = tensor<int32, [4]>([0, 0, 0, 0])];
            tensor<fp16, [640, 1280, 1, 1]> down_blocks_1_resnets_0_time_emb_proj_weight_to_fp16 = const()[name = tensor<string, []>("down_blocks_1_resnets_0_time_emb_proj_weight_to_fp16"), val = tensor<fp16, [640, 1280, 1, 1]>(BLOBFILE(path = tensor<string, []>("@model_path/weights/weight.bin"), offset = tensor<uint64, []>(29173120)))];
            tensor<fp16, [640]> down_blocks_1_resnets_0_time_emb_proj_bias_to_fp16 = const()[name = tensor<string, []>("down_blocks_1_resnets_0_time_emb_proj_bias_to_fp16"), val = tensor<fp16, [640]>(BLOBFILE(path = tensor<string, []>("@model_path/weights/weight.bin"), offset = tensor<uint64, []>(30811584)))];
            tensor<fp16, [2, 640, 1, 1]> temb_5_cast = conv(bias = down_blocks_1_resnets_0_time_emb_proj_bias_to_fp16, dilations = var_315, groups = var_282, pad = temb_5_pad_0, pad_type = temb_5_pad_type_0, strides = var_313, weight = down_blocks_1_resnets_0_time_emb_proj_weight_to_fp16, x = input_21_cast)[name = tensor<string, []>("temb_5_cast")];
            tensor<fp16, [2, 640, 64, 64]> input_53_cast = add(x = hidden_states_9_cast, y = temb_5_cast)[name = tensor<string, []>("input_53_cast")];
            tensor<int32, [5]> reshape_20_shape_0 = const()[name = tensor<string, []>("reshape_20_shape_0"), val = tensor<int32, [5]>([2, 32, 20, 64, 64])];
            tensor<fp16, [2, 32, 20, 64, 64]> reshape_20_cast = reshape(shape = reshape_20_shape_0, x = input_53_cast)[name = tensor<string, []>("reshape_20_cast")];
            tensor<int32, [3]> reduce_mean_15_axes_0 = const()[name = tensor<string, []>("reduce_mean_15_axes_0"), val = tensor<int32, [3]>([2, 3, 4])];
            tensor<bool, []> reduce_mean_15_keep_dims_0 = const()[name = tensor<string, []>("reduce_mean_15_keep_dims_0"), val = tensor<bool, []>(true)];
            tensor<fp16, [2, 32, 1, 1, 1]> reduce_mean_15_cast = reduce_mean(axes = reduce_mean_15_axes_0, keep_dims = reduce_mean_15_keep_dims_0, x = reshape_20_cast)[name = tensor<string, []>("reduce_mean_15_cast")];
            tensor<fp16, [2, 32, 20, 64, 64]> sub_10_cast = sub(x = reshape_20_cast, y = reduce_mean_15_cast)[name = tensor<string, []>("sub_10_cast")];
            tensor<fp16, [2, 32, 20, 64, 64]> square_5_cast = square(x = sub_10_cast)[name = tensor<string, []>("square_5_cast")];
            tensor<int32, [3]> reduce_mean_17_axes_0 = const()[name = tensor<string, []>("reduce_mean_17_axes_0"), val = tensor<int32, [3]>([2, 3, 4])];
            tensor<bool, []> reduce_mean_17_keep_dims_0 = const()[name = tensor<string, []>("reduce_mean_17_keep_dims_0"), val = tensor<bool, []>(true)];
            tensor<fp16, [2, 32, 1, 1, 1]> reduce_mean_17_cast = reduce_mean(axes = reduce_mean_17_axes_0, keep_dims = reduce_mean_17_keep_dims_0, x = square_5_cast)[name = tensor<string, []>("reduce_mean_17_cast")];
            tensor<fp16, []> add_10_y_0_to_fp16 = const()[name = tensor<string, []>("add_10_y_0_to_fp16"), val = tensor<fp16, []>(0x1.5p-17)];
            tensor<fp16, [2, 32, 1, 1, 1]> add_10_cast = add(x = reduce_mean_17_cast, y = add_10_y_0_to_fp16)[name = tensor<string, []>("add_10_cast")];
            tensor<fp16, [2, 32, 1, 1, 1]> sqrt_5_cast = sqrt(x = add_10_cast)[name = tensor<string, []>("sqrt_5_cast")];
            tensor<fp16, [2, 32, 20, 64, 64]> real_div_5_cast = real_div(x = sub_10_cast, y = sqrt_5_cast)[name = tensor<string, []>("real_div_5_cast")];
            tensor<int32, [4]> reshape_21_shape_0 = const()[name = tensor<string, []>("reshape_21_shape_0"), val = tensor<int32, [4]>([2, 640, 64, 64])];
            tensor<fp16, [2, 640, 64, 64]> reshape_21_cast = reshape(shape = reshape_21_shape_0, x = real_div_5_cast)[name = tensor<string, []>("reshape_21_cast")];
            tensor<fp16, [640]> add_11_mean_0_to_fp16 = const()[name = tensor<string, []>("add_11_mean_0_to_fp16"), val = tensor<fp16, [640]>(BLOBFILE(path = tensor<string, []>("@model_path/weights/weight.bin"), offset = tensor<uint64, []>(30812928)))];
            tensor<fp16, [640]> add_11_variance_0_to_fp16 = const()[name = tensor<string, []>("add_11_variance_0_to_fp16"), val = tensor<fp16, [640]>(BLOBFILE(path = tensor<string, []>("@model_path/weights/weight.bin"), offset = tensor<uint64, []>(30814272)))];
            tensor<fp16, [640]> add_11_gamma_0_to_fp16 = const()[name = tensor<string, []>("add_11_gamma_0_to_fp16"), val = tensor<fp16, [640]>(BLOBFILE(path = tensor<string, []>("@model_path/weights/weight.bin"), offset = tensor<uint64, []>(30815616)))];
            tensor<fp16, [640]> add_11_beta_0_to_fp16 = const()[name = tensor<string, []>("add_11_beta_0_to_fp16"), val = tensor<fp16, [640]>(BLOBFILE(path = tensor<string, []>("@model_path/weights/weight.bin"), offset = tensor<uint64, []>(30816960)))];
            tensor<fp16, []> add_11_epsilon_0_to_fp16 = const()[name = tensor<string, []>("add_11_epsilon_0_to_fp16"), val = tensor<fp16, []>(0x1.5p-17)];
            tensor<fp16, [2, 640, 64, 64]> add_11_cast = batch_norm(beta = add_11_beta_0_to_fp16, epsilon = add_11_epsilon_0_to_fp16, gamma = add_11_gamma_0_to_fp16, mean = add_11_mean_0_to_fp16, variance = add_11_variance_0_to_fp16, x = reshape_21_cast)[name = tensor<string, []>("add_11_cast")];
            tensor<fp16, [2, 640, 64, 64]> input_57_cast = silu(x = add_11_cast)[name = tensor<string, []>("input_57_cast")];
            tensor<int32, [2]> var_325 = const()[name = tensor<string, []>("op_325"), val = tensor<int32, [2]>([1, 1])];
            tensor<int32, [2]> var_327 = const()[name = tensor<string, []>("op_327"), val = tensor<int32, [2]>([1, 1])];
            tensor<string, []> hidden_states_11_pad_type_0 = const()[name = tensor<string, []>("hidden_states_11_pad_type_0"), val = tensor<string, []>("custom")];
            tensor<int32, [4]> hidden_states_11_pad_0 = const()[name = tensor<string, []>("hidden_states_11_pad_0"), val = tensor<int32, [4]>([1, 1, 1, 1])];
            tensor<fp16, [640, 640, 3, 3]> down_blocks_1_resnets_0_conv2_weight_to_fp16 = const()[name = tensor<string, []>("down_blocks_1_resnets_0_conv2_weight_to_fp16"), val = tensor<fp16, [640, 640, 3, 3]>(BLOBFILE(path = tensor<string, []>("@model_path/weights/weight.bin"), offset = tensor<uint64, []>(30818304)))];
            tensor<fp16, [640]> down_blocks_1_resnets_0_conv2_bias_to_fp16 = const()[name = tensor<string, []>("down_blocks_1_resnets_0_conv2_bias_to_fp16"), val = tensor<fp16, [640]>(BLOBFILE(path = tensor<string, []>("@model_path/weights/weight.bin"), offset = tensor<uint64, []>(38191168)))];
            tensor<fp16, [2, 640, 64, 64]> hidden_states_11_cast = conv(bias = down_blocks_1_resnets_0_conv2_bias_to_fp16, dilations = var_327, groups = var_282, pad = hidden_states_11_pad_0, pad_type = hidden_states_11_pad_type_0, strides = var_325, weight = down_blocks_1_resnets_0_conv2_weight_to_fp16, x = input_57_cast)[name = tensor<string, []>("hidden_states_11_cast")];
            tensor<int32, [2]> var_332 = const()[name = tensor<string, []>("op_332"), val = tensor<int32, [2]>([1, 1])];
            tensor<int32, [2]> var_334 = const()[name = tensor<string, []>("op_334"), val = tensor<int32, [2]>([1, 1])];
            tensor<string, []> x_1_pad_type_0 = const()[name = tensor<string, []>("x_1_pad_type_0"), val = tensor<string, []>("custom")];
            tensor<int32, [4]> x_1_pad_0 = const()[name = tensor<string, []>("x_1_pad_0"), val = tensor<int32, [4]>([0, 0, 0, 0])];
            tensor<fp16, [640, 320, 1, 1]> down_blocks_1_resnets_0_conv_shortcut_weight_to_fp16 = const()[name = tensor<string, []>("down_blocks_1_resnets_0_conv_shortcut_weight_to_fp16"), val = tensor<fp16, [640, 320, 1, 1]>(BLOBFILE(path = tensor<string, []>("@model_path/weights/weight.bin"), offset = tensor<uint64, []>(38192512)))];
            tensor<fp16, [640]> down_blocks_1_resnets_0_conv_shortcut_bias_to_fp16 = const()[name = tensor<string, []>("down_blocks_1_resnets_0_conv_shortcut_bias_to_fp16"), val = tensor<fp16, [640]>(BLOBFILE(path = tensor<string, []>("@model_path/weights/weight.bin"), offset = tensor<uint64, []>(38602176)))];
            tensor<fp16, [2, 640, 64, 64]> x_1_cast = conv(bias = down_blocks_1_resnets_0_conv_shortcut_bias_to_fp16, dilations = var_334, groups = var_282, pad = x_1_pad_0, pad_type = x_1_pad_type_0, strides = var_332, weight = down_blocks_1_resnets_0_conv_shortcut_weight_to_fp16, x = input_45_cast)[name = tensor<string, []>("x_1_cast")];
            tensor<fp16, [2, 640, 64, 64]> hidden_states_13_cast = add(x = x_1_cast, y = hidden_states_11_cast)[name = tensor<string, []>("hidden_states_13_cast")];
            tensor<int32, [5]> reshape_24_shape_0 = const()[name = tensor<string, []>("reshape_24_shape_0"), val = tensor<int32, [5]>([2, 32, 20, 64, 64])];
            tensor<fp16, [2, 32, 20, 64, 64]> reshape_24_cast = reshape(shape = reshape_24_shape_0, x = hidden_states_13_cast)[name = tensor<string, []>("reshape_24_cast")];
            tensor<int32, [3]> reduce_mean_18_axes_0 = const()[name = tensor<string, []>("reduce_mean_18_axes_0"), val = tensor<int32, [3]>([2, 3, 4])];
            tensor<bool, []> reduce_mean_18_keep_dims_0 = const()[name = tensor<string, []>("reduce_mean_18_keep_dims_0"), val = tensor<bool, []>(true)];
            tensor<fp16, [2, 32, 1, 1, 1]> reduce_mean_18_cast = reduce_mean(axes = reduce_mean_18_axes_0, keep_dims = reduce_mean_18_keep_dims_0, x = reshape_24_cast)[name = tensor<string, []>("reduce_mean_18_cast")];
            tensor<fp16, [2, 32, 20, 64, 64]> sub_12_cast = sub(x = reshape_24_cast, y = reduce_mean_18_cast)[name = tensor<string, []>("sub_12_cast")];
            tensor<fp16, [2, 32, 20, 64, 64]> square_6_cast = square(x = sub_12_cast)[name = tensor<string, []>("square_6_cast")];
            tensor<int32, [3]> reduce_mean_20_axes_0 = const()[name = tensor<string, []>("reduce_mean_20_axes_0"), val = tensor<int32, [3]>([2, 3, 4])];
            tensor<bool, []> reduce_mean_20_keep_dims_0 = const()[name = tensor<string, []>("reduce_mean_20_keep_dims_0"), val = tensor<bool, []>(true)];
            tensor<fp16, [2, 32, 1, 1, 1]> reduce_mean_20_cast = reduce_mean(axes = reduce_mean_20_axes_0, keep_dims = reduce_mean_20_keep_dims_0, x = square_6_cast)[name = tensor<string, []>("reduce_mean_20_cast")];
            tensor<fp16, []> add_12_y_0_to_fp16 = const()[name = tensor<string, []>("add_12_y_0_to_fp16"), val = tensor<fp16, []>(0x1.1p-20)];
            tensor<fp16, [2, 32, 1, 1, 1]> add_12_cast = add(x = reduce_mean_20_cast, y = add_12_y_0_to_fp16)[name = tensor<string, []>("add_12_cast")];
            tensor<fp16, [2, 32, 1, 1, 1]> sqrt_6_cast = sqrt(x = add_12_cast)[name = tensor<string, []>("sqrt_6_cast")];
            tensor<fp16, [2, 32, 20, 64, 64]> real_div_6_cast = real_div(x = sub_12_cast, y = sqrt_6_cast)[name = tensor<string, []>("real_div_6_cast")];
            tensor<int32, [4]> reshape_25_shape_0 = const()[name = tensor<string, []>("reshape_25_shape_0"), val = tensor<int32, [4]>([2, 640, 64, 64])];
            tensor<fp16, [2, 640, 64, 64]> reshape_25_cast = reshape(shape = reshape_25_shape_0, x = real_div_6_cast)[name = tensor<string, []>("reshape_25_cast")];
            tensor<fp16, [640]> add_13_gamma_0_to_fp16 = const()[name = tensor<string, []>("add_13_gamma_0_to_fp16"), val = tensor<fp16, [640]>(BLOBFILE(path = tensor<string, []>("@model_path/weights/weight.bin"), offset = tensor<uint64, []>(38603520)))];
            tensor<fp16, [640]> add_13_beta_0_to_fp16 = const()[name = tensor<string, []>("add_13_beta_0_to_fp16"), val = tensor<fp16, [640]>(BLOBFILE(path = tensor<string, []>("@model_path/weights/weight.bin"), offset = tensor<uint64, []>(38604864)))];
            tensor<fp16, []> add_13_epsilon_0_to_fp16 = const()[name = tensor<string, []>("add_13_epsilon_0_to_fp16"), val = tensor<fp16, []>(0x1.5p-17)];
            tensor<fp16, [2, 640, 64, 64]> add_13_cast = batch_norm(beta = add_13_beta_0_to_fp16, epsilon = add_13_epsilon_0_to_fp16, gamma = add_13_gamma_0_to_fp16, mean = add_11_mean_0_to_fp16, variance = add_11_variance_0_to_fp16, x = reshape_25_cast)[name = tensor<string, []>("add_13_cast")];
            tensor<int32, [2]> var_356 = const()[name = tensor<string, []>("op_356"), val = tensor<int32, [2]>([1, 1])];
            tensor<int32, [2]> var_358 = const()[name = tensor<string, []>("op_358"), val = tensor<int32, [2]>([1, 1])];
            tensor<string, []> hidden_states_15_pad_type_0 = const()[name = tensor<string, []>("hidden_states_15_pad_type_0"), val = tensor<string, []>("custom")];
            tensor<int32, [4]> hidden_states_15_pad_0 = const()[name = tensor<string, []>("hidden_states_15_pad_0"), val = tensor<int32, [4]>([0, 0, 0, 0])];
            tensor<fp16, [640, 640, 1, 1]> down_blocks_1_attentions_0_proj_in_weight_to_fp16 = const()[name = tensor<string, []>("down_blocks_1_attentions_0_proj_in_weight_to_fp16"), val = tensor<fp16, [640, 640, 1, 1]>(BLOBFILE(path = tensor<string, []>("@model_path/weights/weight.bin"), offset = tensor<uint64, []>(38606208)))];
            tensor<fp16, [640]> down_blocks_1_attentions_0_proj_in_bias_to_fp16 = const()[name = tensor<string, []>("down_blocks_1_attentions_0_proj_in_bias_to_fp16"), val = tensor<fp16, [640]>(BLOBFILE(path = tensor<string, []>("@model_path/weights/weight.bin"), offset = tensor<uint64, []>(39425472)))];
            tensor<fp16, [2, 640, 64, 64]> hidden_states_15_cast = conv(bias = down_blocks_1_attentions_0_proj_in_bias_to_fp16, dilations = var_358, groups = var_282, pad = hidden_states_15_pad_0, pad_type = hidden_states_15_pad_type_0, strides = var_356, weight = down_blocks_1_attentions_0_proj_in_weight_to_fp16, x = add_13_cast)[name = tensor<string, []>("hidden_states_15_cast")];
            tensor<int32, [4]> var_363 = const()[name = tensor<string, []>("op_363"), val = tensor<int32, [4]>([2, 640, 1, 4096])];
            tensor<fp16, [2, 640, 1, 4096]> inputs_1_cast = reshape(shape = var_363, x = hidden_states_15_cast)[name = tensor<string, []>("inputs_1_cast")];
            tensor<int32, [1]> var_373 = const()[name = tensor<string, []>("op_373"), val = tensor<int32, [1]>([1])];
            tensor<fp16, [2, 1, 1, 4096]> channels_mean_1_cast = reduce_mean(axes = var_373, keep_dims = var_277, x = inputs_1_cast)[name = tensor<string, []>("channels_mean_1_cast")];
            tensor<fp16, [2, 640, 1, 4096]> zero_mean_1_cast = sub(x = inputs_1_cast, y = channels_mean_1_cast)[name = tensor<string, []>("zero_mean_1_cast")];
            tensor<fp16, [2, 640, 1, 4096]> zero_mean_sq_1_cast = mul(x = zero_mean_1_cast, y = zero_mean_1_cast)[name = tensor<string, []>("zero_mean_sq_1_cast")];
            tensor<int32, [1]> var_377 = const()[name = tensor<string, []>("op_377"), val = tensor<int32, [1]>([1])];
            tensor<fp16, [2, 1, 1, 4096]> var_378_cast = reduce_mean(axes = var_377, keep_dims = var_277, x = zero_mean_sq_1_cast)[name = tensor<string, []>("op_378_cast")];
            tensor<fp16, []> var_379_to_fp16 = const()[name = tensor<string, []>("op_379_to_fp16"), val = tensor<fp16, []>(0x1.5p-17)];
            tensor<fp16, [2, 1, 1, 4096]> var_380_cast = add(x = var_378_cast, y = var_379_to_fp16)[name = tensor<string, []>("op_380_cast")];
            tensor<fp16, []> denom_1_epsilon_0_to_fp16 = const()[name = tensor<string, []>("denom_1_epsilon_0_to_fp16"), val = tensor<fp16, []>(0x1p-24)];
            tensor<fp16, [2, 1, 1, 4096]> denom_1_cast = rsqrt(epsilon = denom_1_epsilon_0_to_fp16, x = var_380_cast)[name = tensor<string, []>("denom_1_cast")];
            tensor<fp16, [2, 640, 1, 4096]> out_1_cast = mul(x = zero_mean_1_cast, y = denom_1_cast)[name = tensor<string, []>("out_1_cast")];
            tensor<fp16, [1, 640, 1, 1]> var_384_to_fp16 = const()[name = tensor<string, []>("op_384_to_fp16"), val = tensor<fp16, [1, 640, 1, 1]>(BLOBFILE(path = tensor<string, []>("@model_path/weights/weight.bin"), offset = tensor<uint64, []>(39426816)))];
            tensor<fp16, [2, 640, 1, 4096]> var_385_cast = add(x = out_1_cast, y = var_384_to_fp16)[name = tensor<string, []>("op_385_cast")];
            tensor<fp16, [1, 640, 1, 1]> var_387_to_fp16 = const()[name = tensor<string, []>("op_387_to_fp16"), val = tensor<fp16, [1, 640, 1, 1]>(BLOBFILE(path = tensor<string, []>("@model_path/weights/weight.bin"), offset = tensor<uint64, []>(39428160)))];
            tensor<fp16, [2, 640, 1, 4096]> hidden_states_17_cast = mul(x = var_385_cast, y = var_387_to_fp16)[name = tensor<string, []>("hidden_states_17_cast")];
            tensor<int32, [2]> var_394 = const()[name = tensor<string, []>("op_394"), val = tensor<int32, [2]>([1, 1])];
            tensor<int32, [2]> var_396 = const()[name = tensor<string, []>("op_396"), val = tensor<int32, [2]>([1, 1])];
            tensor<string, []> q_1_pad_type_0 = const()[name = tensor<string, []>("q_1_pad_type_0"), val = tensor<string, []>("custom")];
            tensor<int32, [4]> q_1_pad_0 = const()[name = tensor<string, []>("q_1_pad_0"), val = tensor<int32, [4]>([0, 0, 0, 0])];
            tensor<fp16, [640, 640, 1, 1]> down_blocks_1_attentions_0_transformer_blocks_0_attn1_to_q_weight_to_fp16 = const()[name = tensor<string, []>("down_blocks_1_attentions_0_transformer_blocks_0_attn1_to_q_weight_to_fp16"), val = tensor<fp16, [640, 640, 1, 1]>(BLOBFILE(path = tensor<string, []>("@model_path/weights/weight.bin"), offset = tensor<uint64, []>(39429504)))];
            tensor<fp16, [2, 640, 1, 4096]> q_1_cast = conv(dilations = var_396, groups = var_282, pad = q_1_pad_0, pad_type = q_1_pad_type_0, strides = var_394, weight = down_blocks_1_attentions_0_transformer_blocks_0_attn1_to_q_weight_to_fp16, x = hidden_states_17_cast)[name = tensor<string, []>("q_1_cast")];
            tensor<int32, [2]> var_400 = const()[name = tensor<string, []>("op_400"), val = tensor<int32, [2]>([1, 1])];
            tensor<int32, [2]> var_402 = const()[name = tensor<string, []>("op_402"), val = tensor<int32, [2]>([1, 1])];
            tensor<string, []> k_1_pad_type_0 = const()[name = tensor<string, []>("k_1_pad_type_0"), val = tensor<string, []>("custom")];
            tensor<int32, [4]> k_1_pad_0 = const()[name = tensor<string, []>("k_1_pad_0"), val = tensor<int32, [4]>([0, 0, 0, 0])];
            tensor<fp16, [640, 640, 1, 1]> down_blocks_1_attentions_0_transformer_blocks_0_attn1_to_k_weight_to_fp16 = const()[name = tensor<string, []>("down_blocks_1_attentions_0_transformer_blocks_0_attn1_to_k_weight_to_fp16"), val = tensor<fp16, [640, 640, 1, 1]>(BLOBFILE(path = tensor<string, []>("@model_path/weights/weight.bin"), offset = tensor<uint64, []>(40248768)))];
            tensor<fp16, [2, 640, 1, 4096]> k_1_cast = conv(dilations = var_402, groups = var_282, pad = k_1_pad_0, pad_type = k_1_pad_type_0, strides = var_400, weight = down_blocks_1_attentions_0_transformer_blocks_0_attn1_to_k_weight_to_fp16, x = hidden_states_17_cast)[name = tensor<string, []>("k_1_cast")];
            tensor<int32, [2]> var_406 = const()[name = tensor<string, []>("op_406"), val = tensor<int32, [2]>([1, 1])];
            tensor<int32, [2]> var_408 = const()[name = tensor<string, []>("op_408"), val = tensor<int32, [2]>([1, 1])];
            tensor<string, []> v_1_pad_type_0 = const()[name = tensor<string, []>("v_1_pad_type_0"), val = tensor<string, []>("custom")];
            tensor<int32, [4]> v_1_pad_0 = const()[name = tensor<string, []>("v_1_pad_0"), val = tensor<int32, [4]>([0, 0, 0, 0])];
            tensor<fp16, [640, 640, 1, 1]> down_blocks_1_attentions_0_transformer_blocks_0_attn1_to_v_weight_to_fp16 = const()[name = tensor<string, []>("down_blocks_1_attentions_0_transformer_blocks_0_attn1_to_v_weight_to_fp16"), val = tensor<fp16, [640, 640, 1, 1]>(BLOBFILE(path = tensor<string, []>("@model_path/weights/weight.bin"), offset = tensor<uint64, []>(41068032)))];
            tensor<fp16, [2, 640, 1, 4096]> v_1_cast = conv(dilations = var_408, groups = var_282, pad = v_1_pad_0, pad_type = v_1_pad_type_0, strides = var_406, weight = down_blocks_1_attentions_0_transformer_blocks_0_attn1_to_v_weight_to_fp16, x = hidden_states_17_cast)[name = tensor<string, []>("v_1_cast")];
            tensor<int32, [4]> var_412 = const()[name = tensor<string, []>("op_412"), val = tensor<int32, [4]>([2, 10, 64, -1])];
            tensor<fp16, [2, 10, 64, 4096]> var_413_cast = reshape(shape = var_412, x = q_1_cast)[name = tensor<string, []>("op_413_cast")];
            tensor<int32, [4]> var_414 = const()[name = tensor<string, []>("op_414"), val = tensor<int32, [4]>([2, 10, 64, -1])];
            tensor<fp16, [2, 10, 64, 4096]> var_415_cast = reshape(shape = var_414, x = k_1_cast)[name = tensor<string, []>("op_415_cast")];
            tensor<int32, [4]> var_416 = const()[name = tensor<string, []>("op_416"), val = tensor<int32, [4]>([2, 10, 64, -1])];
            tensor<fp16, [2, 10, 64, 4096]> var_417_cast = reshape(shape = var_416, x = v_1_cast)[name = tensor<string, []>("op_417_cast")];
            tensor<bool, []> attn_weights_1_transpose_x_0 = const()[name = tensor<string, []>("attn_weights_1_transpose_x_0"), val = tensor<bool, []>(true)];
            tensor<bool, []> attn_weights_1_transpose_y_0 = const()[name = tensor<string, []>("attn_weights_1_transpose_y_0"), val = tensor<bool, []>(false)];
            tensor<fp16, [2, 10, 4096, 4096]> attn_weights_1_cast = matmul(transpose_x = attn_weights_1_transpose_x_0, transpose_y = attn_weights_1_transpose_y_0, x = var_413_cast, y = var_415_cast)[name = tensor<string, []>("attn_weights_1_cast")];
            tensor<fp16, []> var_273_to_fp16 = const()[name = tensor<string, []>("op_273_to_fp16"), val = tensor<fp16, []>(0x1p-3)];
            tensor<fp16, [2, 10, 4096, 4096]> attn_weights_3_cast = mul(x = attn_weights_1_cast, y = var_273_to_fp16)[name = tensor<string, []>("attn_weights_3_cast")];
            tensor<fp16, [2, 10, 4096, 4096]> var_421_cast = softmax(axis = var_266, x = attn_weights_3_cast)[name = tensor<string, []>("op_421_cast")];
            tensor<bool, []> attn_1_transpose_x_0 = const()[name = tensor<string, []>("attn_1_transpose_x_0"), val = tensor<bool, []>(false)];
            tensor<bool, []> attn_1_transpose_y_0 = const()[name = tensor<string, []>("attn_1_transpose_y_0"), val = tensor<bool, []>(true)];
            tensor<fp16, [2, 10, 64, 4096]> attn_1_cast = matmul(transpose_x = attn_1_transpose_x_0, transpose_y = attn_1_transpose_y_0, x = var_417_cast, y = var_421_cast)[name = tensor<string, []>("attn_1_cast")];
            tensor<int32, [4]> var_425 = const()[name = tensor<string, []>("op_425"), val = tensor<int32, [4]>([2, 640, 1, -1])];
            tensor<fp16, [2, 640, 1, 4096]> input_61_cast = reshape(shape = var_425, x = attn_1_cast)[name = tensor<string, []>("input_61_cast")];
            tensor<int32, [2]> var_430 = const()[name = tensor<string, []>("op_430"), val = tensor<int32, [2]>([1, 1])];
            tensor<int32, [2]> var_432 = const()[name = tensor<string, []>("op_432"), val = tensor<int32, [2]>([1, 1])];
            tensor<string, []> var_434_pad_type_0 = const()[name = tensor<string, []>("op_434_pad_type_0"), val = tensor<string, []>("custom")];
            tensor<int32, [4]> var_434_pad_0 = const()[name = tensor<string, []>("op_434_pad_0"), val = tensor<int32, [4]>([0, 0, 0, 0])];
            tensor<fp16, [640, 640, 1, 1]> down_blocks_1_attentions_0_transformer_blocks_0_attn1_to_out_0_weight_to_fp16 = const()[name = tensor<string, []>("down_blocks_1_attentions_0_transformer_blocks_0_attn1_to_out_0_weight_to_fp16"), val = tensor<fp16, [640, 640, 1, 1]>(BLOBFILE(path = tensor<string, []>("@model_path/weights/weight.bin"), offset = tensor<uint64, []>(41887296)))];
            tensor<fp16, [640]> down_blocks_1_attentions_0_transformer_blocks_0_attn1_to_out_0_bias_to_fp16 = const()[name = tensor<string, []>("down_blocks_1_attentions_0_transformer_blocks_0_attn1_to_out_0_bias_to_fp16"), val = tensor<fp16, [640]>(BLOBFILE(path = tensor<string, []>("@model_path/weights/weight.bin"), offset = tensor<uint64, []>(42706560)))];
            tensor<fp16, [2, 640, 1, 4096]> var_434_cast = conv(bias = down_blocks_1_attentions_0_transformer_blocks_0_attn1_to_out_0_bias_to_fp16, dilations = var_432, groups = var_282, pad = var_434_pad_0, pad_type = var_434_pad_type_0, strides = var_430, weight = down_blocks_1_attentions_0_transformer_blocks_0_attn1_to_out_0_weight_to_fp16, x = input_61_cast)[name = tensor<string, []>("op_434_cast")];
            tensor<fp16, [2, 640, 1, 4096]> inputs_3_cast = add(x = var_434_cast, y = inputs_1_cast)[name = tensor<string, []>("inputs_3_cast")];
            tensor<int32, [1]> var_438 = const()[name = tensor<string, []>("op_438"), val = tensor<int32, [1]>([1])];
            tensor<fp16, [2, 1, 1, 4096]> channels_mean_3_cast = reduce_mean(axes = var_438, keep_dims = var_277, x = inputs_3_cast)[name = tensor<string, []>("channels_mean_3_cast")];
            tensor<fp16, [2, 640, 1, 4096]> zero_mean_3_cast = sub(x = inputs_3_cast, y = channels_mean_3_cast)[name = tensor<string, []>("zero_mean_3_cast")];
            tensor<fp16, [2, 640, 1, 4096]> zero_mean_sq_3_cast = mul(x = zero_mean_3_cast, y = zero_mean_3_cast)[name = tensor<string, []>("zero_mean_sq_3_cast")];
            tensor<int32, [1]> var_442 = const()[name = tensor<string, []>("op_442"), val = tensor<int32, [1]>([1])];
            tensor<fp16, [2, 1, 1, 4096]> var_443_cast = reduce_mean(axes = var_442, keep_dims = var_277, x = zero_mean_sq_3_cast)[name = tensor<string, []>("op_443_cast")];
            tensor<fp16, []> var_444_to_fp16 = const()[name = tensor<string, []>("op_444_to_fp16"), val = tensor<fp16, []>(0x1.5p-17)];
            tensor<fp16, [2, 1, 1, 4096]> var_445_cast = add(x = var_443_cast, y = var_444_to_fp16)[name = tensor<string, []>("op_445_cast")];
            tensor<fp16, []> denom_3_epsilon_0_to_fp16 = const()[name = tensor<string, []>("denom_3_epsilon_0_to_fp16"), val = tensor<fp16, []>(0x1p-24)];
            tensor<fp16, [2, 1, 1, 4096]> denom_3_cast = rsqrt(epsilon = denom_3_epsilon_0_to_fp16, x = var_445_cast)[name = tensor<string, []>("denom_3_cast")];
            tensor<fp16, [2, 640, 1, 4096]> out_3_cast = mul(x = zero_mean_3_cast, y = denom_3_cast)[name = tensor<string, []>("out_3_cast")];
            tensor<fp16, [1, 640, 1, 1]> var_449_to_fp16 = const()[name = tensor<string, []>("op_449_to_fp16"), val = tensor<fp16, [1, 640, 1, 1]>(BLOBFILE(path = tensor<string, []>("@model_path/weights/weight.bin"), offset = tensor<uint64, []>(42707904)))];
            tensor<fp16, [2, 640, 1, 4096]> var_450_cast = add(x = out_3_cast, y = var_449_to_fp16)[name = tensor<string, []>("op_450_cast")];
            tensor<fp16, [1, 640, 1, 1]> var_452_to_fp16 = const()[name = tensor<string, []>("op_452_to_fp16"), val = tensor<fp16, [1, 640, 1, 1]>(BLOBFILE(path = tensor<string, []>("@model_path/weights/weight.bin"), offset = tensor<uint64, []>(42709248)))];
            tensor<fp16, [2, 640, 1, 4096]> hidden_states_19_cast = mul(x = var_450_cast, y = var_452_to_fp16)[name = tensor<string, []>("hidden_states_19_cast")];
            tensor<int32, [2]> var_459 = const()[name = tensor<string, []>("op_459"), val = tensor<int32, [2]>([1, 1])];
            tensor<int32, [2]> var_461 = const()[name = tensor<string, []>("op_461"), val = tensor<int32, [2]>([1, 1])];
            tensor<string, []> q_3_pad_type_0 = const()[name = tensor<string, []>("q_3_pad_type_0"), val = tensor<string, []>("custom")];
            tensor<int32, [4]> q_3_pad_0 = const()[name = tensor<string, []>("q_3_pad_0"), val = tensor<int32, [4]>([0, 0, 0, 0])];
            tensor<fp16, [640, 640, 1, 1]> down_blocks_1_attentions_0_transformer_blocks_0_attn2_to_q_weight_to_fp16 = const()[name = tensor<string, []>("down_blocks_1_attentions_0_transformer_blocks_0_attn2_to_q_weight_to_fp16"), val = tensor<fp16, [640, 640, 1, 1]>(BLOBFILE(path = tensor<string, []>("@model_path/weights/weight.bin"), offset = tensor<uint64, []>(42710592)))];
            tensor<fp16, [2, 640, 1, 4096]> q_3_cast = conv(dilations = var_461, groups = var_282, pad = q_3_pad_0, pad_type = q_3_pad_type_0, strides = var_459, weight = down_blocks_1_attentions_0_transformer_blocks_0_attn2_to_q_weight_to_fp16, x = hidden_states_19_cast)[name = tensor<string, []>("q_3_cast")];
            tensor<int32, [2]> var_465 = const()[name = tensor<string, []>("op_465"), val = tensor<int32, [2]>([1, 1])];
            tensor<int32, [2]> var_467 = const()[name = tensor<string, []>("op_467"), val = tensor<int32, [2]>([1, 1])];
            tensor<string, []> k_3_pad_type_0 = const()[name = tensor<string, []>("k_3_pad_type_0"), val = tensor<string, []>("custom")];
            tensor<int32, [4]> k_3_pad_0 = const()[name = tensor<string, []>("k_3_pad_0"), val = tensor<int32, [4]>([0, 0, 0, 0])];
            tensor<fp16, [640, 2048, 1, 1]> down_blocks_1_attentions_0_transformer_blocks_0_attn2_to_k_weight_to_fp16 = const()[name = tensor<string, []>("down_blocks_1_attentions_0_transformer_blocks_0_attn2_to_k_weight_to_fp16"), val = tensor<fp16, [640, 2048, 1, 1]>(BLOBFILE(path = tensor<string, []>("@model_path/weights/weight.bin"), offset = tensor<uint64, []>(43529856)))];
            tensor<fp16, [2, 640, 1, 77]> k_3_cast = conv(dilations = var_467, groups = var_282, pad = k_3_pad_0, pad_type = k_3_pad_type_0, strides = var_465, weight = down_blocks_1_attentions_0_transformer_blocks_0_attn2_to_k_weight_to_fp16, x = encoder_hidden_states)[name = tensor<string, []>("k_3_cast")];
            tensor<int32, [2]> var_471 = const()[name = tensor<string, []>("op_471"), val = tensor<int32, [2]>([1, 1])];
            tensor<int32, [2]> var_473 = const()[name = tensor<string, []>("op_473"), val = tensor<int32, [2]>([1, 1])];
            tensor<string, []> v_3_pad_type_0 = const()[name = tensor<string, []>("v_3_pad_type_0"), val = tensor<string, []>("custom")];
            tensor<int32, [4]> v_3_pad_0 = const()[name = tensor<string, []>("v_3_pad_0"), val = tensor<int32, [4]>([0, 0, 0, 0])];
            tensor<fp16, [640, 2048, 1, 1]> down_blocks_1_attentions_0_transformer_blocks_0_attn2_to_v_weight_to_fp16 = const()[name = tensor<string, []>("down_blocks_1_attentions_0_transformer_blocks_0_attn2_to_v_weight_to_fp16"), val = tensor<fp16, [640, 2048, 1, 1]>(BLOBFILE(path = tensor<string, []>("@model_path/weights/weight.bin"), offset = tensor<uint64, []>(46151360)))];
            tensor<fp16, [2, 640, 1, 77]> v_3_cast = conv(dilations = var_473, groups = var_282, pad = v_3_pad_0, pad_type = v_3_pad_type_0, strides = var_471, weight = down_blocks_1_attentions_0_transformer_blocks_0_attn2_to_v_weight_to_fp16, x = encoder_hidden_states)[name = tensor<string, []>("v_3_cast")];
            tensor<int32, [4]> var_477 = const()[name = tensor<string, []>("op_477"), val = tensor<int32, [4]>([2, 10, 64, -1])];
            tensor<fp16, [2, 10, 64, 4096]> var_478_cast = reshape(shape = var_477, x = q_3_cast)[name = tensor<string, []>("op_478_cast")];
            tensor<int32, [4]> var_479 = const()[name = tensor<string, []>("op_479"), val = tensor<int32, [4]>([2, 10, 64, -1])];
            tensor<fp16, [2, 10, 64, 77]> var_480_cast = reshape(shape = var_479, x = k_3_cast)[name = tensor<string, []>("op_480_cast")];
            tensor<int32, [4]> var_481 = const()[name = tensor<string, []>("op_481"), val = tensor<int32, [4]>([2, 10, 64, -1])];
            tensor<fp16, [2, 10, 64, 77]> var_482_cast = reshape(shape = var_481, x = v_3_cast)[name = tensor<string, []>("op_482_cast")];
            tensor<bool, []> attn_weights_5_transpose_x_0 = const()[name = tensor<string, []>("attn_weights_5_transpose_x_0"), val = tensor<bool, []>(true)];
            tensor<bool, []> attn_weights_5_transpose_y_0 = const()[name = tensor<string, []>("attn_weights_5_transpose_y_0"), val = tensor<bool, []>(false)];
            tensor<fp16, [2, 10, 4096, 77]> attn_weights_5_cast = matmul(transpose_x = attn_weights_5_transpose_x_0, transpose_y = attn_weights_5_transpose_y_0, x = var_478_cast, y = var_480_cast)[name = tensor<string, []>("attn_weights_5_cast")];
            tensor<fp16, [2, 10, 4096, 77]> attn_weights_7_cast = mul(x = attn_weights_5_cast, y = var_273_to_fp16)[name = tensor<string, []>("attn_weights_7_cast")];
            tensor<fp16, [2, 10, 4096, 77]> var_486_cast = softmax(axis = var_266, x = attn_weights_7_cast)[name = tensor<string, []>("op_486_cast")];
            tensor<bool, []> attn_3_transpose_x_0 = const()[name = tensor<string, []>("attn_3_transpose_x_0"), val = tensor<bool, []>(false)];
            tensor<bool, []> attn_3_transpose_y_0 = const()[name = tensor<string, []>("attn_3_transpose_y_0"), val = tensor<bool, []>(true)];
            tensor<fp16, [2, 10, 64, 4096]> attn_3_cast = matmul(transpose_x = attn_3_transpose_x_0, transpose_y = attn_3_transpose_y_0, x = var_482_cast, y = var_486_cast)[name = tensor<string, []>("attn_3_cast")];
            tensor<int32, [4]> var_490 = const()[name = tensor<string, []>("op_490"), val = tensor<int32, [4]>([2, 640, 1, -1])];
            tensor<fp16, [2, 640, 1, 4096]> input_63_cast = reshape(shape = var_490, x = attn_3_cast)[name = tensor<string, []>("input_63_cast")];
            tensor<int32, [2]> var_495 = const()[name = tensor<string, []>("op_495"), val = tensor<int32, [2]>([1, 1])];
            tensor<int32, [2]> var_497 = const()[name = tensor<string, []>("op_497"), val = tensor<int32, [2]>([1, 1])];
            tensor<string, []> var_499_pad_type_0 = const()[name = tensor<string, []>("op_499_pad_type_0"), val = tensor<string, []>("custom")];
            tensor<int32, [4]> var_499_pad_0 = const()[name = tensor<string, []>("op_499_pad_0"), val = tensor<int32, [4]>([0, 0, 0, 0])];
            tensor<fp16, [640, 640, 1, 1]> down_blocks_1_attentions_0_transformer_blocks_0_attn2_to_out_0_weight_to_fp16 = const()[name = tensor<string, []>("down_blocks_1_attentions_0_transformer_blocks_0_attn2_to_out_0_weight_to_fp16"), val = tensor<fp16, [640, 640, 1, 1]>(BLOBFILE(path = tensor<string, []>("@model_path/weights/weight.bin"), offset = tensor<uint64, []>(48772864)))];
            tensor<fp16, [640]> down_blocks_1_attentions_0_transformer_blocks_0_attn2_to_out_0_bias_to_fp16 = const()[name = tensor<string, []>("down_blocks_1_attentions_0_transformer_blocks_0_attn2_to_out_0_bias_to_fp16"), val = tensor<fp16, [640]>(BLOBFILE(path = tensor<string, []>("@model_path/weights/weight.bin"), offset = tensor<uint64, []>(49592128)))];
            tensor<fp16, [2, 640, 1, 4096]> var_499_cast = conv(bias = down_blocks_1_attentions_0_transformer_blocks_0_attn2_to_out_0_bias_to_fp16, dilations = var_497, groups = var_282, pad = var_499_pad_0, pad_type = var_499_pad_type_0, strides = var_495, weight = down_blocks_1_attentions_0_transformer_blocks_0_attn2_to_out_0_weight_to_fp16, x = input_63_cast)[name = tensor<string, []>("op_499_cast")];
            tensor<fp16, [2, 640, 1, 4096]> inputs_5_cast = add(x = var_499_cast, y = inputs_3_cast)[name = tensor<string, []>("inputs_5_cast")];
            tensor<int32, [1]> var_503 = const()[name = tensor<string, []>("op_503"), val = tensor<int32, [1]>([1])];
            tensor<fp16, [2, 1, 1, 4096]> channels_mean_5_cast = reduce_mean(axes = var_503, keep_dims = var_277, x = inputs_5_cast)[name = tensor<string, []>("channels_mean_5_cast")];
            tensor<fp16, [2, 640, 1, 4096]> zero_mean_5_cast = sub(x = inputs_5_cast, y = channels_mean_5_cast)[name = tensor<string, []>("zero_mean_5_cast")];
            tensor<fp16, [2, 640, 1, 4096]> zero_mean_sq_5_cast = mul(x = zero_mean_5_cast, y = zero_mean_5_cast)[name = tensor<string, []>("zero_mean_sq_5_cast")];
            tensor<int32, [1]> var_507 = const()[name = tensor<string, []>("op_507"), val = tensor<int32, [1]>([1])];
            tensor<fp16, [2, 1, 1, 4096]> var_508_cast = reduce_mean(axes = var_507, keep_dims = var_277, x = zero_mean_sq_5_cast)[name = tensor<string, []>("op_508_cast")];
            tensor<fp16, []> var_509_to_fp16 = const()[name = tensor<string, []>("op_509_to_fp16"), val = tensor<fp16, []>(0x1.5p-17)];
            tensor<fp16, [2, 1, 1, 4096]> var_510_cast = add(x = var_508_cast, y = var_509_to_fp16)[name = tensor<string, []>("op_510_cast")];
            tensor<fp16, []> denom_5_epsilon_0_to_fp16 = const()[name = tensor<string, []>("denom_5_epsilon_0_to_fp16"), val = tensor<fp16, []>(0x1p-24)];
            tensor<fp16, [2, 1, 1, 4096]> denom_5_cast = rsqrt(epsilon = denom_5_epsilon_0_to_fp16, x = var_510_cast)[name = tensor<string, []>("denom_5_cast")];
            tensor<fp16, [2, 640, 1, 4096]> out_5_cast = mul(x = zero_mean_5_cast, y = denom_5_cast)[name = tensor<string, []>("out_5_cast")];
            tensor<fp16, [1, 640, 1, 1]> var_514_to_fp16 = const()[name = tensor<string, []>("op_514_to_fp16"), val = tensor<fp16, [1, 640, 1, 1]>(BLOBFILE(path = tensor<string, []>("@model_path/weights/weight.bin"), offset = tensor<uint64, []>(49593472)))];
            tensor<fp16, [2, 640, 1, 4096]> var_515_cast = add(x = out_5_cast, y = var_514_to_fp16)[name = tensor<string, []>("op_515_cast")];
            tensor<fp16, [1, 640, 1, 1]> var_517_to_fp16 = const()[name = tensor<string, []>("op_517_to_fp16"), val = tensor<fp16, [1, 640, 1, 1]>(BLOBFILE(path = tensor<string, []>("@model_path/weights/weight.bin"), offset = tensor<uint64, []>(49594816)))];
            tensor<fp16, [2, 640, 1, 4096]> input_65_cast = mul(x = var_515_cast, y = var_517_to_fp16)[name = tensor<string, []>("input_65_cast")];
            tensor<int32, [2]> var_525 = const()[name = tensor<string, []>("op_525"), val = tensor<int32, [2]>([1, 1])];
            tensor<int32, [2]> var_527 = const()[name = tensor<string, []>("op_527"), val = tensor<int32, [2]>([1, 1])];
            tensor<string, []> var_529_pad_type_0 = const()[name = tensor<string, []>("op_529_pad_type_0"), val = tensor<string, []>("custom")];
            tensor<int32, [4]> var_529_pad_0 = const()[name = tensor<string, []>("op_529_pad_0"), val = tensor<int32, [4]>([0, 0, 0, 0])];
            tensor<fp16, [5120, 640, 1, 1]> down_blocks_1_attentions_0_transformer_blocks_0_ff_net_0_proj_weight_to_fp16 = const()[name = tensor<string, []>("down_blocks_1_attentions_0_transformer_blocks_0_ff_net_0_proj_weight_to_fp16"), val = tensor<fp16, [5120, 640, 1, 1]>(BLOBFILE(path = tensor<string, []>("@model_path/weights/weight.bin"), offset = tensor<uint64, []>(49596160)))];
            tensor<fp16, [5120]> down_blocks_1_attentions_0_transformer_blocks_0_ff_net_0_proj_bias_to_fp16 = const()[name = tensor<string, []>("down_blocks_1_attentions_0_transformer_blocks_0_ff_net_0_proj_bias_to_fp16"), val = tensor<fp16, [5120]>(BLOBFILE(path = tensor<string, []>("@model_path/weights/weight.bin"), offset = tensor<uint64, []>(56149824)))];
            tensor<fp16, [2, 5120, 1, 4096]> var_529_cast = conv(bias = down_blocks_1_attentions_0_transformer_blocks_0_ff_net_0_proj_bias_to_fp16, dilations = var_527, groups = var_282, pad = var_529_pad_0, pad_type = var_529_pad_type_0, strides = var_525, weight = down_blocks_1_attentions_0_transformer_blocks_0_ff_net_0_proj_weight_to_fp16, x = input_65_cast)[name = tensor<string, []>("op_529_cast")];
            tensor<int32, [2]> var_530_split_sizes_0 = const()[name = tensor<string, []>("op_530_split_sizes_0"), val = tensor<int32, [2]>([2560, 2560])];
            tensor<int32, []> var_530_axis_0 = const()[name = tensor<string, []>("op_530_axis_0"), val = tensor<int32, []>(1)];
            tensor<fp16, [2, 2560, 1, 4096]> var_530_cast_0, tensor<fp16, [2, 2560, 1, 4096]> var_530_cast_1 = split(axis = var_530_axis_0, split_sizes = var_530_split_sizes_0, x = var_529_cast)[name = tensor<string, []>("op_530_cast")];
            tensor<string, []> var_532_mode_0 = const()[name = tensor<string, []>("op_532_mode_0"), val = tensor<string, []>("EXACT")];
            tensor<fp16, [2, 2560, 1, 4096]> var_532_cast = gelu(mode = var_532_mode_0, x = var_530_cast_1)[name = tensor<string, []>("op_532_cast")];
            tensor<fp16, [2, 2560, 1, 4096]> input_67_cast = mul(x = var_530_cast_0, y = var_532_cast)[name = tensor<string, []>("input_67_cast")];
            tensor<int32, [2]> var_536 = const()[name = tensor<string, []>("op_536"), val = tensor<int32, [2]>([1, 1])];
            tensor<int32, [2]> var_538 = const()[name = tensor<string, []>("op_538"), val = tensor<int32, [2]>([1, 1])];
            tensor<string, []> var_540_pad_type_0 = const()[name = tensor<string, []>("op_540_pad_type_0"), val = tensor<string, []>("custom")];
            tensor<int32, [4]> var_540_pad_0 = const()[name = tensor<string, []>("op_540_pad_0"), val = tensor<int32, [4]>([0, 0, 0, 0])];
            tensor<fp16, [640, 2560, 1, 1]> down_blocks_1_attentions_0_transformer_blocks_0_ff_net_2_weight_to_fp16 = const()[name = tensor<string, []>("down_blocks_1_attentions_0_transformer_blocks_0_ff_net_2_weight_to_fp16"), val = tensor<fp16, [640, 2560, 1, 1]>(BLOBFILE(path = tensor<string, []>("@model_path/weights/weight.bin"), offset = tensor<uint64, []>(56160128)))];
            tensor<fp16, [640]> down_blocks_1_attentions_0_transformer_blocks_0_ff_net_2_bias_to_fp16 = const()[name = tensor<string, []>("down_blocks_1_attentions_0_transformer_blocks_0_ff_net_2_bias_to_fp16"), val = tensor<fp16, [640]>(BLOBFILE(path = tensor<string, []>("@model_path/weights/weight.bin"), offset = tensor<uint64, []>(59436992)))];
            tensor<fp16, [2, 640, 1, 4096]> var_540_cast = conv(bias = down_blocks_1_attentions_0_transformer_blocks_0_ff_net_2_bias_to_fp16, dilations = var_538, groups = var_282, pad = var_540_pad_0, pad_type = var_540_pad_type_0, strides = var_536, weight = down_blocks_1_attentions_0_transformer_blocks_0_ff_net_2_weight_to_fp16, x = input_67_cast)[name = tensor<string, []>("op_540_cast")];
            tensor<fp16, [2, 640, 1, 4096]> inputs_7_cast = add(x = var_540_cast, y = inputs_5_cast)[name = tensor<string, []>("inputs_7_cast")];
            tensor<int32, [1]> var_550 = const()[name = tensor<string, []>("op_550"), val = tensor<int32, [1]>([1])];
            tensor<fp16, [2, 1, 1, 4096]> channels_mean_7_cast = reduce_mean(axes = var_550, keep_dims = var_277, x = inputs_7_cast)[name = tensor<string, []>("channels_mean_7_cast")];
            tensor<fp16, [2, 640, 1, 4096]> zero_mean_7_cast = sub(x = inputs_7_cast, y = channels_mean_7_cast)[name = tensor<string, []>("zero_mean_7_cast")];
            tensor<fp16, [2, 640, 1, 4096]> zero_mean_sq_7_cast = mul(x = zero_mean_7_cast, y = zero_mean_7_cast)[name = tensor<string, []>("zero_mean_sq_7_cast")];
            tensor<int32, [1]> var_554 = const()[name = tensor<string, []>("op_554"), val = tensor<int32, [1]>([1])];
            tensor<fp16, [2, 1, 1, 4096]> var_555_cast = reduce_mean(axes = var_554, keep_dims = var_277, x = zero_mean_sq_7_cast)[name = tensor<string, []>("op_555_cast")];
            tensor<fp16, []> var_556_to_fp16 = const()[name = tensor<string, []>("op_556_to_fp16"), val = tensor<fp16, []>(0x1.5p-17)];
            tensor<fp16, [2, 1, 1, 4096]> var_557_cast = add(x = var_555_cast, y = var_556_to_fp16)[name = tensor<string, []>("op_557_cast")];
            tensor<fp16, []> denom_7_epsilon_0_to_fp16 = const()[name = tensor<string, []>("denom_7_epsilon_0_to_fp16"), val = tensor<fp16, []>(0x1p-24)];
            tensor<fp16, [2, 1, 1, 4096]> denom_7_cast = rsqrt(epsilon = denom_7_epsilon_0_to_fp16, x = var_557_cast)[name = tensor<string, []>("denom_7_cast")];
            tensor<fp16, [2, 640, 1, 4096]> out_7_cast = mul(x = zero_mean_7_cast, y = denom_7_cast)[name = tensor<string, []>("out_7_cast")];
            tensor<fp16, [1, 640, 1, 1]> var_561_to_fp16 = const()[name = tensor<string, []>("op_561_to_fp16"), val = tensor<fp16, [1, 640, 1, 1]>(BLOBFILE(path = tensor<string, []>("@model_path/weights/weight.bin"), offset = tensor<uint64, []>(59438336)))];
            tensor<fp16, [2, 640, 1, 4096]> var_562_cast = add(x = out_7_cast, y = var_561_to_fp16)[name = tensor<string, []>("op_562_cast")];
            tensor<fp16, [1, 640, 1, 1]> var_564_to_fp16 = const()[name = tensor<string, []>("op_564_to_fp16"), val = tensor<fp16, [1, 640, 1, 1]>(BLOBFILE(path = tensor<string, []>("@model_path/weights/weight.bin"), offset = tensor<uint64, []>(59439680)))];
            tensor<fp16, [2, 640, 1, 4096]> hidden_states_23_cast = mul(x = var_562_cast, y = var_564_to_fp16)[name = tensor<string, []>("hidden_states_23_cast")];
            tensor<int32, [2]> var_571 = const()[name = tensor<string, []>("op_571"), val = tensor<int32, [2]>([1, 1])];
            tensor<int32, [2]> var_573 = const()[name = tensor<string, []>("op_573"), val = tensor<int32, [2]>([1, 1])];
            tensor<string, []> q_5_pad_type_0 = const()[name = tensor<string, []>("q_5_pad_type_0"), val = tensor<string, []>("custom")];
            tensor<int32, [4]> q_5_pad_0 = const()[name = tensor<string, []>("q_5_pad_0"), val = tensor<int32, [4]>([0, 0, 0, 0])];
            tensor<fp16, [640, 640, 1, 1]> down_blocks_1_attentions_0_transformer_blocks_1_attn1_to_q_weight_to_fp16 = const()[name = tensor<string, []>("down_blocks_1_attentions_0_transformer_blocks_1_attn1_to_q_weight_to_fp16"), val = tensor<fp16, [640, 640, 1, 1]>(BLOBFILE(path = tensor<string, []>("@model_path/weights/weight.bin"), offset = tensor<uint64, []>(59441024)))];
            tensor<fp16, [2, 640, 1, 4096]> q_5_cast = conv(dilations = var_573, groups = var_282, pad = q_5_pad_0, pad_type = q_5_pad_type_0, strides = var_571, weight = down_blocks_1_attentions_0_transformer_blocks_1_attn1_to_q_weight_to_fp16, x = hidden_states_23_cast)[name = tensor<string, []>("q_5_cast")];
            tensor<int32, [2]> var_577 = const()[name = tensor<string, []>("op_577"), val = tensor<int32, [2]>([1, 1])];
            tensor<int32, [2]> var_579 = const()[name = tensor<string, []>("op_579"), val = tensor<int32, [2]>([1, 1])];
            tensor<string, []> k_5_pad_type_0 = const()[name = tensor<string, []>("k_5_pad_type_0"), val = tensor<string, []>("custom")];
            tensor<int32, [4]> k_5_pad_0 = const()[name = tensor<string, []>("k_5_pad_0"), val = tensor<int32, [4]>([0, 0, 0, 0])];
            tensor<fp16, [640, 640, 1, 1]> down_blocks_1_attentions_0_transformer_blocks_1_attn1_to_k_weight_to_fp16 = const()[name = tensor<string, []>("down_blocks_1_attentions_0_transformer_blocks_1_attn1_to_k_weight_to_fp16"), val = tensor<fp16, [640, 640, 1, 1]>(BLOBFILE(path = tensor<string, []>("@model_path/weights/weight.bin"), offset = tensor<uint64, []>(60260288)))];
            tensor<fp16, [2, 640, 1, 4096]> k_5_cast = conv(dilations = var_579, groups = var_282, pad = k_5_pad_0, pad_type = k_5_pad_type_0, strides = var_577, weight = down_blocks_1_attentions_0_transformer_blocks_1_attn1_to_k_weight_to_fp16, x = hidden_states_23_cast)[name = tensor<string, []>("k_5_cast")];
            tensor<int32, [2]> var_583 = const()[name = tensor<string, []>("op_583"), val = tensor<int32, [2]>([1, 1])];
            tensor<int32, [2]> var_585 = const()[name = tensor<string, []>("op_585"), val = tensor<int32, [2]>([1, 1])];
            tensor<string, []> v_5_pad_type_0 = const()[name = tensor<string, []>("v_5_pad_type_0"), val = tensor<string, []>("custom")];
            tensor<int32, [4]> v_5_pad_0 = const()[name = tensor<string, []>("v_5_pad_0"), val = tensor<int32, [4]>([0, 0, 0, 0])];
            tensor<fp16, [640, 640, 1, 1]> down_blocks_1_attentions_0_transformer_blocks_1_attn1_to_v_weight_to_fp16 = const()[name = tensor<string, []>("down_blocks_1_attentions_0_transformer_blocks_1_attn1_to_v_weight_to_fp16"), val = tensor<fp16, [640, 640, 1, 1]>(BLOBFILE(path = tensor<string, []>("@model_path/weights/weight.bin"), offset = tensor<uint64, []>(61079552)))];
            tensor<fp16, [2, 640, 1, 4096]> v_5_cast = conv(dilations = var_585, groups = var_282, pad = v_5_pad_0, pad_type = v_5_pad_type_0, strides = var_583, weight = down_blocks_1_attentions_0_transformer_blocks_1_attn1_to_v_weight_to_fp16, x = hidden_states_23_cast)[name = tensor<string, []>("v_5_cast")];
            tensor<int32, [4]> var_589 = const()[name = tensor<string, []>("op_589"), val = tensor<int32, [4]>([2, 10, 64, -1])];
            tensor<fp16, [2, 10, 64, 4096]> var_590_cast = reshape(shape = var_589, x = q_5_cast)[name = tensor<string, []>("op_590_cast")];
            tensor<int32, [4]> var_591 = const()[name = tensor<string, []>("op_591"), val = tensor<int32, [4]>([2, 10, 64, -1])];
            tensor<fp16, [2, 10, 64, 4096]> var_592_cast = reshape(shape = var_591, x = k_5_cast)[name = tensor<string, []>("op_592_cast")];
            tensor<int32, [4]> var_593 = const()[name = tensor<string, []>("op_593"), val = tensor<int32, [4]>([2, 10, 64, -1])];
            tensor<fp16, [2, 10, 64, 4096]> var_594_cast = reshape(shape = var_593, x = v_5_cast)[name = tensor<string, []>("op_594_cast")];
            tensor<bool, []> attn_weights_9_transpose_x_0 = const()[name = tensor<string, []>("attn_weights_9_transpose_x_0"), val = tensor<bool, []>(true)];
            tensor<bool, []> attn_weights_9_transpose_y_0 = const()[name = tensor<string, []>("attn_weights_9_transpose_y_0"), val = tensor<bool, []>(false)];
            tensor<fp16, [2, 10, 4096, 4096]> attn_weights_9_cast = matmul(transpose_x = attn_weights_9_transpose_x_0, transpose_y = attn_weights_9_transpose_y_0, x = var_590_cast, y = var_592_cast)[name = tensor<string, []>("attn_weights_9_cast")];
            tensor<fp16, [2, 10, 4096, 4096]> attn_weights_11_cast = mul(x = attn_weights_9_cast, y = var_273_to_fp16)[name = tensor<string, []>("attn_weights_11_cast")];
            tensor<fp16, [2, 10, 4096, 4096]> var_598_cast = softmax(axis = var_266, x = attn_weights_11_cast)[name = tensor<string, []>("op_598_cast")];
            tensor<bool, []> attn_5_transpose_x_0 = const()[name = tensor<string, []>("attn_5_transpose_x_0"), val = tensor<bool, []>(false)];
            tensor<bool, []> attn_5_transpose_y_0 = const()[name = tensor<string, []>("attn_5_transpose_y_0"), val = tensor<bool, []>(true)];
            tensor<fp16, [2, 10, 64, 4096]> attn_5_cast = matmul(transpose_x = attn_5_transpose_x_0, transpose_y = attn_5_transpose_y_0, x = var_594_cast, y = var_598_cast)[name = tensor<string, []>("attn_5_cast")];
            tensor<int32, [4]> var_602 = const()[name = tensor<string, []>("op_602"), val = tensor<int32, [4]>([2, 640, 1, -1])];
            tensor<fp16, [2, 640, 1, 4096]> input_69_cast = reshape(shape = var_602, x = attn_5_cast)[name = tensor<string, []>("input_69_cast")];
            tensor<int32, [2]> var_607 = const()[name = tensor<string, []>("op_607"), val = tensor<int32, [2]>([1, 1])];
            tensor<int32, [2]> var_609 = const()[name = tensor<string, []>("op_609"), val = tensor<int32, [2]>([1, 1])];
            tensor<string, []> var_611_pad_type_0 = const()[name = tensor<string, []>("op_611_pad_type_0"), val = tensor<string, []>("custom")];
            tensor<int32, [4]> var_611_pad_0 = const()[name = tensor<string, []>("op_611_pad_0"), val = tensor<int32, [4]>([0, 0, 0, 0])];
            tensor<fp16, [640, 640, 1, 1]> down_blocks_1_attentions_0_transformer_blocks_1_attn1_to_out_0_weight_to_fp16 = const()[name = tensor<string, []>("down_blocks_1_attentions_0_transformer_blocks_1_attn1_to_out_0_weight_to_fp16"), val = tensor<fp16, [640, 640, 1, 1]>(BLOBFILE(path = tensor<string, []>("@model_path/weights/weight.bin"), offset = tensor<uint64, []>(61898816)))];
            tensor<fp16, [640]> down_blocks_1_attentions_0_transformer_blocks_1_attn1_to_out_0_bias_to_fp16 = const()[name = tensor<string, []>("down_blocks_1_attentions_0_transformer_blocks_1_attn1_to_out_0_bias_to_fp16"), val = tensor<fp16, [640]>(BLOBFILE(path = tensor<string, []>("@model_path/weights/weight.bin"), offset = tensor<uint64, []>(62718080)))];
            tensor<fp16, [2, 640, 1, 4096]> var_611_cast = conv(bias = down_blocks_1_attentions_0_transformer_blocks_1_attn1_to_out_0_bias_to_fp16, dilations = var_609, groups = var_282, pad = var_611_pad_0, pad_type = var_611_pad_type_0, strides = var_607, weight = down_blocks_1_attentions_0_transformer_blocks_1_attn1_to_out_0_weight_to_fp16, x = input_69_cast)[name = tensor<string, []>("op_611_cast")];
            tensor<fp16, [2, 640, 1, 4096]> inputs_9_cast = add(x = var_611_cast, y = inputs_7_cast)[name = tensor<string, []>("inputs_9_cast")];
            tensor<int32, [1]> var_615 = const()[name = tensor<string, []>("op_615"), val = tensor<int32, [1]>([1])];
            tensor<fp16, [2, 1, 1, 4096]> channels_mean_9_cast = reduce_mean(axes = var_615, keep_dims = var_277, x = inputs_9_cast)[name = tensor<string, []>("channels_mean_9_cast")];
            tensor<fp16, [2, 640, 1, 4096]> zero_mean_9_cast = sub(x = inputs_9_cast, y = channels_mean_9_cast)[name = tensor<string, []>("zero_mean_9_cast")];
            tensor<fp16, [2, 640, 1, 4096]> zero_mean_sq_9_cast = mul(x = zero_mean_9_cast, y = zero_mean_9_cast)[name = tensor<string, []>("zero_mean_sq_9_cast")];
            tensor<int32, [1]> var_619 = const()[name = tensor<string, []>("op_619"), val = tensor<int32, [1]>([1])];
            tensor<fp16, [2, 1, 1, 4096]> var_620_cast = reduce_mean(axes = var_619, keep_dims = var_277, x = zero_mean_sq_9_cast)[name = tensor<string, []>("op_620_cast")];
            tensor<fp16, []> var_621_to_fp16 = const()[name = tensor<string, []>("op_621_to_fp16"), val = tensor<fp16, []>(0x1.5p-17)];
            tensor<fp16, [2, 1, 1, 4096]> var_622_cast = add(x = var_620_cast, y = var_621_to_fp16)[name = tensor<string, []>("op_622_cast")];
            tensor<fp16, []> denom_9_epsilon_0_to_fp16 = const()[name = tensor<string, []>("denom_9_epsilon_0_to_fp16"), val = tensor<fp16, []>(0x1p-24)];
            tensor<fp16, [2, 1, 1, 4096]> denom_9_cast = rsqrt(epsilon = denom_9_epsilon_0_to_fp16, x = var_622_cast)[name = tensor<string, []>("denom_9_cast")];
            tensor<fp16, [2, 640, 1, 4096]> out_9_cast = mul(x = zero_mean_9_cast, y = denom_9_cast)[name = tensor<string, []>("out_9_cast")];
            tensor<fp16, [1, 640, 1, 1]> var_626_to_fp16 = const()[name = tensor<string, []>("op_626_to_fp16"), val = tensor<fp16, [1, 640, 1, 1]>(BLOBFILE(path = tensor<string, []>("@model_path/weights/weight.bin"), offset = tensor<uint64, []>(62719424)))];
            tensor<fp16, [2, 640, 1, 4096]> var_627_cast = add(x = out_9_cast, y = var_626_to_fp16)[name = tensor<string, []>("op_627_cast")];
            tensor<fp16, [1, 640, 1, 1]> var_629_to_fp16 = const()[name = tensor<string, []>("op_629_to_fp16"), val = tensor<fp16, [1, 640, 1, 1]>(BLOBFILE(path = tensor<string, []>("@model_path/weights/weight.bin"), offset = tensor<uint64, []>(62720768)))];
            tensor<fp16, [2, 640, 1, 4096]> hidden_states_25_cast = mul(x = var_627_cast, y = var_629_to_fp16)[name = tensor<string, []>("hidden_states_25_cast")];
            tensor<int32, [2]> var_636 = const()[name = tensor<string, []>("op_636"), val = tensor<int32, [2]>([1, 1])];
            tensor<int32, [2]> var_638 = const()[name = tensor<string, []>("op_638"), val = tensor<int32, [2]>([1, 1])];
            tensor<string, []> q_7_pad_type_0 = const()[name = tensor<string, []>("q_7_pad_type_0"), val = tensor<string, []>("custom")];
            tensor<int32, [4]> q_7_pad_0 = const()[name = tensor<string, []>("q_7_pad_0"), val = tensor<int32, [4]>([0, 0, 0, 0])];
            tensor<fp16, [640, 640, 1, 1]> down_blocks_1_attentions_0_transformer_blocks_1_attn2_to_q_weight_to_fp16 = const()[name = tensor<string, []>("down_blocks_1_attentions_0_transformer_blocks_1_attn2_to_q_weight_to_fp16"), val = tensor<fp16, [640, 640, 1, 1]>(BLOBFILE(path = tensor<string, []>("@model_path/weights/weight.bin"), offset = tensor<uint64, []>(62722112)))];
            tensor<fp16, [2, 640, 1, 4096]> q_7_cast = conv(dilations = var_638, groups = var_282, pad = q_7_pad_0, pad_type = q_7_pad_type_0, strides = var_636, weight = down_blocks_1_attentions_0_transformer_blocks_1_attn2_to_q_weight_to_fp16, x = hidden_states_25_cast)[name = tensor<string, []>("q_7_cast")];
            tensor<int32, [2]> var_642 = const()[name = tensor<string, []>("op_642"), val = tensor<int32, [2]>([1, 1])];
            tensor<int32, [2]> var_644 = const()[name = tensor<string, []>("op_644"), val = tensor<int32, [2]>([1, 1])];
            tensor<string, []> k_7_pad_type_0 = const()[name = tensor<string, []>("k_7_pad_type_0"), val = tensor<string, []>("custom")];
            tensor<int32, [4]> k_7_pad_0 = const()[name = tensor<string, []>("k_7_pad_0"), val = tensor<int32, [4]>([0, 0, 0, 0])];
            tensor<fp16, [640, 2048, 1, 1]> down_blocks_1_attentions_0_transformer_blocks_1_attn2_to_k_weight_to_fp16 = const()[name = tensor<string, []>("down_blocks_1_attentions_0_transformer_blocks_1_attn2_to_k_weight_to_fp16"), val = tensor<fp16, [640, 2048, 1, 1]>(BLOBFILE(path = tensor<string, []>("@model_path/weights/weight.bin"), offset = tensor<uint64, []>(63541376)))];
            tensor<fp16, [2, 640, 1, 77]> k_7_cast = conv(dilations = var_644, groups = var_282, pad = k_7_pad_0, pad_type = k_7_pad_type_0, strides = var_642, weight = down_blocks_1_attentions_0_transformer_blocks_1_attn2_to_k_weight_to_fp16, x = encoder_hidden_states)[name = tensor<string, []>("k_7_cast")];
            tensor<int32, [2]> var_648 = const()[name = tensor<string, []>("op_648"), val = tensor<int32, [2]>([1, 1])];
            tensor<int32, [2]> var_650 = const()[name = tensor<string, []>("op_650"), val = tensor<int32, [2]>([1, 1])];
            tensor<string, []> v_7_pad_type_0 = const()[name = tensor<string, []>("v_7_pad_type_0"), val = tensor<string, []>("custom")];
            tensor<int32, [4]> v_7_pad_0 = const()[name = tensor<string, []>("v_7_pad_0"), val = tensor<int32, [4]>([0, 0, 0, 0])];
            tensor<fp16, [640, 2048, 1, 1]> down_blocks_1_attentions_0_transformer_blocks_1_attn2_to_v_weight_to_fp16 = const()[name = tensor<string, []>("down_blocks_1_attentions_0_transformer_blocks_1_attn2_to_v_weight_to_fp16"), val = tensor<fp16, [640, 2048, 1, 1]>(BLOBFILE(path = tensor<string, []>("@model_path/weights/weight.bin"), offset = tensor<uint64, []>(66162880)))];
            tensor<fp16, [2, 640, 1, 77]> v_7_cast = conv(dilations = var_650, groups = var_282, pad = v_7_pad_0, pad_type = v_7_pad_type_0, strides = var_648, weight = down_blocks_1_attentions_0_transformer_blocks_1_attn2_to_v_weight_to_fp16, x = encoder_hidden_states)[name = tensor<string, []>("v_7_cast")];
            tensor<int32, [4]> var_654 = const()[name = tensor<string, []>("op_654"), val = tensor<int32, [4]>([2, 10, 64, -1])];
            tensor<fp16, [2, 10, 64, 4096]> var_655_cast = reshape(shape = var_654, x = q_7_cast)[name = tensor<string, []>("op_655_cast")];
            tensor<int32, [4]> var_656 = const()[name = tensor<string, []>("op_656"), val = tensor<int32, [4]>([2, 10, 64, -1])];
            tensor<fp16, [2, 10, 64, 77]> var_657_cast = reshape(shape = var_656, x = k_7_cast)[name = tensor<string, []>("op_657_cast")];
            tensor<int32, [4]> var_658 = const()[name = tensor<string, []>("op_658"), val = tensor<int32, [4]>([2, 10, 64, -1])];
            tensor<fp16, [2, 10, 64, 77]> var_659_cast = reshape(shape = var_658, x = v_7_cast)[name = tensor<string, []>("op_659_cast")];
            tensor<bool, []> attn_weights_13_transpose_x_0 = const()[name = tensor<string, []>("attn_weights_13_transpose_x_0"), val = tensor<bool, []>(true)];
            tensor<bool, []> attn_weights_13_transpose_y_0 = const()[name = tensor<string, []>("attn_weights_13_transpose_y_0"), val = tensor<bool, []>(false)];
            tensor<fp16, [2, 10, 4096, 77]> attn_weights_13_cast = matmul(transpose_x = attn_weights_13_transpose_x_0, transpose_y = attn_weights_13_transpose_y_0, x = var_655_cast, y = var_657_cast)[name = tensor<string, []>("attn_weights_13_cast")];
            tensor<fp16, [2, 10, 4096, 77]> attn_weights_15_cast = mul(x = attn_weights_13_cast, y = var_273_to_fp16)[name = tensor<string, []>("attn_weights_15_cast")];
            tensor<fp16, [2, 10, 4096, 77]> var_663_cast = softmax(axis = var_266, x = attn_weights_15_cast)[name = tensor<string, []>("op_663_cast")];
            tensor<bool, []> attn_7_transpose_x_0 = const()[name = tensor<string, []>("attn_7_transpose_x_0"), val = tensor<bool, []>(false)];
            tensor<bool, []> attn_7_transpose_y_0 = const()[name = tensor<string, []>("attn_7_transpose_y_0"), val = tensor<bool, []>(true)];
            tensor<fp16, [2, 10, 64, 4096]> attn_7_cast = matmul(transpose_x = attn_7_transpose_x_0, transpose_y = attn_7_transpose_y_0, x = var_659_cast, y = var_663_cast)[name = tensor<string, []>("attn_7_cast")];
            tensor<int32, [4]> var_667 = const()[name = tensor<string, []>("op_667"), val = tensor<int32, [4]>([2, 640, 1, -1])];
            tensor<fp16, [2, 640, 1, 4096]> input_71_cast = reshape(shape = var_667, x = attn_7_cast)[name = tensor<string, []>("input_71_cast")];
            tensor<int32, [2]> var_672 = const()[name = tensor<string, []>("op_672"), val = tensor<int32, [2]>([1, 1])];
            tensor<int32, [2]> var_674 = const()[name = tensor<string, []>("op_674"), val = tensor<int32, [2]>([1, 1])];
            tensor<string, []> var_676_pad_type_0 = const()[name = tensor<string, []>("op_676_pad_type_0"), val = tensor<string, []>("custom")];
            tensor<int32, [4]> var_676_pad_0 = const()[name = tensor<string, []>("op_676_pad_0"), val = tensor<int32, [4]>([0, 0, 0, 0])];
            tensor<fp16, [640, 640, 1, 1]> down_blocks_1_attentions_0_transformer_blocks_1_attn2_to_out_0_weight_to_fp16 = const()[name = tensor<string, []>("down_blocks_1_attentions_0_transformer_blocks_1_attn2_to_out_0_weight_to_fp16"), val = tensor<fp16, [640, 640, 1, 1]>(BLOBFILE(path = tensor<string, []>("@model_path/weights/weight.bin"), offset = tensor<uint64, []>(68784384)))];
            tensor<fp16, [640]> down_blocks_1_attentions_0_transformer_blocks_1_attn2_to_out_0_bias_to_fp16 = const()[name = tensor<string, []>("down_blocks_1_attentions_0_transformer_blocks_1_attn2_to_out_0_bias_to_fp16"), val = tensor<fp16, [640]>(BLOBFILE(path = tensor<string, []>("@model_path/weights/weight.bin"), offset = tensor<uint64, []>(69603648)))];
            tensor<fp16, [2, 640, 1, 4096]> var_676_cast = conv(bias = down_blocks_1_attentions_0_transformer_blocks_1_attn2_to_out_0_bias_to_fp16, dilations = var_674, groups = var_282, pad = var_676_pad_0, pad_type = var_676_pad_type_0, strides = var_672, weight = down_blocks_1_attentions_0_transformer_blocks_1_attn2_to_out_0_weight_to_fp16, x = input_71_cast)[name = tensor<string, []>("op_676_cast")];
            tensor<fp16, [2, 640, 1, 4096]> inputs_11_cast = add(x = var_676_cast, y = inputs_9_cast)[name = tensor<string, []>("inputs_11_cast")];
            tensor<int32, [1]> var_680 = const()[name = tensor<string, []>("op_680"), val = tensor<int32, [1]>([1])];
            tensor<fp16, [2, 1, 1, 4096]> channels_mean_11_cast = reduce_mean(axes = var_680, keep_dims = var_277, x = inputs_11_cast)[name = tensor<string, []>("channels_mean_11_cast")];
            tensor<fp16, [2, 640, 1, 4096]> zero_mean_11_cast = sub(x = inputs_11_cast, y = channels_mean_11_cast)[name = tensor<string, []>("zero_mean_11_cast")];
            tensor<fp16, [2, 640, 1, 4096]> zero_mean_sq_11_cast = mul(x = zero_mean_11_cast, y = zero_mean_11_cast)[name = tensor<string, []>("zero_mean_sq_11_cast")];
            tensor<int32, [1]> var_684 = const()[name = tensor<string, []>("op_684"), val = tensor<int32, [1]>([1])];
            tensor<fp16, [2, 1, 1, 4096]> var_685_cast = reduce_mean(axes = var_684, keep_dims = var_277, x = zero_mean_sq_11_cast)[name = tensor<string, []>("op_685_cast")];
            tensor<fp16, []> var_686_to_fp16 = const()[name = tensor<string, []>("op_686_to_fp16"), val = tensor<fp16, []>(0x1.5p-17)];
            tensor<fp16, [2, 1, 1, 4096]> var_687_cast = add(x = var_685_cast, y = var_686_to_fp16)[name = tensor<string, []>("op_687_cast")];
            tensor<fp16, []> denom_11_epsilon_0_to_fp16 = const()[name = tensor<string, []>("denom_11_epsilon_0_to_fp16"), val = tensor<fp16, []>(0x1p-24)];
            tensor<fp16, [2, 1, 1, 4096]> denom_11_cast = rsqrt(epsilon = denom_11_epsilon_0_to_fp16, x = var_687_cast)[name = tensor<string, []>("denom_11_cast")];
            tensor<fp16, [2, 640, 1, 4096]> out_11_cast = mul(x = zero_mean_11_cast, y = denom_11_cast)[name = tensor<string, []>("out_11_cast")];
            tensor<fp16, [1, 640, 1, 1]> var_691_to_fp16 = const()[name = tensor<string, []>("op_691_to_fp16"), val = tensor<fp16, [1, 640, 1, 1]>(BLOBFILE(path = tensor<string, []>("@model_path/weights/weight.bin"), offset = tensor<uint64, []>(69604992)))];
            tensor<fp16, [2, 640, 1, 4096]> var_692_cast = add(x = out_11_cast, y = var_691_to_fp16)[name = tensor<string, []>("op_692_cast")];
            tensor<fp16, [1, 640, 1, 1]> var_694_to_fp16 = const()[name = tensor<string, []>("op_694_to_fp16"), val = tensor<fp16, [1, 640, 1, 1]>(BLOBFILE(path = tensor<string, []>("@model_path/weights/weight.bin"), offset = tensor<uint64, []>(69606336)))];
            tensor<fp16, [2, 640, 1, 4096]> input_73_cast = mul(x = var_692_cast, y = var_694_to_fp16)[name = tensor<string, []>("input_73_cast")];
            tensor<int32, [2]> var_702 = const()[name = tensor<string, []>("op_702"), val = tensor<int32, [2]>([1, 1])];
            tensor<int32, [2]> var_704 = const()[name = tensor<string, []>("op_704"), val = tensor<int32, [2]>([1, 1])];
            tensor<string, []> var_706_pad_type_0 = const()[name = tensor<string, []>("op_706_pad_type_0"), val = tensor<string, []>("custom")];
            tensor<int32, [4]> var_706_pad_0 = const()[name = tensor<string, []>("op_706_pad_0"), val = tensor<int32, [4]>([0, 0, 0, 0])];
            tensor<fp16, [5120, 640, 1, 1]> down_blocks_1_attentions_0_transformer_blocks_1_ff_net_0_proj_weight_to_fp16 = const()[name = tensor<string, []>("down_blocks_1_attentions_0_transformer_blocks_1_ff_net_0_proj_weight_to_fp16"), val = tensor<fp16, [5120, 640, 1, 1]>(BLOBFILE(path = tensor<string, []>("@model_path/weights/weight.bin"), offset = tensor<uint64, []>(69607680)))];
            tensor<fp16, [5120]> down_blocks_1_attentions_0_transformer_blocks_1_ff_net_0_proj_bias_to_fp16 = const()[name = tensor<string, []>("down_blocks_1_attentions_0_transformer_blocks_1_ff_net_0_proj_bias_to_fp16"), val = tensor<fp16, [5120]>(BLOBFILE(path = tensor<string, []>("@model_path/weights/weight.bin"), offset = tensor<uint64, []>(76161344)))];
            tensor<fp16, [2, 5120, 1, 4096]> var_706_cast = conv(bias = down_blocks_1_attentions_0_transformer_blocks_1_ff_net_0_proj_bias_to_fp16, dilations = var_704, groups = var_282, pad = var_706_pad_0, pad_type = var_706_pad_type_0, strides = var_702, weight = down_blocks_1_attentions_0_transformer_blocks_1_ff_net_0_proj_weight_to_fp16, x = input_73_cast)[name = tensor<string, []>("op_706_cast")];
            tensor<int32, [2]> var_707_split_sizes_0 = const()[name = tensor<string, []>("op_707_split_sizes_0"), val = tensor<int32, [2]>([2560, 2560])];
            tensor<int32, []> var_707_axis_0 = const()[name = tensor<string, []>("op_707_axis_0"), val = tensor<int32, []>(1)];
            tensor<fp16, [2, 2560, 1, 4096]> var_707_cast_0, tensor<fp16, [2, 2560, 1, 4096]> var_707_cast_1 = split(axis = var_707_axis_0, split_sizes = var_707_split_sizes_0, x = var_706_cast)[name = tensor<string, []>("op_707_cast")];
            tensor<string, []> var_709_mode_0 = const()[name = tensor<string, []>("op_709_mode_0"), val = tensor<string, []>("EXACT")];
            tensor<fp16, [2, 2560, 1, 4096]> var_709_cast = gelu(mode = var_709_mode_0, x = var_707_cast_1)[name = tensor<string, []>("op_709_cast")];
            tensor<fp16, [2, 2560, 1, 4096]> input_75_cast = mul(x = var_707_cast_0, y = var_709_cast)[name = tensor<string, []>("input_75_cast")];
            tensor<int32, [2]> var_713 = const()[name = tensor<string, []>("op_713"), val = tensor<int32, [2]>([1, 1])];
            tensor<int32, [2]> var_715 = const()[name = tensor<string, []>("op_715"), val = tensor<int32, [2]>([1, 1])];
            tensor<string, []> var_717_pad_type_0 = const()[name = tensor<string, []>("op_717_pad_type_0"), val = tensor<string, []>("custom")];
            tensor<int32, [4]> var_717_pad_0 = const()[name = tensor<string, []>("op_717_pad_0"), val = tensor<int32, [4]>([0, 0, 0, 0])];
            tensor<fp16, [640, 2560, 1, 1]> down_blocks_1_attentions_0_transformer_blocks_1_ff_net_2_weight_to_fp16 = const()[name = tensor<string, []>("down_blocks_1_attentions_0_transformer_blocks_1_ff_net_2_weight_to_fp16"), val = tensor<fp16, [640, 2560, 1, 1]>(BLOBFILE(path = tensor<string, []>("@model_path/weights/weight.bin"), offset = tensor<uint64, []>(76171648)))];
            tensor<fp16, [640]> down_blocks_1_attentions_0_transformer_blocks_1_ff_net_2_bias_to_fp16 = const()[name = tensor<string, []>("down_blocks_1_attentions_0_transformer_blocks_1_ff_net_2_bias_to_fp16"), val = tensor<fp16, [640]>(BLOBFILE(path = tensor<string, []>("@model_path/weights/weight.bin"), offset = tensor<uint64, []>(79448512)))];
            tensor<fp16, [2, 640, 1, 4096]> var_717_cast = conv(bias = down_blocks_1_attentions_0_transformer_blocks_1_ff_net_2_bias_to_fp16, dilations = var_715, groups = var_282, pad = var_717_pad_0, pad_type = var_717_pad_type_0, strides = var_713, weight = down_blocks_1_attentions_0_transformer_blocks_1_ff_net_2_weight_to_fp16, x = input_75_cast)[name = tensor<string, []>("op_717_cast")];
            tensor<fp16, [2, 640, 1, 4096]> hidden_states_29_cast = add(x = var_717_cast, y = inputs_11_cast)[name = tensor<string, []>("hidden_states_29_cast")];
            tensor<int32, [4]> var_719 = const()[name = tensor<string, []>("op_719"), val = tensor<int32, [4]>([2, 640, 64, 64])];
            tensor<fp16, [2, 640, 64, 64]> input_77_cast = reshape(shape = var_719, x = hidden_states_29_cast)[name = tensor<string, []>("input_77_cast")];
            tensor<int32, [2]> var_723 = const()[name = tensor<string, []>("op_723"), val = tensor<int32, [2]>([1, 1])];
            tensor<int32, [2]> var_725 = const()[name = tensor<string, []>("op_725"), val = tensor<int32, [2]>([1, 1])];
            tensor<string, []> hidden_states_31_pad_type_0 = const()[name = tensor<string, []>("hidden_states_31_pad_type_0"), val = tensor<string, []>("custom")];
            tensor<int32, [4]> hidden_states_31_pad_0 = const()[name = tensor<string, []>("hidden_states_31_pad_0"), val = tensor<int32, [4]>([0, 0, 0, 0])];
            tensor<fp16, [640, 640, 1, 1]> down_blocks_1_attentions_0_proj_out_weight_to_fp16 = const()[name = tensor<string, []>("down_blocks_1_attentions_0_proj_out_weight_to_fp16"), val = tensor<fp16, [640, 640, 1, 1]>(BLOBFILE(path = tensor<string, []>("@model_path/weights/weight.bin"), offset = tensor<uint64, []>(79449856)))];
            tensor<fp16, [640]> down_blocks_1_attentions_0_proj_out_bias_to_fp16 = const()[name = tensor<string, []>("down_blocks_1_attentions_0_proj_out_bias_to_fp16"), val = tensor<fp16, [640]>(BLOBFILE(path = tensor<string, []>("@model_path/weights/weight.bin"), offset = tensor<uint64, []>(80269120)))];
            tensor<fp16, [2, 640, 64, 64]> hidden_states_31_cast = conv(bias = down_blocks_1_attentions_0_proj_out_bias_to_fp16, dilations = var_725, groups = var_282, pad = hidden_states_31_pad_0, pad_type = hidden_states_31_pad_type_0, strides = var_723, weight = down_blocks_1_attentions_0_proj_out_weight_to_fp16, x = input_77_cast)[name = tensor<string, []>("hidden_states_31_cast")];
            tensor<fp16, [2, 640, 64, 64]> input_79_cast = add(x = hidden_states_31_cast, y = hidden_states_13_cast)[name = tensor<string, []>("input_79_cast")];
            tensor<int32, [5]> reshape_28_shape_0 = const()[name = tensor<string, []>("reshape_28_shape_0"), val = tensor<int32, [5]>([2, 32, 20, 64, 64])];
            tensor<fp16, [2, 32, 20, 64, 64]> reshape_28_cast = reshape(shape = reshape_28_shape_0, x = input_79_cast)[name = tensor<string, []>("reshape_28_cast")];
            tensor<int32, [3]> reduce_mean_21_axes_0 = const()[name = tensor<string, []>("reduce_mean_21_axes_0"), val = tensor<int32, [3]>([2, 3, 4])];
            tensor<bool, []> reduce_mean_21_keep_dims_0 = const()[name = tensor<string, []>("reduce_mean_21_keep_dims_0"), val = tensor<bool, []>(true)];
            tensor<fp16, [2, 32, 1, 1, 1]> reduce_mean_21_cast = reduce_mean(axes = reduce_mean_21_axes_0, keep_dims = reduce_mean_21_keep_dims_0, x = reshape_28_cast)[name = tensor<string, []>("reduce_mean_21_cast")];
            tensor<fp16, [2, 32, 20, 64, 64]> sub_14_cast = sub(x = reshape_28_cast, y = reduce_mean_21_cast)[name = tensor<string, []>("sub_14_cast")];
            tensor<fp16, [2, 32, 20, 64, 64]> square_7_cast = square(x = sub_14_cast)[name = tensor<string, []>("square_7_cast")];
            tensor<int32, [3]> reduce_mean_23_axes_0 = const()[name = tensor<string, []>("reduce_mean_23_axes_0"), val = tensor<int32, [3]>([2, 3, 4])];
            tensor<bool, []> reduce_mean_23_keep_dims_0 = const()[name = tensor<string, []>("reduce_mean_23_keep_dims_0"), val = tensor<bool, []>(true)];
            tensor<fp16, [2, 32, 1, 1, 1]> reduce_mean_23_cast = reduce_mean(axes = reduce_mean_23_axes_0, keep_dims = reduce_mean_23_keep_dims_0, x = square_7_cast)[name = tensor<string, []>("reduce_mean_23_cast")];
            tensor<fp16, []> add_14_y_0_to_fp16 = const()[name = tensor<string, []>("add_14_y_0_to_fp16"), val = tensor<fp16, []>(0x1.5p-17)];
            tensor<fp16, [2, 32, 1, 1, 1]> add_14_cast = add(x = reduce_mean_23_cast, y = add_14_y_0_to_fp16)[name = tensor<string, []>("add_14_cast")];
            tensor<fp16, [2, 32, 1, 1, 1]> sqrt_7_cast = sqrt(x = add_14_cast)[name = tensor<string, []>("sqrt_7_cast")];
            tensor<fp16, [2, 32, 20, 64, 64]> real_div_7_cast = real_div(x = sub_14_cast, y = sqrt_7_cast)[name = tensor<string, []>("real_div_7_cast")];
            tensor<int32, [4]> reshape_29_shape_0 = const()[name = tensor<string, []>("reshape_29_shape_0"), val = tensor<int32, [4]>([2, 640, 64, 64])];
            tensor<fp16, [2, 640, 64, 64]> reshape_29_cast = reshape(shape = reshape_29_shape_0, x = real_div_7_cast)[name = tensor<string, []>("reshape_29_cast")];
            tensor<fp16, [640]> add_15_gamma_0_to_fp16 = const()[name = tensor<string, []>("add_15_gamma_0_to_fp16"), val = tensor<fp16, [640]>(BLOBFILE(path = tensor<string, []>("@model_path/weights/weight.bin"), offset = tensor<uint64, []>(80270464)))];
            tensor<fp16, [640]> add_15_beta_0_to_fp16 = const()[name = tensor<string, []>("add_15_beta_0_to_fp16"), val = tensor<fp16, [640]>(BLOBFILE(path = tensor<string, []>("@model_path/weights/weight.bin"), offset = tensor<uint64, []>(80271808)))];
            tensor<fp16, []> add_15_epsilon_0_to_fp16 = const()[name = tensor<string, []>("add_15_epsilon_0_to_fp16"), val = tensor<fp16, []>(0x1.5p-17)];
            tensor<fp16, [2, 640, 64, 64]> add_15_cast = batch_norm(beta = add_15_beta_0_to_fp16, epsilon = add_15_epsilon_0_to_fp16, gamma = add_15_gamma_0_to_fp16, mean = add_11_mean_0_to_fp16, variance = add_11_variance_0_to_fp16, x = reshape_29_cast)[name = tensor<string, []>("add_15_cast")];
            tensor<fp16, [2, 640, 64, 64]> input_83_cast = silu(x = add_15_cast)[name = tensor<string, []>("input_83_cast")];
            tensor<int32, [2]> var_740 = const()[name = tensor<string, []>("op_740"), val = tensor<int32, [2]>([1, 1])];
            tensor<int32, [2]> var_742 = const()[name = tensor<string, []>("op_742"), val = tensor<int32, [2]>([1, 1])];
            tensor<string, []> hidden_states_33_pad_type_0 = const()[name = tensor<string, []>("hidden_states_33_pad_type_0"), val = tensor<string, []>("custom")];
            tensor<int32, [4]> hidden_states_33_pad_0 = const()[name = tensor<string, []>("hidden_states_33_pad_0"), val = tensor<int32, [4]>([1, 1, 1, 1])];
            tensor<fp16, [640, 640, 3, 3]> down_blocks_1_resnets_1_conv1_weight_to_fp16 = const()[name = tensor<string, []>("down_blocks_1_resnets_1_conv1_weight_to_fp16"), val = tensor<fp16, [640, 640, 3, 3]>(BLOBFILE(path = tensor<string, []>("@model_path/weights/weight.bin"), offset = tensor<uint64, []>(80273152)))];
            tensor<fp16, [640]> down_blocks_1_resnets_1_conv1_bias_to_fp16 = const()[name = tensor<string, []>("down_blocks_1_resnets_1_conv1_bias_to_fp16"), val = tensor<fp16, [640]>(BLOBFILE(path = tensor<string, []>("@model_path/weights/weight.bin"), offset = tensor<uint64, []>(87646016)))];
            tensor<fp16, [2, 640, 64, 64]> hidden_states_33_cast = conv(bias = down_blocks_1_resnets_1_conv1_bias_to_fp16, dilations = var_742, groups = var_282, pad = hidden_states_33_pad_0, pad_type = hidden_states_33_pad_type_0, strides = var_740, weight = down_blocks_1_resnets_1_conv1_weight_to_fp16, x = input_83_cast)[name = tensor<string, []>("hidden_states_33_cast")];
            tensor<int32, [2]> var_748 = const()[name = tensor<string, []>("op_748"), val = tensor<int32, [2]>([1, 1])];
            tensor<int32, [2]> var_750 = const()[name = tensor<string, []>("op_750"), val = tensor<int32, [2]>([1, 1])];
            tensor<string, []> temb_7_pad_type_0 = const()[name = tensor<string, []>("temb_7_pad_type_0"), val = tensor<string, []>("custom")];
            tensor<int32, [4]> temb_7_pad_0 = const()[name = tensor<string, []>("temb_7_pad_0"), val = tensor<int32, [4]>([0, 0, 0, 0])];
            tensor<fp16, [640, 1280, 1, 1]> down_blocks_1_resnets_1_time_emb_proj_weight_to_fp16 = const()[name = tensor<string, []>("down_blocks_1_resnets_1_time_emb_proj_weight_to_fp16"), val = tensor<fp16, [640, 1280, 1, 1]>(BLOBFILE(path = tensor<string, []>("@model_path/weights/weight.bin"), offset = tensor<uint64, []>(87647360)))];
            tensor<fp16, [640]> down_blocks_1_resnets_1_time_emb_proj_bias_to_fp16 = const()[name = tensor<string, []>("down_blocks_1_resnets_1_time_emb_proj_bias_to_fp16"), val = tensor<fp16, [640]>(BLOBFILE(path = tensor<string, []>("@model_path/weights/weight.bin"), offset = tensor<uint64, []>(89285824)))];
            tensor<fp16, [2, 640, 1, 1]> temb_7_cast = conv(bias = down_blocks_1_resnets_1_time_emb_proj_bias_to_fp16, dilations = var_750, groups = var_282, pad = temb_7_pad_0, pad_type = temb_7_pad_type_0, strides = var_748, weight = down_blocks_1_resnets_1_time_emb_proj_weight_to_fp16, x = input_21_cast)[name = tensor<string, []>("temb_7_cast")];
            tensor<fp16, [2, 640, 64, 64]> input_87_cast = add(x = hidden_states_33_cast, y = temb_7_cast)[name = tensor<string, []>("input_87_cast")];
            tensor<int32, [5]> reshape_32_shape_0 = const()[name = tensor<string, []>("reshape_32_shape_0"), val = tensor<int32, [5]>([2, 32, 20, 64, 64])];
            tensor<fp16, [2, 32, 20, 64, 64]> reshape_32_cast = reshape(shape = reshape_32_shape_0, x = input_87_cast)[name = tensor<string, []>("reshape_32_cast")];
            tensor<int32, [3]> reduce_mean_24_axes_0 = const()[name = tensor<string, []>("reduce_mean_24_axes_0"), val = tensor<int32, [3]>([2, 3, 4])];
            tensor<bool, []> reduce_mean_24_keep_dims_0 = const()[name = tensor<string, []>("reduce_mean_24_keep_dims_0"), val = tensor<bool, []>(true)];
            tensor<fp16, [2, 32, 1, 1, 1]> reduce_mean_24_cast = reduce_mean(axes = reduce_mean_24_axes_0, keep_dims = reduce_mean_24_keep_dims_0, x = reshape_32_cast)[name = tensor<string, []>("reduce_mean_24_cast")];
            tensor<fp16, [2, 32, 20, 64, 64]> sub_16_cast = sub(x = reshape_32_cast, y = reduce_mean_24_cast)[name = tensor<string, []>("sub_16_cast")];
            tensor<fp16, [2, 32, 20, 64, 64]> square_8_cast = square(x = sub_16_cast)[name = tensor<string, []>("square_8_cast")];
            tensor<int32, [3]> reduce_mean_26_axes_0 = const()[name = tensor<string, []>("reduce_mean_26_axes_0"), val = tensor<int32, [3]>([2, 3, 4])];
            tensor<bool, []> reduce_mean_26_keep_dims_0 = const()[name = tensor<string, []>("reduce_mean_26_keep_dims_0"), val = tensor<bool, []>(true)];
            tensor<fp16, [2, 32, 1, 1, 1]> reduce_mean_26_cast = reduce_mean(axes = reduce_mean_26_axes_0, keep_dims = reduce_mean_26_keep_dims_0, x = square_8_cast)[name = tensor<string, []>("reduce_mean_26_cast")];
            tensor<fp16, []> add_16_y_0_to_fp16 = const()[name = tensor<string, []>("add_16_y_0_to_fp16"), val = tensor<fp16, []>(0x1.5p-17)];
            tensor<fp16, [2, 32, 1, 1, 1]> add_16_cast = add(x = reduce_mean_26_cast, y = add_16_y_0_to_fp16)[name = tensor<string, []>("add_16_cast")];
            tensor<fp16, [2, 32, 1, 1, 1]> sqrt_8_cast = sqrt(x = add_16_cast)[name = tensor<string, []>("sqrt_8_cast")];
            tensor<fp16, [2, 32, 20, 64, 64]> real_div_8_cast = real_div(x = sub_16_cast, y = sqrt_8_cast)[name = tensor<string, []>("real_div_8_cast")];
            tensor<int32, [4]> reshape_33_shape_0 = const()[name = tensor<string, []>("reshape_33_shape_0"), val = tensor<int32, [4]>([2, 640, 64, 64])];
            tensor<fp16, [2, 640, 64, 64]> reshape_33_cast = reshape(shape = reshape_33_shape_0, x = real_div_8_cast)[name = tensor<string, []>("reshape_33_cast")];
            tensor<fp16, [640]> add_17_gamma_0_to_fp16 = const()[name = tensor<string, []>("add_17_gamma_0_to_fp16"), val = tensor<fp16, [640]>(BLOBFILE(path = tensor<string, []>("@model_path/weights/weight.bin"), offset = tensor<uint64, []>(89287168)))];
            tensor<fp16, [640]> add_17_beta_0_to_fp16 = const()[name = tensor<string, []>("add_17_beta_0_to_fp16"), val = tensor<fp16, [640]>(BLOBFILE(path = tensor<string, []>("@model_path/weights/weight.bin"), offset = tensor<uint64, []>(89288512)))];
            tensor<fp16, []> add_17_epsilon_0_to_fp16 = const()[name = tensor<string, []>("add_17_epsilon_0_to_fp16"), val = tensor<fp16, []>(0x1.5p-17)];
            tensor<fp16, [2, 640, 64, 64]> add_17_cast = batch_norm(beta = add_17_beta_0_to_fp16, epsilon = add_17_epsilon_0_to_fp16, gamma = add_17_gamma_0_to_fp16, mean = add_11_mean_0_to_fp16, variance = add_11_variance_0_to_fp16, x = reshape_33_cast)[name = tensor<string, []>("add_17_cast")];
            tensor<fp16, [2, 640, 64, 64]> input_91_cast = silu(x = add_17_cast)[name = tensor<string, []>("input_91_cast")];
            tensor<int32, [2]> var_760 = const()[name = tensor<string, []>("op_760"), val = tensor<int32, [2]>([1, 1])];
            tensor<int32, [2]> var_762 = const()[name = tensor<string, []>("op_762"), val = tensor<int32, [2]>([1, 1])];
            tensor<string, []> hidden_states_35_pad_type_0 = const()[name = tensor<string, []>("hidden_states_35_pad_type_0"), val = tensor<string, []>("custom")];
            tensor<int32, [4]> hidden_states_35_pad_0 = const()[name = tensor<string, []>("hidden_states_35_pad_0"), val = tensor<int32, [4]>([1, 1, 1, 1])];
            tensor<fp16, [640, 640, 3, 3]> down_blocks_1_resnets_1_conv2_weight_to_fp16 = const()[name = tensor<string, []>("down_blocks_1_resnets_1_conv2_weight_to_fp16"), val = tensor<fp16, [640, 640, 3, 3]>(BLOBFILE(path = tensor<string, []>("@model_path/weights/weight.bin"), offset = tensor<uint64, []>(89289856)))];
            tensor<fp16, [640]> down_blocks_1_resnets_1_conv2_bias_to_fp16 = const()[name = tensor<string, []>("down_blocks_1_resnets_1_conv2_bias_to_fp16"), val = tensor<fp16, [640]>(BLOBFILE(path = tensor<string, []>("@model_path/weights/weight.bin"), offset = tensor<uint64, []>(96662720)))];
            tensor<fp16, [2, 640, 64, 64]> hidden_states_35_cast = conv(bias = down_blocks_1_resnets_1_conv2_bias_to_fp16, dilations = var_762, groups = var_282, pad = hidden_states_35_pad_0, pad_type = hidden_states_35_pad_type_0, strides = var_760, weight = down_blocks_1_resnets_1_conv2_weight_to_fp16, x = input_91_cast)[name = tensor<string, []>("hidden_states_35_cast")];
            tensor<fp16, [2, 640, 64, 64]> hidden_states_37_cast = add(x = input_79_cast, y = hidden_states_35_cast)[name = tensor<string, []>("hidden_states_37_cast")];
            tensor<int32, [5]> reshape_36_shape_0 = const()[name = tensor<string, []>("reshape_36_shape_0"), val = tensor<int32, [5]>([2, 32, 20, 64, 64])];
            tensor<fp16, [2, 32, 20, 64, 64]> reshape_36_cast = reshape(shape = reshape_36_shape_0, x = hidden_states_37_cast)[name = tensor<string, []>("reshape_36_cast")];
            tensor<int32, [3]> reduce_mean_27_axes_0 = const()[name = tensor<string, []>("reduce_mean_27_axes_0"), val = tensor<int32, [3]>([2, 3, 4])];
            tensor<bool, []> reduce_mean_27_keep_dims_0 = const()[name = tensor<string, []>("reduce_mean_27_keep_dims_0"), val = tensor<bool, []>(true)];
            tensor<fp16, [2, 32, 1, 1, 1]> reduce_mean_27_cast = reduce_mean(axes = reduce_mean_27_axes_0, keep_dims = reduce_mean_27_keep_dims_0, x = reshape_36_cast)[name = tensor<string, []>("reduce_mean_27_cast")];
            tensor<fp16, [2, 32, 20, 64, 64]> sub_18_cast = sub(x = reshape_36_cast, y = reduce_mean_27_cast)[name = tensor<string, []>("sub_18_cast")];
            tensor<fp16, [2, 32, 20, 64, 64]> square_9_cast = square(x = sub_18_cast)[name = tensor<string, []>("square_9_cast")];
            tensor<int32, [3]> reduce_mean_29_axes_0 = const()[name = tensor<string, []>("reduce_mean_29_axes_0"), val = tensor<int32, [3]>([2, 3, 4])];
            tensor<bool, []> reduce_mean_29_keep_dims_0 = const()[name = tensor<string, []>("reduce_mean_29_keep_dims_0"), val = tensor<bool, []>(true)];
            tensor<fp16, [2, 32, 1, 1, 1]> reduce_mean_29_cast = reduce_mean(axes = reduce_mean_29_axes_0, keep_dims = reduce_mean_29_keep_dims_0, x = square_9_cast)[name = tensor<string, []>("reduce_mean_29_cast")];
            tensor<fp16, []> add_18_y_0_to_fp16 = const()[name = tensor<string, []>("add_18_y_0_to_fp16"), val = tensor<fp16, []>(0x1.1p-20)];
            tensor<fp16, [2, 32, 1, 1, 1]> add_18_cast = add(x = reduce_mean_29_cast, y = add_18_y_0_to_fp16)[name = tensor<string, []>("add_18_cast")];
            tensor<fp16, [2, 32, 1, 1, 1]> sqrt_9_cast = sqrt(x = add_18_cast)[name = tensor<string, []>("sqrt_9_cast")];
            tensor<fp16, [2, 32, 20, 64, 64]> real_div_9_cast = real_div(x = sub_18_cast, y = sqrt_9_cast)[name = tensor<string, []>("real_div_9_cast")];
            tensor<int32, [4]> reshape_37_shape_0 = const()[name = tensor<string, []>("reshape_37_shape_0"), val = tensor<int32, [4]>([2, 640, 64, 64])];
            tensor<fp16, [2, 640, 64, 64]> reshape_37_cast = reshape(shape = reshape_37_shape_0, x = real_div_9_cast)[name = tensor<string, []>("reshape_37_cast")];
            tensor<fp16, [640]> add_19_gamma_0_to_fp16 = const()[name = tensor<string, []>("add_19_gamma_0_to_fp16"), val = tensor<fp16, [640]>(BLOBFILE(path = tensor<string, []>("@model_path/weights/weight.bin"), offset = tensor<uint64, []>(96664064)))];
            tensor<fp16, [640]> add_19_beta_0_to_fp16 = const()[name = tensor<string, []>("add_19_beta_0_to_fp16"), val = tensor<fp16, [640]>(BLOBFILE(path = tensor<string, []>("@model_path/weights/weight.bin"), offset = tensor<uint64, []>(96665408)))];
            tensor<fp16, []> add_19_epsilon_0_to_fp16 = const()[name = tensor<string, []>("add_19_epsilon_0_to_fp16"), val = tensor<fp16, []>(0x1.5p-17)];
            tensor<fp16, [2, 640, 64, 64]> add_19_cast = batch_norm(beta = add_19_beta_0_to_fp16, epsilon = add_19_epsilon_0_to_fp16, gamma = add_19_gamma_0_to_fp16, mean = add_11_mean_0_to_fp16, variance = add_11_variance_0_to_fp16, x = reshape_37_cast)[name = tensor<string, []>("add_19_cast")];
            tensor<int32, [2]> var_784 = const()[name = tensor<string, []>("op_784"), val = tensor<int32, [2]>([1, 1])];
            tensor<int32, [2]> var_786 = const()[name = tensor<string, []>("op_786"), val = tensor<int32, [2]>([1, 1])];
            tensor<string, []> hidden_states_39_pad_type_0 = const()[name = tensor<string, []>("hidden_states_39_pad_type_0"), val = tensor<string, []>("custom")];
            tensor<int32, [4]> hidden_states_39_pad_0 = const()[name = tensor<string, []>("hidden_states_39_pad_0"), val = tensor<int32, [4]>([0, 0, 0, 0])];
            tensor<fp16, [640, 640, 1, 1]> down_blocks_1_attentions_1_proj_in_weight_to_fp16 = const()[name = tensor<string, []>("down_blocks_1_attentions_1_proj_in_weight_to_fp16"), val = tensor<fp16, [640, 640, 1, 1]>(BLOBFILE(path = tensor<string, []>("@model_path/weights/weight.bin"), offset = tensor<uint64, []>(96666752)))];
            tensor<fp16, [640]> down_blocks_1_attentions_1_proj_in_bias_to_fp16 = const()[name = tensor<string, []>("down_blocks_1_attentions_1_proj_in_bias_to_fp16"), val = tensor<fp16, [640]>(BLOBFILE(path = tensor<string, []>("@model_path/weights/weight.bin"), offset = tensor<uint64, []>(97486016)))];
            tensor<fp16, [2, 640, 64, 64]> hidden_states_39_cast = conv(bias = down_blocks_1_attentions_1_proj_in_bias_to_fp16, dilations = var_786, groups = var_282, pad = hidden_states_39_pad_0, pad_type = hidden_states_39_pad_type_0, strides = var_784, weight = down_blocks_1_attentions_1_proj_in_weight_to_fp16, x = add_19_cast)[name = tensor<string, []>("hidden_states_39_cast")];
            tensor<int32, [4]> var_791 = const()[name = tensor<string, []>("op_791"), val = tensor<int32, [4]>([2, 640, 1, 4096])];
            tensor<fp16, [2, 640, 1, 4096]> inputs_13_cast = reshape(shape = var_791, x = hidden_states_39_cast)[name = tensor<string, []>("inputs_13_cast")];
            tensor<int32, [1]> var_801 = const()[name = tensor<string, []>("op_801"), val = tensor<int32, [1]>([1])];
            tensor<fp16, [2, 1, 1, 4096]> channels_mean_13_cast = reduce_mean(axes = var_801, keep_dims = var_277, x = inputs_13_cast)[name = tensor<string, []>("channels_mean_13_cast")];
            tensor<fp16, [2, 640, 1, 4096]> zero_mean_13_cast = sub(x = inputs_13_cast, y = channels_mean_13_cast)[name = tensor<string, []>("zero_mean_13_cast")];
            tensor<fp16, [2, 640, 1, 4096]> zero_mean_sq_13_cast = mul(x = zero_mean_13_cast, y = zero_mean_13_cast)[name = tensor<string, []>("zero_mean_sq_13_cast")];
            tensor<int32, [1]> var_805 = const()[name = tensor<string, []>("op_805"), val = tensor<int32, [1]>([1])];
            tensor<fp16, [2, 1, 1, 4096]> var_806_cast = reduce_mean(axes = var_805, keep_dims = var_277, x = zero_mean_sq_13_cast)[name = tensor<string, []>("op_806_cast")];
            tensor<fp16, []> var_807_to_fp16 = const()[name = tensor<string, []>("op_807_to_fp16"), val = tensor<fp16, []>(0x1.5p-17)];
            tensor<fp16, [2, 1, 1, 4096]> var_808_cast = add(x = var_806_cast, y = var_807_to_fp16)[name = tensor<string, []>("op_808_cast")];
            tensor<fp16, []> denom_13_epsilon_0_to_fp16 = const()[name = tensor<string, []>("denom_13_epsilon_0_to_fp16"), val = tensor<fp16, []>(0x1p-24)];
            tensor<fp16, [2, 1, 1, 4096]> denom_13_cast = rsqrt(epsilon = denom_13_epsilon_0_to_fp16, x = var_808_cast)[name = tensor<string, []>("denom_13_cast")];
            tensor<fp16, [2, 640, 1, 4096]> out_13_cast = mul(x = zero_mean_13_cast, y = denom_13_cast)[name = tensor<string, []>("out_13_cast")];
            tensor<fp16, [1, 640, 1, 1]> var_812_to_fp16 = const()[name = tensor<string, []>("op_812_to_fp16"), val = tensor<fp16, [1, 640, 1, 1]>(BLOBFILE(path = tensor<string, []>("@model_path/weights/weight.bin"), offset = tensor<uint64, []>(97487360)))];
            tensor<fp16, [2, 640, 1, 4096]> var_813_cast = add(x = out_13_cast, y = var_812_to_fp16)[name = tensor<string, []>("op_813_cast")];
            tensor<fp16, [1, 640, 1, 1]> var_815_to_fp16 = const()[name = tensor<string, []>("op_815_to_fp16"), val = tensor<fp16, [1, 640, 1, 1]>(BLOBFILE(path = tensor<string, []>("@model_path/weights/weight.bin"), offset = tensor<uint64, []>(97488704)))];
            tensor<fp16, [2, 640, 1, 4096]> hidden_states_41_cast = mul(x = var_813_cast, y = var_815_to_fp16)[name = tensor<string, []>("hidden_states_41_cast")];
            tensor<int32, [2]> var_822 = const()[name = tensor<string, []>("op_822"), val = tensor<int32, [2]>([1, 1])];
            tensor<int32, [2]> var_824 = const()[name = tensor<string, []>("op_824"), val = tensor<int32, [2]>([1, 1])];
            tensor<string, []> q_9_pad_type_0 = const()[name = tensor<string, []>("q_9_pad_type_0"), val = tensor<string, []>("custom")];
            tensor<int32, [4]> q_9_pad_0 = const()[name = tensor<string, []>("q_9_pad_0"), val = tensor<int32, [4]>([0, 0, 0, 0])];
            tensor<fp16, [640, 640, 1, 1]> down_blocks_1_attentions_1_transformer_blocks_0_attn1_to_q_weight_to_fp16 = const()[name = tensor<string, []>("down_blocks_1_attentions_1_transformer_blocks_0_attn1_to_q_weight_to_fp16"), val = tensor<fp16, [640, 640, 1, 1]>(BLOBFILE(path = tensor<string, []>("@model_path/weights/weight.bin"), offset = tensor<uint64, []>(97490048)))];
            tensor<fp16, [2, 640, 1, 4096]> q_9_cast = conv(dilations = var_824, groups = var_282, pad = q_9_pad_0, pad_type = q_9_pad_type_0, strides = var_822, weight = down_blocks_1_attentions_1_transformer_blocks_0_attn1_to_q_weight_to_fp16, x = hidden_states_41_cast)[name = tensor<string, []>("q_9_cast")];
            tensor<int32, [2]> var_828 = const()[name = tensor<string, []>("op_828"), val = tensor<int32, [2]>([1, 1])];
            tensor<int32, [2]> var_830 = const()[name = tensor<string, []>("op_830"), val = tensor<int32, [2]>([1, 1])];
            tensor<string, []> k_9_pad_type_0 = const()[name = tensor<string, []>("k_9_pad_type_0"), val = tensor<string, []>("custom")];
            tensor<int32, [4]> k_9_pad_0 = const()[name = tensor<string, []>("k_9_pad_0"), val = tensor<int32, [4]>([0, 0, 0, 0])];
            tensor<fp16, [640, 640, 1, 1]> down_blocks_1_attentions_1_transformer_blocks_0_attn1_to_k_weight_to_fp16 = const()[name = tensor<string, []>("down_blocks_1_attentions_1_transformer_blocks_0_attn1_to_k_weight_to_fp16"), val = tensor<fp16, [640, 640, 1, 1]>(BLOBFILE(path = tensor<string, []>("@model_path/weights/weight.bin"), offset = tensor<uint64, []>(98309312)))];
            tensor<fp16, [2, 640, 1, 4096]> k_9_cast = conv(dilations = var_830, groups = var_282, pad = k_9_pad_0, pad_type = k_9_pad_type_0, strides = var_828, weight = down_blocks_1_attentions_1_transformer_blocks_0_attn1_to_k_weight_to_fp16, x = hidden_states_41_cast)[name = tensor<string, []>("k_9_cast")];
            tensor<int32, [2]> var_834 = const()[name = tensor<string, []>("op_834"), val = tensor<int32, [2]>([1, 1])];
            tensor<int32, [2]> var_836 = const()[name = tensor<string, []>("op_836"), val = tensor<int32, [2]>([1, 1])];
            tensor<string, []> v_9_pad_type_0 = const()[name = tensor<string, []>("v_9_pad_type_0"), val = tensor<string, []>("custom")];
            tensor<int32, [4]> v_9_pad_0 = const()[name = tensor<string, []>("v_9_pad_0"), val = tensor<int32, [4]>([0, 0, 0, 0])];
            tensor<fp16, [640, 640, 1, 1]> down_blocks_1_attentions_1_transformer_blocks_0_attn1_to_v_weight_to_fp16 = const()[name = tensor<string, []>("down_blocks_1_attentions_1_transformer_blocks_0_attn1_to_v_weight_to_fp16"), val = tensor<fp16, [640, 640, 1, 1]>(BLOBFILE(path = tensor<string, []>("@model_path/weights/weight.bin"), offset = tensor<uint64, []>(99128576)))];
            tensor<fp16, [2, 640, 1, 4096]> v_9_cast = conv(dilations = var_836, groups = var_282, pad = v_9_pad_0, pad_type = v_9_pad_type_0, strides = var_834, weight = down_blocks_1_attentions_1_transformer_blocks_0_attn1_to_v_weight_to_fp16, x = hidden_states_41_cast)[name = tensor<string, []>("v_9_cast")];
            tensor<int32, [4]> var_840 = const()[name = tensor<string, []>("op_840"), val = tensor<int32, [4]>([2, 10, 64, -1])];
            tensor<fp16, [2, 10, 64, 4096]> var_841_cast = reshape(shape = var_840, x = q_9_cast)[name = tensor<string, []>("op_841_cast")];
            tensor<int32, [4]> var_842 = const()[name = tensor<string, []>("op_842"), val = tensor<int32, [4]>([2, 10, 64, -1])];
            tensor<fp16, [2, 10, 64, 4096]> var_843_cast = reshape(shape = var_842, x = k_9_cast)[name = tensor<string, []>("op_843_cast")];
            tensor<int32, [4]> var_844 = const()[name = tensor<string, []>("op_844"), val = tensor<int32, [4]>([2, 10, 64, -1])];
            tensor<fp16, [2, 10, 64, 4096]> var_845_cast = reshape(shape = var_844, x = v_9_cast)[name = tensor<string, []>("op_845_cast")];
            tensor<bool, []> attn_weights_17_transpose_x_0 = const()[name = tensor<string, []>("attn_weights_17_transpose_x_0"), val = tensor<bool, []>(true)];
            tensor<bool, []> attn_weights_17_transpose_y_0 = const()[name = tensor<string, []>("attn_weights_17_transpose_y_0"), val = tensor<bool, []>(false)];
            tensor<fp16, [2, 10, 4096, 4096]> attn_weights_17_cast = matmul(transpose_x = attn_weights_17_transpose_x_0, transpose_y = attn_weights_17_transpose_y_0, x = var_841_cast, y = var_843_cast)[name = tensor<string, []>("attn_weights_17_cast")];
            tensor<fp16, [2, 10, 4096, 4096]> attn_weights_19_cast = mul(x = attn_weights_17_cast, y = var_273_to_fp16)[name = tensor<string, []>("attn_weights_19_cast")];
            tensor<fp16, [2, 10, 4096, 4096]> var_849_cast = softmax(axis = var_266, x = attn_weights_19_cast)[name = tensor<string, []>("op_849_cast")];
            tensor<bool, []> attn_9_transpose_x_0 = const()[name = tensor<string, []>("attn_9_transpose_x_0"), val = tensor<bool, []>(false)];
            tensor<bool, []> attn_9_transpose_y_0 = const()[name = tensor<string, []>("attn_9_transpose_y_0"), val = tensor<bool, []>(true)];
            tensor<fp16, [2, 10, 64, 4096]> attn_9_cast = matmul(transpose_x = attn_9_transpose_x_0, transpose_y = attn_9_transpose_y_0, x = var_845_cast, y = var_849_cast)[name = tensor<string, []>("attn_9_cast")];
            tensor<int32, [4]> var_853 = const()[name = tensor<string, []>("op_853"), val = tensor<int32, [4]>([2, 640, 1, -1])];
            tensor<fp16, [2, 640, 1, 4096]> input_95_cast = reshape(shape = var_853, x = attn_9_cast)[name = tensor<string, []>("input_95_cast")];
            tensor<int32, [2]> var_858 = const()[name = tensor<string, []>("op_858"), val = tensor<int32, [2]>([1, 1])];
            tensor<int32, [2]> var_860 = const()[name = tensor<string, []>("op_860"), val = tensor<int32, [2]>([1, 1])];
            tensor<string, []> var_862_pad_type_0 = const()[name = tensor<string, []>("op_862_pad_type_0"), val = tensor<string, []>("custom")];
            tensor<int32, [4]> var_862_pad_0 = const()[name = tensor<string, []>("op_862_pad_0"), val = tensor<int32, [4]>([0, 0, 0, 0])];
            tensor<fp16, [640, 640, 1, 1]> down_blocks_1_attentions_1_transformer_blocks_0_attn1_to_out_0_weight_to_fp16 = const()[name = tensor<string, []>("down_blocks_1_attentions_1_transformer_blocks_0_attn1_to_out_0_weight_to_fp16"), val = tensor<fp16, [640, 640, 1, 1]>(BLOBFILE(path = tensor<string, []>("@model_path/weights/weight.bin"), offset = tensor<uint64, []>(99947840)))];
            tensor<fp16, [640]> down_blocks_1_attentions_1_transformer_blocks_0_attn1_to_out_0_bias_to_fp16 = const()[name = tensor<string, []>("down_blocks_1_attentions_1_transformer_blocks_0_attn1_to_out_0_bias_to_fp16"), val = tensor<fp16, [640]>(BLOBFILE(path = tensor<string, []>("@model_path/weights/weight.bin"), offset = tensor<uint64, []>(100767104)))];
            tensor<fp16, [2, 640, 1, 4096]> var_862_cast = conv(bias = down_blocks_1_attentions_1_transformer_blocks_0_attn1_to_out_0_bias_to_fp16, dilations = var_860, groups = var_282, pad = var_862_pad_0, pad_type = var_862_pad_type_0, strides = var_858, weight = down_blocks_1_attentions_1_transformer_blocks_0_attn1_to_out_0_weight_to_fp16, x = input_95_cast)[name = tensor<string, []>("op_862_cast")];
            tensor<fp16, [2, 640, 1, 4096]> inputs_15_cast = add(x = var_862_cast, y = inputs_13_cast)[name = tensor<string, []>("inputs_15_cast")];
            tensor<int32, [1]> var_866 = const()[name = tensor<string, []>("op_866"), val = tensor<int32, [1]>([1])];
            tensor<fp16, [2, 1, 1, 4096]> channels_mean_15_cast = reduce_mean(axes = var_866, keep_dims = var_277, x = inputs_15_cast)[name = tensor<string, []>("channels_mean_15_cast")];
            tensor<fp16, [2, 640, 1, 4096]> zero_mean_15_cast = sub(x = inputs_15_cast, y = channels_mean_15_cast)[name = tensor<string, []>("zero_mean_15_cast")];
            tensor<fp16, [2, 640, 1, 4096]> zero_mean_sq_15_cast = mul(x = zero_mean_15_cast, y = zero_mean_15_cast)[name = tensor<string, []>("zero_mean_sq_15_cast")];
            tensor<int32, [1]> var_870 = const()[name = tensor<string, []>("op_870"), val = tensor<int32, [1]>([1])];
            tensor<fp16, [2, 1, 1, 4096]> var_871_cast = reduce_mean(axes = var_870, keep_dims = var_277, x = zero_mean_sq_15_cast)[name = tensor<string, []>("op_871_cast")];
            tensor<fp16, []> var_872_to_fp16 = const()[name = tensor<string, []>("op_872_to_fp16"), val = tensor<fp16, []>(0x1.5p-17)];
            tensor<fp16, [2, 1, 1, 4096]> var_873_cast = add(x = var_871_cast, y = var_872_to_fp16)[name = tensor<string, []>("op_873_cast")];
            tensor<fp16, []> denom_15_epsilon_0_to_fp16 = const()[name = tensor<string, []>("denom_15_epsilon_0_to_fp16"), val = tensor<fp16, []>(0x1p-24)];
            tensor<fp16, [2, 1, 1, 4096]> denom_15_cast = rsqrt(epsilon = denom_15_epsilon_0_to_fp16, x = var_873_cast)[name = tensor<string, []>("denom_15_cast")];
            tensor<fp16, [2, 640, 1, 4096]> out_15_cast = mul(x = zero_mean_15_cast, y = denom_15_cast)[name = tensor<string, []>("out_15_cast")];
…
            tensor<int32, [2]> var_13852 = const()[name = tensor<string, []>("op_13852"), val = tensor<int32, [2]>([1, 1])];
            tensor<int32, [2]> var_13854 = const()[name = tensor<string, []>("op_13854"), val = tensor<int32, [2]>([1, 1])];
            tensor<string, []> hidden_states_577_pad_type_0 = const()[name = tensor<string, []>("hidden_states_577_pad_type_0"), val = tensor<string, []>("custom")];
            tensor<int32, [4]> hidden_states_577_pad_0 = const()[name = tensor<string, []>("hidden_states_577_pad_0"), val = tensor<int32, [4]>([1, 1, 1, 1])];
            tensor<fp16, [640, 640, 3, 3]> up_blocks_1_upsamplers_0_conv_weight_to_fp16 = const()[name = tensor<string, []>("up_blocks_1_upsamplers_0_conv_weight_to_fp16"), val = tensor<fp16, [640, 640, 3, 3]>(BLOBFILE(path = tensor<string, []>("@model_path/weights/weight.bin"), offset = tensor<uint64, []>(5105322368)))];
            tensor<fp16, [640]> up_blocks_1_upsamplers_0_conv_bias_to_fp16 = const()[name = tensor<string, []>("up_blocks_1_upsamplers_0_conv_bias_to_fp16"), val = tensor<fp16, [640]>(BLOBFILE(path = tensor<string, []>("@model_path/weights/weight.bin"), offset = tensor<uint64, []>(5112695232)))];
            tensor<fp16, [2, 640, 128, 128]> hidden_states_577_cast = conv(bias = up_blocks_1_upsamplers_0_conv_bias_to_fp16, dilations = var_13854, groups = var_12518, pad = hidden_states_577_pad_0, pad_type = hidden_states_577_pad_type_0, strides = var_13852, weight = up_blocks_1_upsamplers_0_conv_weight_to_fp16, x = input_825_cast)[name = tensor<string, []>("hidden_states_577_cast")];
            tensor<int32, []> var_13862 = const()[name = tensor<string, []>("op_13862"), val = tensor<int32, []>(1)];
            tensor<bool, []> input_827_interleave_0 = const()[name = tensor<string, []>("input_827_interleave_0"), val = tensor<bool, []>(false)];
            tensor<fp16, [2, 960, 128, 128]> input_827_cast = concat(axis = var_13862, interleave = input_827_interleave_0, values = (hidden_states_577_cast, input_43_cast))[name = tensor<string, []>("input_827_cast")];
            tensor<int32, [5]> reshape_156_shape_0 = const()[name = tensor<string, []>("reshape_156_shape_0"), val = tensor<int32, [5]>([2, 32, 30, 128, 128])];
            tensor<fp16, [2, 32, 30, 128, 128]> reshape_156_cast = reshape(shape = reshape_156_shape_0, x = input_827_cast)[name = tensor<string, []>("reshape_156_cast")];
            tensor<int32, [3]> reduce_mean_117_axes_0 = const()[name = tensor<string, []>("reduce_mean_117_axes_0"), val = tensor<int32, [3]>([2, 3, 4])];
            tensor<bool, []> reduce_mean_117_keep_dims_0 = const()[name = tensor<string, []>("reduce_mean_117_keep_dims_0"), val = tensor<bool, []>(true)];
            tensor<fp16, [2, 32, 1, 1, 1]> reduce_mean_117_cast = reduce_mean(axes = reduce_mean_117_axes_0, keep_dims = reduce_mean_117_keep_dims_0, x = reshape_156_cast)[name = tensor<string, []>("reduce_mean_117_cast")];
            tensor<fp16, [2, 32, 30, 128, 128]> sub_78_cast = sub(x = reshape_156_cast, y = reduce_mean_117_cast)[name = tensor<string, []>("sub_78_cast")];
            tensor<fp16, [2, 32, 30, 128, 128]> square_39_cast = square(x = sub_78_cast)[name = tensor<string, []>("square_39_cast")];
            tensor<int32, [3]> reduce_mean_119_axes_0 = const()[name = tensor<string, []>("reduce_mean_119_axes_0"), val = tensor<int32, [3]>([2, 3, 4])];
            tensor<bool, []> reduce_mean_119_keep_dims_0 = const()[name = tensor<string, []>("reduce_mean_119_keep_dims_0"), val = tensor<bool, []>(true)];
            tensor<fp16, [2, 32, 1, 1, 1]> reduce_mean_119_cast = reduce_mean(axes = reduce_mean_119_axes_0, keep_dims = reduce_mean_119_keep_dims_0, x = square_39_cast)[name = tensor<string, []>("reduce_mean_119_cast")];
            tensor<fp16, []> add_78_y_0_to_fp16 = const()[name = tensor<string, []>("add_78_y_0_to_fp16"), val = tensor<fp16, []>(0x1.5p-17)];
            tensor<fp16, [2, 32, 1, 1, 1]> add_78_cast = add(x = reduce_mean_119_cast, y = add_78_y_0_to_fp16)[name = tensor<string, []>("add_78_cast")];
            tensor<fp16, [2, 32, 1, 1, 1]> sqrt_39_cast = sqrt(x = add_78_cast)[name = tensor<string, []>("sqrt_39_cast")];
            tensor<fp16, [2, 32, 30, 128, 128]> real_div_39_cast = real_div(x = sub_78_cast, y = sqrt_39_cast)[name = tensor<string, []>("real_div_39_cast")];
            tensor<int32, [4]> reshape_157_shape_0 = const()[name = tensor<string, []>("reshape_157_shape_0"), val = tensor<int32, [4]>([2, 960, 128, 128])];
            tensor<fp16, [2, 960, 128, 128]> reshape_157_cast = reshape(shape = reshape_157_shape_0, x = real_div_39_cast)[name = tensor<string, []>("reshape_157_cast")];
            tensor<fp16, [960]> add_79_gamma_0_to_fp16 = const()[name = tensor<string, []>("add_79_gamma_0_to_fp16"), val = tensor<fp16, [960]>(BLOBFILE(path = tensor<string, []>("@model_path/weights/weight.bin"), offset = tensor<uint64, []>(5112696576)))];
            tensor<fp16, [960]> add_79_beta_0_to_fp16 = const()[name = tensor<string, []>("add_79_beta_0_to_fp16"), val = tensor<fp16, [960]>(BLOBFILE(path = tensor<string, []>("@model_path/weights/weight.bin"), offset = tensor<uint64, []>(5112698560)))];
            tensor<fp16, []> add_79_epsilon_0_to_fp16 = const()[name = tensor<string, []>("add_79_epsilon_0_to_fp16"), val = tensor<fp16, []>(0x1.5p-17)];
            tensor<fp16, [2, 960, 128, 128]> add_79_cast = batch_norm(beta = add_79_beta_0_to_fp16, epsilon = add_79_epsilon_0_to_fp16, gamma = add_79_gamma_0_to_fp16, mean = add_73_mean_0_to_fp16, variance = add_73_variance_0_to_fp16, x = reshape_157_cast)[name = tensor<string, []>("add_79_cast")];
            tensor<fp16, [2, 960, 128, 128]> input_831_cast = silu(x = add_79_cast)[name = tensor<string, []>("input_831_cast")];
            tensor<int32, [2]> var_13883 = const()[name = tensor<string, []>("op_13883"), val = tensor<int32, [2]>([1, 1])];
            tensor<int32, [2]> var_13885 = const()[name = tensor<string, []>("op_13885"), val = tensor<int32, [2]>([1, 1])];
            tensor<string, []> hidden_states_579_pad_type_0 = const()[name = tensor<string, []>("hidden_states_579_pad_type_0"), val = tensor<string, []>("custom")];
            tensor<int32, [4]> hidden_states_579_pad_0 = const()[name = tensor<string, []>("hidden_states_579_pad_0"), val = tensor<int32, [4]>([1, 1, 1, 1])];
            tensor<fp16, [320, 960, 3, 3]> up_blocks_2_resnets_0_conv1_weight_to_fp16 = const()[name = tensor<string, []>("up_blocks_2_resnets_0_conv1_weight_to_fp16"), val = tensor<fp16, [320, 960, 3, 3]>(BLOBFILE(path = tensor<string, []>("@model_path/weights/weight.bin"), offset = tensor<uint64, []>(5112700544)))];
            tensor<fp16, [320]> up_blocks_2_resnets_0_conv1_bias_to_fp16 = const()[name = tensor<string, []>("up_blocks_2_resnets_0_conv1_bias_to_fp16"), val = tensor<fp16, [320]>(BLOBFILE(path = tensor<string, []>("@model_path/weights/weight.bin"), offset = tensor<uint64, []>(5118230208)))];
            tensor<fp16, [2, 320, 128, 128]> hidden_states_579_cast = conv(bias = up_blocks_2_resnets_0_conv1_bias_to_fp16, dilations = var_13885, groups = var_13862, pad = hidden_states_579_pad_0, pad_type = hidden_states_579_pad_type_0, strides = var_13883, weight = up_blocks_2_resnets_0_conv1_weight_to_fp16, x = input_831_cast)[name = tensor<string, []>("hidden_states_579_cast")];
            tensor<int32, [2]> var_13891 = const()[name = tensor<string, []>("op_13891"), val = tensor<int32, [2]>([1, 1])];
            tensor<int32, [2]> var_13893 = const()[name = tensor<string, []>("op_13893"), val = tensor<int32, [2]>([1, 1])];
            tensor<string, []> temb_29_pad_type_0 = const()[name = tensor<string, []>("temb_29_pad_type_0"), val = tensor<string, []>("custom")];
            tensor<int32, [4]> temb_29_pad_0 = const()[name = tensor<string, []>("temb_29_pad_0"), val = tensor<int32, [4]>([0, 0, 0, 0])];
            tensor<fp16, [320, 1280, 1, 1]> up_blocks_2_resnets_0_time_emb_proj_weight_to_fp16 = const()[name = tensor<string, []>("up_blocks_2_resnets_0_time_emb_proj_weight_to_fp16"), val = tensor<fp16, [320, 1280, 1, 1]>(BLOBFILE(path = tensor<string, []>("@model_path/weights/weight.bin"), offset = tensor<uint64, []>(5118230912)))];
            tensor<fp16, [320]> up_blocks_2_resnets_0_time_emb_proj_bias_to_fp16 = const()[name = tensor<string, []>("up_blocks_2_resnets_0_time_emb_proj_bias_to_fp16"), val = tensor<fp16, [320]>(BLOBFILE(path = tensor<string, []>("@model_path/weights/weight.bin"), offset = tensor<uint64, []>(5119050176)))];
            tensor<fp16, [2, 320, 1, 1]> temb_29_cast = conv(bias = up_blocks_2_resnets_0_time_emb_proj_bias_to_fp16, dilations = var_13893, groups = var_13862, pad = temb_29_pad_0, pad_type = temb_29_pad_type_0, strides = var_13891, weight = up_blocks_2_resnets_0_time_emb_proj_weight_to_fp16, x = input_21_cast)[name = tensor<string, []>("temb_29_cast")];
            tensor<fp16, [2, 320, 128, 128]> input_835_cast = add(x = hidden_states_579_cast, y = temb_29_cast)[name = tensor<string, []>("input_835_cast")];
            tensor<int32, [5]> reshape_160_shape_0 = const()[name = tensor<string, []>("reshape_160_shape_0"), val = tensor<int32, [5]>([2, 32, 10, 128, 128])];
            tensor<fp16, [2, 32, 10, 128, 128]> reshape_160_cast = reshape(shape = reshape_160_shape_0, x = input_835_cast)[name = tensor<string, []>("reshape_160_cast")];
            tensor<int32, [3]> reduce_mean_120_axes_0 = const()[name = tensor<string, []>("reduce_mean_120_axes_0"), val = tensor<int32, [3]>([2, 3, 4])];
            tensor<bool, []> reduce_mean_120_keep_dims_0 = const()[name = tensor<string, []>("reduce_mean_120_keep_dims_0"), val = tensor<bool, []>(true)];
            tensor<fp16, [2, 32, 1, 1, 1]> reduce_mean_120_cast = reduce_mean(axes = reduce_mean_120_axes_0, keep_dims = reduce_mean_120_keep_dims_0, x = reshape_160_cast)[name = tensor<string, []>("reduce_mean_120_cast")];
            tensor<fp16, [2, 32, 10, 128, 128]> sub_80_cast = sub(x = reshape_160_cast, y = reduce_mean_120_cast)[name = tensor<string, []>("sub_80_cast")];
            tensor<fp16, [2, 32, 10, 128, 128]> square_40_cast = square(x = sub_80_cast)[name = tensor<string, []>("square_40_cast")];
            tensor<int32, [3]> reduce_mean_122_axes_0 = const()[name = tensor<string, []>("reduce_mean_122_axes_0"), val = tensor<int32, [3]>([2, 3, 4])];
            tensor<bool, []> reduce_mean_122_keep_dims_0 = const()[name = tensor<string, []>("reduce_mean_122_keep_dims_0"), val = tensor<bool, []>(true)];
            tensor<fp16, [2, 32, 1, 1, 1]> reduce_mean_122_cast = reduce_mean(axes = reduce_mean_122_axes_0, keep_dims = reduce_mean_122_keep_dims_0, x = square_40_cast)[name = tensor<string, []>("reduce_mean_122_cast")];
            tensor<fp16, []> add_80_y_0_to_fp16 = const()[name = tensor<string, []>("add_80_y_0_to_fp16"), val = tensor<fp16, []>(0x1.5p-17)];
            tensor<fp16, [2, 32, 1, 1, 1]> add_80_cast = add(x = reduce_mean_122_cast, y = add_80_y_0_to_fp16)[name = tensor<string, []>("add_80_cast")];
            tensor<fp16, [2, 32, 1, 1, 1]> sqrt_40_cast = sqrt(x = add_80_cast)[name = tensor<string, []>("sqrt_40_cast")];
            tensor<fp16, [2, 32, 10, 128, 128]> real_div_40_cast = real_div(x = sub_80_cast, y = sqrt_40_cast)[name = tensor<string, []>("real_div_40_cast")];
            tensor<int32, [4]> reshape_161_shape_0 = const()[name = tensor<string, []>("reshape_161_shape_0"), val = tensor<int32, [4]>([2, 320, 128, 128])];
            tensor<fp16, [2, 320, 128, 128]> reshape_161_cast = reshape(shape = reshape_161_shape_0, x = real_div_40_cast)[name = tensor<string, []>("reshape_161_cast")];
            tensor<fp16, [320]> add_81_gamma_0_to_fp16 = const()[name = tensor<string, []>("add_81_gamma_0_to_fp16"), val = tensor<fp16, [320]>(BLOBFILE(path = tensor<string, []>("@model_path/weights/weight.bin"), offset = tensor<uint64, []>(5119050880)))];
            tensor<fp16, [320]> add_81_beta_0_to_fp16 = const()[name = tensor<string, []>("add_81_beta_0_to_fp16"), val = tensor<fp16, [320]>(BLOBFILE(path = tensor<string, []>("@model_path/weights/weight.bin"), offset = tensor<uint64, []>(5119051584)))];
            tensor<fp16, []> add_81_epsilon_0_to_fp16 = const()[name = tensor<string, []>("add_81_epsilon_0_to_fp16"), val = tensor<fp16, []>(0x1.5p-17)];
            tensor<fp16, [2, 320, 128, 128]> add_81_cast = batch_norm(beta = add_81_beta_0_to_fp16, epsilon = add_81_epsilon_0_to_fp16, gamma = add_81_gamma_0_to_fp16, mean = add_1_mean_0_to_fp16, variance = add_1_variance_0_to_fp16, x = reshape_161_cast)[name = tensor<string, []>("add_81_cast")];
            tensor<fp16, [2, 320, 128, 128]> input_839_cast = silu(x = add_81_cast)[name = tensor<string, []>("input_839_cast")];
            tensor<int32, [2]> var_13903 = const()[name = tensor<string, []>("op_13903"), val = tensor<int32, [2]>([1, 1])];
            tensor<int32, [2]> var_13905 = const()[name = tensor<string, []>("op_13905"), val = tensor<int32, [2]>([1, 1])];
            tensor<string, []> hidden_states_581_pad_type_0 = const()[name = tensor<string, []>("hidden_states_581_pad_type_0"), val = tensor<string, []>("custom")];
            tensor<int32, [4]> hidden_states_581_pad_0 = const()[name = tensor<string, []>("hidden_states_581_pad_0"), val = tensor<int32, [4]>([1, 1, 1, 1])];
            tensor<fp16, [320, 320, 3, 3]> up_blocks_2_resnets_0_conv2_weight_to_fp16 = const()[name = tensor<string, []>("up_blocks_2_resnets_0_conv2_weight_to_fp16"), val = tensor<fp16, [320, 320, 3, 3]>(BLOBFILE(path = tensor<string, []>("@model_path/weights/weight.bin"), offset = tensor<uint64, []>(5119052288)))];
            tensor<fp16, [320]> up_blocks_2_resnets_0_conv2_bias_to_fp16 = const()[name = tensor<string, []>("up_blocks_2_resnets_0_conv2_bias_to_fp16"), val = tensor<fp16, [320]>(BLOBFILE(path = tensor<string, []>("@model_path/weights/weight.bin"), offset = tensor<uint64, []>(5120895552)))];
            tensor<fp16, [2, 320, 128, 128]> hidden_states_581_cast = conv(bias = up_blocks_2_resnets_0_conv2_bias_to_fp16, dilations = var_13905, groups = var_13862, pad = hidden_states_581_pad_0, pad_type = hidden_states_581_pad_type_0, strides = var_13903, weight = up_blocks_2_resnets_0_conv2_weight_to_fp16, x = input_839_cast)[name = tensor<string, []>("hidden_states_581_cast")];
            tensor<int32, [2]> var_13910 = const()[name = tensor<string, []>("op_13910"), val = tensor<int32, [2]>([1, 1])];
            tensor<int32, [2]> var_13912 = const()[name = tensor<string, []>("op_13912"), val = tensor<int32, [2]>([1, 1])];
            tensor<string, []> x_17_pad_type_0 = const()[name = tensor<string, []>("x_17_pad_type_0"), val = tensor<string, []>("custom")];
            tensor<int32, [4]> x_17_pad_0 = const()[name = tensor<string, []>("x_17_pad_0"), val = tensor<int32, [4]>([0, 0, 0, 0])];
            tensor<fp16, [320, 960, 1, 1]> up_blocks_2_resnets_0_conv_shortcut_weight_to_fp16 = const()[name = tensor<string, []>("up_blocks_2_resnets_0_conv_shortcut_weight_to_fp16"), val = tensor<fp16, [320, 960, 1, 1]>(BLOBFILE(path = tensor<string, []>("@model_path/weights/weight.bin"), offset = tensor<uint64, []>(5120896256)))];
            tensor<fp16, [320]> up_blocks_2_resnets_0_conv_shortcut_bias_to_fp16 = const()[name = tensor<string, []>("up_blocks_2_resnets_0_conv_shortcut_bias_to_fp16"), val = tensor<fp16, [320]>(BLOBFILE(path = tensor<string, []>("@model_path/weights/weight.bin"), offset = tensor<uint64, []>(5121510720)))];
            tensor<fp16, [2, 320, 128, 128]> x_17_cast = conv(bias = up_blocks_2_resnets_0_conv_shortcut_bias_to_fp16, dilations = var_13912, groups = var_13862, pad = x_17_pad_0, pad_type = x_17_pad_type_0, strides = var_13910, weight = up_blocks_2_resnets_0_conv_shortcut_weight_to_fp16, x = input_827_cast)[name = tensor<string, []>("x_17_cast")];
            tensor<fp16, [2, 320, 128, 128]> hidden_states_583_cast = add(x = x_17_cast, y = hidden_states_581_cast)[name = tensor<string, []>("hidden_states_583_cast")];
            tensor<bool, []> input_841_interleave_0 = const()[name = tensor<string, []>("input_841_interleave_0"), val = tensor<bool, []>(false)];
            tensor<fp16, [2, 640, 128, 128]> input_841_cast = concat(axis = var_13862, interleave = input_841_interleave_0, values = (hidden_states_583_cast, input_29_cast))[name = tensor<string, []>("input_841_cast")];
            tensor<int32, [5]> reshape_164_shape_0 = const()[name = tensor<string, []>("reshape_164_shape_0"), val = tensor<int32, [5]>([2, 32, 20, 128, 128])];
            tensor<fp16, [2, 32, 20, 128, 128]> reshape_164_cast = reshape(shape = reshape_164_shape_0, x = input_841_cast)[name = tensor<string, []>("reshape_164_cast")];
            tensor<int32, [3]> reduce_mean_123_axes_0 = const()[name = tensor<string, []>("reduce_mean_123_axes_0"), val = tensor<int32, [3]>([2, 3, 4])];
            tensor<bool, []> reduce_mean_123_keep_dims_0 = const()[name = tensor<string, []>("reduce_mean_123_keep_dims_0"), val = tensor<bool, []>(true)];
            tensor<fp16, [2, 32, 1, 1, 1]> reduce_mean_123_cast = reduce_mean(axes = reduce_mean_123_axes_0, keep_dims = reduce_mean_123_keep_dims_0, x = reshape_164_cast)[name = tensor<string, []>("reduce_mean_123_cast")];
            tensor<fp16, [2, 32, 20, 128, 128]> sub_82_cast = sub(x = reshape_164_cast, y = reduce_mean_123_cast)[name = tensor<string, []>("sub_82_cast")];
            tensor<fp16, [2, 32, 20, 128, 128]> square_41_cast = square(x = sub_82_cast)[name = tensor<string, []>("square_41_cast")];
            tensor<int32, [3]> reduce_mean_125_axes_0 = const()[name = tensor<string, []>("reduce_mean_125_axes_0"), val = tensor<int32, [3]>([2, 3, 4])];
            tensor<bool, []> reduce_mean_125_keep_dims_0 = const()[name = tensor<string, []>("reduce_mean_125_keep_dims_0"), val = tensor<bool, []>(true)];
            tensor<fp16, [2, 32, 1, 1, 1]> reduce_mean_125_cast = reduce_mean(axes = reduce_mean_125_axes_0, keep_dims = reduce_mean_125_keep_dims_0, x = square_41_cast)[name = tensor<string, []>("reduce_mean_125_cast")];
            tensor<fp16, []> add_82_y_0_to_fp16 = const()[name = tensor<string, []>("add_82_y_0_to_fp16"), val = tensor<fp16, []>(0x1.5p-17)];
            tensor<fp16, [2, 32, 1, 1, 1]> add_82_cast = add(x = reduce_mean_125_cast, y = add_82_y_0_to_fp16)[name = tensor<string, []>("add_82_cast")];
            tensor<fp16, [2, 32, 1, 1, 1]> sqrt_41_cast = sqrt(x = add_82_cast)[name = tensor<string, []>("sqrt_41_cast")];
            tensor<fp16, [2, 32, 20, 128, 128]> real_div_41_cast = real_div(x = sub_82_cast, y = sqrt_41_cast)[name = tensor<string, []>("real_div_41_cast")];
            tensor<int32, [4]> reshape_165_shape_0 = const()[name = tensor<string, []>("reshape_165_shape_0"), val = tensor<int32, [4]>([2, 640, 128, 128])];
            tensor<fp16, [2, 640, 128, 128]> reshape_165_cast = reshape(shape = reshape_165_shape_0, x = real_div_41_cast)[name = tensor<string, []>("reshape_165_cast")];
            tensor<fp16, [640]> add_83_gamma_0_to_fp16 = const()[name = tensor<string, []>("add_83_gamma_0_to_fp16"), val = tensor<fp16, [640]>(BLOBFILE(path = tensor<string, []>("@model_path/weights/weight.bin"), offset = tensor<uint64, []>(5121511424)))];
            tensor<fp16, [640]> add_83_beta_0_to_fp16 = const()[name = tensor<string, []>("add_83_beta_0_to_fp16"), val = tensor<fp16, [640]>(BLOBFILE(path = tensor<string, []>("@model_path/weights/weight.bin"), offset = tensor<uint64, []>(5121512768)))];
            tensor<fp16, []> add_83_epsilon_0_to_fp16 = const()[name = tensor<string, []>("add_83_epsilon_0_to_fp16"), val = tensor<fp16, []>(0x1.5p-17)];
            tensor<fp16, [2, 640, 128, 128]> add_83_cast = batch_norm(beta = add_83_beta_0_to_fp16, epsilon = add_83_epsilon_0_to_fp16, gamma = add_83_gamma_0_to_fp16, mean = add_11_mean_0_to_fp16, variance = add_11_variance_0_to_fp16, x = reshape_165_cast)[name = tensor<string, []>("add_83_cast")];
            tensor<fp16, [2, 640, 128, 128]> input_845_cast = silu(x = add_83_cast)[name = tensor<string, []>("input_845_cast")];
            tensor<int32, [2]> var_13930 = const()[name = tensor<string, []>("op_13930"), val = tensor<int32, [2]>([1, 1])];
            tensor<int32, [2]> var_13932 = const()[name = tensor<string, []>("op_13932"), val = tensor<int32, [2]>([1, 1])];
            tensor<string, []> hidden_states_585_pad_type_0 = const()[name = tensor<string, []>("hidden_states_585_pad_type_0"), val = tensor<string, []>("custom")];
            tensor<int32, [4]> hidden_states_585_pad_0 = const()[name = tensor<string, []>("hidden_states_585_pad_0"), val = tensor<int32, [4]>([1, 1, 1, 1])];
            tensor<fp16, [320, 640, 3, 3]> up_blocks_2_resnets_1_conv1_weight_to_fp16 = const()[name = tensor<string, []>("up_blocks_2_resnets_1_conv1_weight_to_fp16"), val = tensor<fp16, [320, 640, 3, 3]>(BLOBFILE(path = tensor<string, []>("@model_path/weights/weight.bin"), offset = tensor<uint64, []>(5121514112)))];
            tensor<fp16, [320]> up_blocks_2_resnets_1_conv1_bias_to_fp16 = const()[name = tensor<string, []>("up_blocks_2_resnets_1_conv1_bias_to_fp16"), val = tensor<fp16, [320]>(BLOBFILE(path = tensor<string, []>("@model_path/weights/weight.bin"), offset = tensor<uint64, []>(5125200576)))];
            tensor<fp16, [2, 320, 128, 128]> hidden_states_585_cast = conv(bias = up_blocks_2_resnets_1_conv1_bias_to_fp16, dilations = var_13932, groups = var_13862, pad = hidden_states_585_pad_0, pad_type = hidden_states_585_pad_type_0, strides = var_13930, weight = up_blocks_2_resnets_1_conv1_weight_to_fp16, x = input_845_cast)[name = tensor<string, []>("hidden_states_585_cast")];
            tensor<int32, [2]> var_13938 = const()[name = tensor<string, []>("op_13938"), val = tensor<int32, [2]>([1, 1])];
            tensor<int32, [2]> var_13940 = const()[name = tensor<string, []>("op_13940"), val = tensor<int32, [2]>([1, 1])];
            tensor<string, []> temb_31_pad_type_0 = const()[name = tensor<string, []>("temb_31_pad_type_0"), val = tensor<string, []>("custom")];
            tensor<int32, [4]> temb_31_pad_0 = const()[name = tensor<string, []>("temb_31_pad_0"), val = tensor<int32, [4]>([0, 0, 0, 0])];
            tensor<fp16, [320, 1280, 1, 1]> up_blocks_2_resnets_1_time_emb_proj_weight_to_fp16 = const()[name = tensor<string, []>("up_blocks_2_resnets_1_time_emb_proj_weight_to_fp16"), val = tensor<fp16, [320, 1280, 1, 1]>(BLOBFILE(path = tensor<string, []>("@model_path/weights/weight.bin"), offset = tensor<uint64, []>(5125201280)))];
            tensor<fp16, [320]> up_blocks_2_resnets_1_time_emb_proj_bias_to_fp16 = const()[name = tensor<string, []>("up_blocks_2_resnets_1_time_emb_proj_bias_to_fp16"), val = tensor<fp16, [320]>(BLOBFILE(path = tensor<string, []>("@model_path/weights/weight.bin"), offset = tensor<uint64, []>(5126020544)))];
            tensor<fp16, [2, 320, 1, 1]> temb_31_cast = conv(bias = up_blocks_2_resnets_1_time_emb_proj_bias_to_fp16, dilations = var_13940, groups = var_13862, pad = temb_31_pad_0, pad_type = temb_31_pad_type_0, strides = var_13938, weight = up_blocks_2_resnets_1_time_emb_proj_weight_to_fp16, x = input_21_cast)[name = tensor<string, []>("temb_31_cast")];
            tensor<fp16, [2, 320, 128, 128]> input_849_cast = add(x = hidden_states_585_cast, y = temb_31_cast)[name = tensor<string, []>("input_849_cast")];
            tensor<int32, [5]> reshape_168_shape_0 = const()[name = tensor<string, []>("reshape_168_shape_0"), val = tensor<int32, [5]>([2, 32, 10, 128, 128])];
            tensor<fp16, [2, 32, 10, 128, 128]> reshape_168_cast = reshape(shape = reshape_168_shape_0, x = input_849_cast)[name = tensor<string, []>("reshape_168_cast")];
            tensor<int32, [3]> reduce_mean_126_axes_0 = const()[name = tensor<string, []>("reduce_mean_126_axes_0"), val = tensor<int32, [3]>([2, 3, 4])];
            tensor<bool, []> reduce_mean_126_keep_dims_0 = const()[name = tensor<string, []>("reduce_mean_126_keep_dims_0"), val = tensor<bool, []>(true)];
            tensor<fp16, [2, 32, 1, 1, 1]> reduce_mean_126_cast = reduce_mean(axes = reduce_mean_126_axes_0, keep_dims = reduce_mean_126_keep_dims_0, x = reshape_168_cast)[name = tensor<string, []>("reduce_mean_126_cast")];
            tensor<fp16, [2, 32, 10, 128, 128]> sub_84_cast = sub(x = reshape_168_cast, y = reduce_mean_126_cast)[name = tensor<string, []>("sub_84_cast")];
            tensor<fp16, [2, 32, 10, 128, 128]> square_42_cast = square(x = sub_84_cast)[name = tensor<string, []>("square_42_cast")];
            tensor<int32, [3]> reduce_mean_128_axes_0 = const()[name = tensor<string, []>("reduce_mean_128_axes_0"), val = tensor<int32, [3]>([2, 3, 4])];
            tensor<bool, []> reduce_mean_128_keep_dims_0 = const()[name = tensor<string, []>("reduce_mean_128_keep_dims_0"), val = tensor<bool, []>(true)];
            tensor<fp16, [2, 32, 1, 1, 1]> reduce_mean_128_cast = reduce_mean(axes = reduce_mean_128_axes_0, keep_dims = reduce_mean_128_keep_dims_0, x = square_42_cast)[name = tensor<string, []>("reduce_mean_128_cast")];
            tensor<fp16, []> add_84_y_0_to_fp16 = const()[name = tensor<string, []>("add_84_y_0_to_fp16"), val = tensor<fp16, []>(0x1.5p-17)];
            tensor<fp16, [2, 32, 1, 1, 1]> add_84_cast = add(x = reduce_mean_128_cast, y = add_84_y_0_to_fp16)[name = tensor<string, []>("add_84_cast")];
            tensor<fp16, [2, 32, 1, 1, 1]> sqrt_42_cast = sqrt(x = add_84_cast)[name = tensor<string, []>("sqrt_42_cast")];
            tensor<fp16, [2, 32, 10, 128, 128]> real_div_42_cast = real_div(x = sub_84_cast, y = sqrt_42_cast)[name = tensor<string, []>("real_div_42_cast")];
            tensor<int32, [4]> reshape_169_shape_0 = const()[name = tensor<string, []>("reshape_169_shape_0"), val = tensor<int32, [4]>([2, 320, 128, 128])];
            tensor<fp16, [2, 320, 128, 128]> reshape_169_cast = reshape(shape = reshape_169_shape_0, x = real_div_42_cast)[name = tensor<string, []>("reshape_169_cast")];
            tensor<fp16, [320]> add_85_gamma_0_to_fp16 = const()[name = tensor<string, []>("add_85_gamma_0_to_fp16"), val = tensor<fp16, [320]>(BLOBFILE(path = tensor<string, []>("@model_path/weights/weight.bin"), offset = tensor<uint64, []>(5126021248)))];
            tensor<fp16, [320]> add_85_beta_0_to_fp16 = const()[name = tensor<string, []>("add_85_beta_0_to_fp16"), val = tensor<fp16, [320]>(BLOBFILE(path = tensor<string, []>("@model_path/weights/weight.bin"), offset = tensor<uint64, []>(5126021952)))];
            tensor<fp16, []> add_85_epsilon_0_to_fp16 = const()[name = tensor<string, []>("add_85_epsilon_0_to_fp16"), val = tensor<fp16, []>(0x1.5p-17)];
            tensor<fp16, [2, 320, 128, 128]> add_85_cast = batch_norm(beta = add_85_beta_0_to_fp16, epsilon = add_85_epsilon_0_to_fp16, gamma = add_85_gamma_0_to_fp16, mean = add_1_mean_0_to_fp16, variance = add_1_variance_0_to_fp16, x = reshape_169_cast)[name = tensor<string, []>("add_85_cast")];
            tensor<fp16, [2, 320, 128, 128]> input_853_cast = silu(x = add_85_cast)[name = tensor<string, []>("input_853_cast")];
            tensor<int32, [2]> var_13950 = const()[name = tensor<string, []>("op_13950"), val = tensor<int32, [2]>([1, 1])];
            tensor<int32, [2]> var_13952 = const()[name = tensor<string, []>("op_13952"), val = tensor<int32, [2]>([1, 1])];
            tensor<string, []> hidden_states_587_pad_type_0 = const()[name = tensor<string, []>("hidden_states_587_pad_type_0"), val = tensor<string, []>("custom")];
            tensor<int32, [4]> hidden_states_587_pad_0 = const()[name = tensor<string, []>("hidden_states_587_pad_0"), val = tensor<int32, [4]>([1, 1, 1, 1])];
            tensor<fp16, [320, 320, 3, 3]> up_blocks_2_resnets_1_conv2_weight_to_fp16 = const()[name = tensor<string, []>("up_blocks_2_resnets_1_conv2_weight_to_fp16"), val = tensor<fp16, [320, 320, 3, 3]>(BLOBFILE(path = tensor<string, []>("@model_path/weights/weight.bin"), offset = tensor<uint64, []>(5126022656)))];
            tensor<fp16, [320]> up_blocks_2_resnets_1_conv2_bias_to_fp16 = const()[name = tensor<string, []>("up_blocks_2_resnets_1_conv2_bias_to_fp16"), val = tensor<fp16, [320]>(BLOBFILE(path = tensor<string, []>("@model_path/weights/weight.bin"), offset = tensor<uint64, []>(5127865920)))];
            tensor<fp16, [2, 320, 128, 128]> hidden_states_587_cast = conv(bias = up_blocks_2_resnets_1_conv2_bias_to_fp16, dilations = var_13952, groups = var_13862, pad = hidden_states_587_pad_0, pad_type = hidden_states_587_pad_type_0, strides = var_13950, weight = up_blocks_2_resnets_1_conv2_weight_to_fp16, x = input_853_cast)[name = tensor<string, []>("hidden_states_587_cast")];
            tensor<int32, [2]> var_13957 = const()[name = tensor<string, []>("op_13957"), val = tensor<int32, [2]>([1, 1])];
            tensor<int32, [2]> var_13959 = const()[name = tensor<string, []>("op_13959"), val = tensor<int32, [2]>([1, 1])];
            tensor<string, []> x_19_pad_type_0 = const()[name = tensor<string, []>("x_19_pad_type_0"), val = tensor<string, []>("custom")];
            tensor<int32, [4]> x_19_pad_0 = const()[name = tensor<string, []>("x_19_pad_0"), val = tensor<int32, [4]>([0, 0, 0, 0])];
            tensor<fp16, [320, 640, 1, 1]> up_blocks_2_resnets_1_conv_shortcut_weight_to_fp16 = const()[name = tensor<string, []>("up_blocks_2_resnets_1_conv_shortcut_weight_to_fp16"), val = tensor<fp16, [320, 640, 1, 1]>(BLOBFILE(path = tensor<string, []>("@model_path/weights/weight.bin"), offset = tensor<uint64, []>(5127866624)))];
            tensor<fp16, [320]> up_blocks_2_resnets_1_conv_shortcut_bias_to_fp16 = const()[name = tensor<string, []>("up_blocks_2_resnets_1_conv_shortcut_bias_to_fp16"), val = tensor<fp16, [320]>(BLOBFILE(path = tensor<string, []>("@model_path/weights/weight.bin"), offset = tensor<uint64, []>(5128276288)))];
            tensor<fp16, [2, 320, 128, 128]> x_19_cast = conv(bias = up_blocks_2_resnets_1_conv_shortcut_bias_to_fp16, dilations = var_13959, groups = var_13862, pad = x_19_pad_0, pad_type = x_19_pad_type_0, strides = var_13957, weight = up_blocks_2_resnets_1_conv_shortcut_weight_to_fp16, x = input_841_cast)[name = tensor<string, []>("x_19_cast")];
            tensor<fp16, [2, 320, 128, 128]> hidden_states_589_cast = add(x = x_19_cast, y = hidden_states_587_cast)[name = tensor<string, []>("hidden_states_589_cast")];
            tensor<bool, []> input_855_interleave_0 = const()[name = tensor<string, []>("input_855_interleave_0"), val = tensor<bool, []>(false)];
            tensor<fp16, [2, 640, 128, 128]> input_855_cast = concat(axis = var_13862, interleave = input_855_interleave_0, values = (hidden_states_589_cast, input_13_cast))[name = tensor<string, []>("input_855_cast")];
            tensor<int32, [5]> reshape_172_shape_0 = const()[name = tensor<string, []>("reshape_172_shape_0"), val = tensor<int32, [5]>([2, 32, 20, 128, 128])];
            tensor<fp16, [2, 32, 20, 128, 128]> reshape_172_cast = reshape(shape = reshape_172_shape_0, x = input_855_cast)[name = tensor<string, []>("reshape_172_cast")];
            tensor<int32, [3]> reduce_mean_129_axes_0 = const()[name = tensor<string, []>("reduce_mean_129_axes_0"), val = tensor<int32, [3]>([2, 3, 4])];
            tensor<bool, []> reduce_mean_129_keep_dims_0 = const()[name = tensor<string, []>("reduce_mean_129_keep_dims_0"), val = tensor<bool, []>(true)];
            tensor<fp16, [2, 32, 1, 1, 1]> reduce_mean_129_cast = reduce_mean(axes = reduce_mean_129_axes_0, keep_dims = reduce_mean_129_keep_dims_0, x = reshape_172_cast)[name = tensor<string, []>("reduce_mean_129_cast")];
            tensor<fp16, [2, 32, 20, 128, 128]> sub_86_cast = sub(x = reshape_172_cast, y = reduce_mean_129_cast)[name = tensor<string, []>("sub_86_cast")];
            tensor<fp16, [2, 32, 20, 128, 128]> square_43_cast = square(x = sub_86_cast)[name = tensor<string, []>("square_43_cast")];
            tensor<int32, [3]> reduce_mean_131_axes_0 = const()[name = tensor<string, []>("reduce_mean_131_axes_0"), val = tensor<int32, [3]>([2, 3, 4])];
            tensor<bool, []> reduce_mean_131_keep_dims_0 = const()[name = tensor<string, []>("reduce_mean_131_keep_dims_0"), val = tensor<bool, []>(true)];
            tensor<fp16, [2, 32, 1, 1, 1]> reduce_mean_131_cast = reduce_mean(axes = reduce_mean_131_axes_0, keep_dims = reduce_mean_131_keep_dims_0, x = square_43_cast)[name = tensor<string, []>("reduce_mean_131_cast")];
            tensor<fp16, []> add_86_y_0_to_fp16 = const()[name = tensor<string, []>("add_86_y_0_to_fp16"), val = tensor<fp16, []>(0x1.5p-17)];
            tensor<fp16, [2, 32, 1, 1, 1]> add_86_cast = add(x = reduce_mean_131_cast, y = add_86_y_0_to_fp16)[name = tensor<string, []>("add_86_cast")];
            tensor<fp16, [2, 32, 1, 1, 1]> sqrt_43_cast = sqrt(x = add_86_cast)[name = tensor<string, []>("sqrt_43_cast")];
            tensor<fp16, [2, 32, 20, 128, 128]> real_div_43_cast = real_div(x = sub_86_cast, y = sqrt_43_cast)[name = tensor<string, []>("real_div_43_cast")];
            tensor<int32, [4]> reshape_173_shape_0 = const()[name = tensor<string, []>("reshape_173_shape_0"), val = tensor<int32, [4]>([2, 640, 128, 128])];
            tensor<fp16, [2, 640, 128, 128]> reshape_173_cast = reshape(shape = reshape_173_shape_0, x = real_div_43_cast)[name = tensor<string, []>("reshape_173_cast")];
            tensor<fp16, [640]> add_87_gamma_0_to_fp16 = const()[name = tensor<string, []>("add_87_gamma_0_to_fp16"), val = tensor<fp16, [640]>(BLOBFILE(path = tensor<string, []>("@model_path/weights/weight.bin"), offset = tensor<uint64, []>(5128276992)))];
            tensor<fp16, [640]> add_87_beta_0_to_fp16 = const()[name = tensor<string, []>("add_87_beta_0_to_fp16"), val = tensor<fp16, [640]>(BLOBFILE(path = tensor<string, []>("@model_path/weights/weight.bin"), offset = tensor<uint64, []>(5128278336)))];
            tensor<fp16, []> add_87_epsilon_0_to_fp16 = const()[name = tensor<string, []>("add_87_epsilon_0_to_fp16"), val = tensor<fp16, []>(0x1.5p-17)];
            tensor<fp16, [2, 640, 128, 128]> add_87_cast = batch_norm(beta = add_87_beta_0_to_fp16, epsilon = add_87_epsilon_0_to_fp16, gamma = add_87_gamma_0_to_fp16, mean = add_11_mean_0_to_fp16, variance = add_11_variance_0_to_fp16, x = reshape_173_cast)[name = tensor<string, []>("add_87_cast")];
            tensor<fp16, [2, 640, 128, 128]> input_859_cast = silu(x = add_87_cast)[name = tensor<string, []>("input_859_cast")];
            tensor<int32, [2]> var_13977 = const()[name = tensor<string, []>("op_13977"), val = tensor<int32, [2]>([1, 1])];
            tensor<int32, [2]> var_13979 = const()[name = tensor<string, []>("op_13979"), val = tensor<int32, [2]>([1, 1])];
            tensor<string, []> hidden_states_591_pad_type_0 = const()[name = tensor<string, []>("hidden_states_591_pad_type_0"), val = tensor<string, []>("custom")];
            tensor<int32, [4]> hidden_states_591_pad_0 = const()[name = tensor<string, []>("hidden_states_591_pad_0"), val = tensor<int32, [4]>([1, 1, 1, 1])];
            tensor<fp16, [320, 640, 3, 3]> up_blocks_2_resnets_2_conv1_weight_to_fp16 = const()[name = tensor<string, []>("up_blocks_2_resnets_2_conv1_weight_to_fp16"), val = tensor<fp16, [320, 640, 3, 3]>(BLOBFILE(path = tensor<string, []>("@model_path/weights/weight.bin"), offset = tensor<uint64, []>(5128279680)))];
            tensor<fp16, [320]> up_blocks_2_resnets_2_conv1_bias_to_fp16 = const()[name = tensor<string, []>("up_blocks_2_resnets_2_conv1_bias_to_fp16"), val = tensor<fp16, [320]>(BLOBFILE(path = tensor<string, []>("@model_path/weights/weight.bin"), offset = tensor<uint64, []>(5131966144)))];
            tensor<fp16, [2, 320, 128, 128]> hidden_states_591_cast = conv(bias = up_blocks_2_resnets_2_conv1_bias_to_fp16, dilations = var_13979, groups = var_13862, pad = hidden_states_591_pad_0, pad_type = hidden_states_591_pad_type_0, strides = var_13977, weight = up_blocks_2_resnets_2_conv1_weight_to_fp16, x = input_859_cast)[name = tensor<string, []>("hidden_states_591_cast")];
            tensor<int32, [2]> var_13985 = const()[name = tensor<string, []>("op_13985"), val = tensor<int32, [2]>([1, 1])];
            tensor<int32, [2]> var_13987 = const()[name = tensor<string, []>("op_13987"), val = tensor<int32, [2]>([1, 1])];
            tensor<string, []> temb_pad_type_0 = const()[name = tensor<string, []>("temb_pad_type_0"), val = tensor<string, []>("custom")];
            tensor<int32, [4]> temb_pad_0 = const()[name = tensor<string, []>("temb_pad_0"), val = tensor<int32, [4]>([0, 0, 0, 0])];
            tensor<fp16, [320, 1280, 1, 1]> up_blocks_2_resnets_2_time_emb_proj_weight_to_fp16 = const()[name = tensor<string, []>("up_blocks_2_resnets_2_time_emb_proj_weight_to_fp16"), val = tensor<fp16, [320, 1280, 1, 1]>(BLOBFILE(path = tensor<string, []>("@model_path/weights/weight.bin"), offset = tensor<uint64, []>(5131966848)))];
            tensor<fp16, [320]> up_blocks_2_resnets_2_time_emb_proj_bias_to_fp16 = const()[name = tensor<string, []>("up_blocks_2_resnets_2_time_emb_proj_bias_to_fp16"), val = tensor<fp16, [320]>(BLOBFILE(path = tensor<string, []>("@model_path/weights/weight.bin"), offset = tensor<uint64, []>(5132786112)))];
            tensor<fp16, [2, 320, 1, 1]> temb_cast = conv(bias = up_blocks_2_resnets_2_time_emb_proj_bias_to_fp16, dilations = var_13987, groups = var_13862, pad = temb_pad_0, pad_type = temb_pad_type_0, strides = var_13985, weight = up_blocks_2_resnets_2_time_emb_proj_weight_to_fp16, x = input_21_cast)[name = tensor<string, []>("temb_cast")];
            tensor<fp16, [2, 320, 128, 128]> input_863_cast = add(x = hidden_states_591_cast, y = temb_cast)[name = tensor<string, []>("input_863_cast")];
            tensor<int32, [5]> reshape_176_shape_0 = const()[name = tensor<string, []>("reshape_176_shape_0"), val = tensor<int32, [5]>([2, 32, 10, 128, 128])];
            tensor<fp16, [2, 32, 10, 128, 128]> reshape_176_cast = reshape(shape = reshape_176_shape_0, x = input_863_cast)[name = tensor<string, []>("reshape_176_cast")];
            tensor<int32, [3]> reduce_mean_132_axes_0 = const()[name = tensor<string, []>("reduce_mean_132_axes_0"), val = tensor<int32, [3]>([2, 3, 4])];
            tensor<bool, []> reduce_mean_132_keep_dims_0 = const()[name = tensor<string, []>("reduce_mean_132_keep_dims_0"), val = tensor<bool, []>(true)];
            tensor<fp16, [2, 32, 1, 1, 1]> reduce_mean_132_cast = reduce_mean(axes = reduce_mean_132_axes_0, keep_dims = reduce_mean_132_keep_dims_0, x = reshape_176_cast)[name = tensor<string, []>("reduce_mean_132_cast")];
            tensor<fp16, [2, 32, 10, 128, 128]> sub_88_cast = sub(x = reshape_176_cast, y = reduce_mean_132_cast)[name = tensor<string, []>("sub_88_cast")];
            tensor<fp16, [2, 32, 10, 128, 128]> square_44_cast = square(x = sub_88_cast)[name = tensor<string, []>("square_44_cast")];
            tensor<int32, [3]> reduce_mean_134_axes_0 = const()[name = tensor<string, []>("reduce_mean_134_axes_0"), val = tensor<int32, [3]>([2, 3, 4])];
            tensor<bool, []> reduce_mean_134_keep_dims_0 = const()[name = tensor<string, []>("reduce_mean_134_keep_dims_0"), val = tensor<bool, []>(true)];
            tensor<fp16, [2, 32, 1, 1, 1]> reduce_mean_134_cast = reduce_mean(axes = reduce_mean_134_axes_0, keep_dims = reduce_mean_134_keep_dims_0, x = square_44_cast)[name = tensor<string, []>("reduce_mean_134_cast")];
            tensor<fp16, []> add_88_y_0_to_fp16 = const()[name = tensor<string, []>("add_88_y_0_to_fp16"), val = tensor<fp16, []>(0x1.5p-17)];
            tensor<fp16, [2, 32, 1, 1, 1]> add_88_cast = add(x = reduce_mean_134_cast, y = add_88_y_0_to_fp16)[name = tensor<string, []>("add_88_cast")];
            tensor<fp16, [2, 32, 1, 1, 1]> sqrt_44_cast = sqrt(x = add_88_cast)[name = tensor<string, []>("sqrt_44_cast")];
            tensor<fp16, [2, 32, 10, 128, 128]> real_div_44_cast = real_div(x = sub_88_cast, y = sqrt_44_cast)[name = tensor<string, []>("real_div_44_cast")];
            tensor<int32, [4]> reshape_177_shape_0 = const()[name = tensor<string, []>("reshape_177_shape_0"), val = tensor<int32, [4]>([2, 320, 128, 128])];
            tensor<fp16, [2, 320, 128, 128]> reshape_177_cast = reshape(shape = reshape_177_shape_0, x = real_div_44_cast)[name = tensor<string, []>("reshape_177_cast")];
            tensor<fp16, [320]> add_89_gamma_0_to_fp16 = const()[name = tensor<string, []>("add_89_gamma_0_to_fp16"), val = tensor<fp16, [320]>(BLOBFILE(path = tensor<string, []>("@model_path/weights/weight.bin"), offset = tensor<uint64, []>(5132786816)))];
            tensor<fp16, [320]> add_89_beta_0_to_fp16 = const()[name = tensor<string, []>("add_89_beta_0_to_fp16"), val = tensor<fp16, [320]>(BLOBFILE(path = tensor<string, []>("@model_path/weights/weight.bin"), offset = tensor<uint64, []>(5132787520)))];
            tensor<fp16, []> add_89_epsilon_0_to_fp16 = const()[name = tensor<string, []>("add_89_epsilon_0_to_fp16"), val = tensor<fp16, []>(0x1.5p-17)];
            tensor<fp16, [2, 320, 128, 128]> add_89_cast = batch_norm(beta = add_89_beta_0_to_fp16, epsilon = add_89_epsilon_0_to_fp16, gamma = add_89_gamma_0_to_fp16, mean = add_1_mean_0_to_fp16, variance = add_1_variance_0_to_fp16, x = reshape_177_cast)[name = tensor<string, []>("add_89_cast")];
            tensor<fp16, [2, 320, 128, 128]> input_867_cast = silu(x = add_89_cast)[name = tensor<string, []>("input_867_cast")];
            tensor<int32, [2]> var_13997 = const()[name = tensor<string, []>("op_13997"), val = tensor<int32, [2]>([1, 1])];
            tensor<int32, [2]> var_13999 = const()[name = tensor<string, []>("op_13999"), val = tensor<int32, [2]>([1, 1])];
            tensor<string, []> hidden_states_pad_type_0 = const()[name = tensor<string, []>("hidden_states_pad_type_0"), val = tensor<string, []>("custom")];
            tensor<int32, [4]> hidden_states_pad_0 = const()[name = tensor<string, []>("hidden_states_pad_0"), val = tensor<int32, [4]>([1, 1, 1, 1])];
            tensor<fp16, [320, 320, 3, 3]> up_blocks_2_resnets_2_conv2_weight_to_fp16 = const()[name = tensor<string, []>("up_blocks_2_resnets_2_conv2_weight_to_fp16"), val = tensor<fp16, [320, 320, 3, 3]>(BLOBFILE(path = tensor<string, []>("@model_path/weights/weight.bin"), offset = tensor<uint64, []>(5132788224)))];
            tensor<fp16, [320]> up_blocks_2_resnets_2_conv2_bias_to_fp16 = const()[name = tensor<string, []>("up_blocks_2_resnets_2_conv2_bias_to_fp16"), val = tensor<fp16, [320]>(BLOBFILE(path = tensor<string, []>("@model_path/weights/weight.bin"), offset = tensor<uint64, []>(5134631488)))];
            tensor<fp16, [2, 320, 128, 128]> hidden_states_cast = conv(bias = up_blocks_2_resnets_2_conv2_bias_to_fp16, dilations = var_13999, groups = var_13862, pad = hidden_states_pad_0, pad_type = hidden_states_pad_type_0, strides = var_13997, weight = up_blocks_2_resnets_2_conv2_weight_to_fp16, x = input_867_cast)[name = tensor<string, []>("hidden_states_cast")];
            tensor<int32, [2]> var_14004 = const()[name = tensor<string, []>("op_14004"), val = tensor<int32, [2]>([1, 1])];
            tensor<int32, [2]> var_14006 = const()[name = tensor<string, []>("op_14006"), val = tensor<int32, [2]>([1, 1])];
            tensor<string, []> x_pad_type_0 = const()[name = tensor<string, []>("x_pad_type_0"), val = tensor<string, []>("custom")];
            tensor<int32, [4]> x_pad_0 = const()[name = tensor<string, []>("x_pad_0"), val = tensor<int32, [4]>([0, 0, 0, 0])];
            tensor<fp16, [320, 640, 1, 1]> up_blocks_2_resnets_2_conv_shortcut_weight_to_fp16 = const()[name = tensor<string, []>("up_blocks_2_resnets_2_conv_shortcut_weight_to_fp16"), val = tensor<fp16, [320, 640, 1, 1]>(BLOBFILE(path = tensor<string, []>("@model_path/weights/weight.bin"), offset = tensor<uint64, []>(5134632192)))];
            tensor<fp16, [320]> up_blocks_2_resnets_2_conv_shortcut_bias_to_fp16 = const()[name = tensor<string, []>("up_blocks_2_resnets_2_conv_shortcut_bias_to_fp16"), val = tensor<fp16, [320]>(BLOBFILE(path = tensor<string, []>("@model_path/weights/weight.bin"), offset = tensor<uint64, []>(5135041856)))];
            tensor<fp16, [2, 320, 128, 128]> x_cast = conv(bias = up_blocks_2_resnets_2_conv_shortcut_bias_to_fp16, dilations = var_14006, groups = var_13862, pad = x_pad_0, pad_type = x_pad_type_0, strides = var_14004, weight = up_blocks_2_resnets_2_conv_shortcut_weight_to_fp16, x = input_855_cast)[name = tensor<string, []>("x_cast")];
            tensor<fp16, [2, 320, 128, 128]> input_869_cast = add(x = x_cast, y = hidden_states_cast)[name = tensor<string, []>("input_869_cast")];
            tensor<int32, [5]> reshape_180_shape_0 = const()[name = tensor<string, []>("reshape_180_shape_0"), val = tensor<int32, [5]>([2, 32, 10, 128, 128])];
            tensor<fp16, [2, 32, 10, 128, 128]> reshape_180_cast = reshape(shape = reshape_180_shape_0, x = input_869_cast)[name = tensor<string, []>("reshape_180_cast")];
            tensor<int32, [3]> reduce_mean_135_axes_0 = const()[name = tensor<string, []>("reduce_mean_135_axes_0"), val = tensor<int32, [3]>([2, 3, 4])];
            tensor<bool, []> reduce_mean_135_keep_dims_0 = const()[name = tensor<string, []>("reduce_mean_135_keep_dims_0"), val = tensor<bool, []>(true)];
            tensor<fp16, [2, 32, 1, 1, 1]> reduce_mean_135_cast = reduce_mean(axes = reduce_mean_135_axes_0, keep_dims = reduce_mean_135_keep_dims_0, x = reshape_180_cast)[name = tensor<string, []>("reduce_mean_135_cast")];
            tensor<fp16, [2, 32, 10, 128, 128]> sub_90_cast = sub(x = reshape_180_cast, y = reduce_mean_135_cast)[name = tensor<string, []>("sub_90_cast")];
            tensor<fp16, [2, 32, 10, 128, 128]> square_45_cast = square(x = sub_90_cast)[name = tensor<string, []>("square_45_cast")];
            tensor<int32, [3]> reduce_mean_137_axes_0 = const()[name = tensor<string, []>("reduce_mean_137_axes_0"), val = tensor<int32, [3]>([2, 3, 4])];
            tensor<bool, []> reduce_mean_137_keep_dims_0 = const()[name = tensor<string, []>("reduce_mean_137_keep_dims_0"), val = tensor<bool, []>(true)];
            tensor<fp16, [2, 32, 1, 1, 1]> reduce_mean_137_cast = reduce_mean(axes = reduce_mean_137_axes_0, keep_dims = reduce_mean_137_keep_dims_0, x = square_45_cast)[name = tensor<string, []>("reduce_mean_137_cast")];
            tensor<fp16, []> add_90_y_0_to_fp16 = const()[name = tensor<string, []>("add_90_y_0_to_fp16"), val = tensor<fp16, []>(0x1.5p-17)];
            tensor<fp16, [2, 32, 1, 1, 1]> add_90_cast = add(x = reduce_mean_137_cast, y = add_90_y_0_to_fp16)[name = tensor<string, []>("add_90_cast")];
            tensor<fp16, [2, 32, 1, 1, 1]> sqrt_45_cast = sqrt(x = add_90_cast)[name = tensor<string, []>("sqrt_45_cast")];
            tensor<fp16, [2, 32, 10, 128, 128]> real_div_45_cast = real_div(x = sub_90_cast, y = sqrt_45_cast)[name = tensor<string, []>("real_div_45_cast")];
            tensor<int32, [4]> reshape_181_shape_0 = const()[name = tensor<string, []>("reshape_181_shape_0"), val = tensor<int32, [4]>([2, 320, 128, 128])];
            tensor<fp16, [2, 320, 128, 128]> reshape_181_cast = reshape(shape = reshape_181_shape_0, x = real_div_45_cast)[name = tensor<string, []>("reshape_181_cast")];
            tensor<fp16, [320]> add_91_gamma_0_to_fp16 = const()[name = tensor<string, []>("add_91_gamma_0_to_fp16"), val = tensor<fp16, [320]>(BLOBFILE(path = tensor<string, []>("@model_path/weights/weight.bin"), offset = tensor<uint64, []>(5135042560)))];
            tensor<fp16, [320]> add_91_beta_0_to_fp16 = const()[name = tensor<string, []>("add_91_beta_0_to_fp16"), val = tensor<fp16, [320]>(BLOBFILE(path = tensor<string, []>("@model_path/weights/weight.bin"), offset = tensor<uint64, []>(5135043264)))];
            tensor<fp16, []> add_91_epsilon_0_to_fp16 = const()[name = tensor<string, []>("add_91_epsilon_0_to_fp16"), val = tensor<fp16, []>(0x1.5p-17)];
            tensor<fp16, [2, 320, 128, 128]> add_91_cast = batch_norm(beta = add_91_beta_0_to_fp16, epsilon = add_91_epsilon_0_to_fp16, gamma = add_91_gamma_0_to_fp16, mean = add_1_mean_0_to_fp16, variance = add_1_variance_0_to_fp16, x = reshape_181_cast)[name = tensor<string, []>("add_91_cast")];
            tensor<fp16, [2, 320, 128, 128]> input_cast = silu(x = add_91_cast)[name = tensor<string, []>("input_cast")];
            tensor<int32, []> var_14020 = const()[name = tensor<string, []>("op_14020"), val = tensor<int32, []>(1)];
            tensor<int32, [2]> var_14023 = const()[name = tensor<string, []>("op_14023"), val = tensor<int32, [2]>([1, 1])];
            tensor<int32, [2]> var_14025 = const()[name = tensor<string, []>("op_14025"), val = tensor<int32, [2]>([1, 1])];
            tensor<string, []> var_14027_pad_type_0 = const()[name = tensor<string, []>("op_14027_pad_type_0"), val = tensor<string, []>("custom")];
            tensor<int32, [4]> var_14027_pad_0 = const()[name = tensor<string, []>("op_14027_pad_0"), val = tensor<int32, [4]>([1, 1, 1, 1])];
            tensor<fp16, [4, 320, 3, 3]> conv_out_weight_to_fp16 = const()[name = tensor<string, []>("conv_out_weight_to_fp16"), val = tensor<fp16, [4, 320, 3, 3]>(BLOBFILE(path = tensor<string, []>("@model_path/weights/weight.bin"), offset = tensor<uint64, []>(5135043968)))];
            tensor<fp16, [4]> conv_out_bias_to_fp16 = const()[name = tensor<string, []>("conv_out_bias_to_fp16"), val = tensor<fp16, [4]>([0x1.664p-9, -0x1.72p-10, 0x1.06p-9, -0x1.9b8p-9])];
            tensor<fp16, [2, 4, 128, 128]> var_14027_cast = conv(bias = conv_out_bias_to_fp16, dilations = var_14025, groups = var_14020, pad = var_14027_pad_0, pad_type = var_14027_pad_type_0, strides = var_14023, weight = conv_out_weight_to_fp16, x = input_cast)[name = tensor<string, []>("op_14027_cast")];
            tensor<string, []> var_14027_cast_to_fp32_dtype_0 = const()[name = tensor<string, []>("op_14027_cast_to_fp32_dtype_0"), val = tensor<string, []>("fp32")];
            tensor<fp32, [2, 4, 128, 128]> noise_pred = cast(dtype = var_14027_cast_to_fp32_dtype_0, x = var_14027_cast)[name = tensor<string, []>("cast_1013")];
        } -> (noise_pred);
}