program(1.0)
[buildInfo = dict<tensor<string, []>, tensor<string, []>>({{"coremlc-component-MIL", "5.33.5"}, {"coremlc-version", "1877.40.3"}, {"coremltools-component-torch", "2.0.1"}, {"coremltools-version", "7.0"}})]
{
    func main<ios16>(tensor<fp16, [2, 1280, 1, 77]> encoder_hidden_states, tensor<fp16, [2, 4, 128, 128]> sample, tensor<fp16, [2, 1280]> text_embeds, tensor<fp16, [2, 5]> time_ids, tensor<fp16, [2]> timestep) {
            tensor<int32, []> var_28 = const()[name = tensor<string, []>("op_28"), val = tensor<int32, []>(-1)];
            tensor<int32, [1]> var_45_axes_0 = const()[name = tensor<string, []>("op_45_axes_0"), val = tensor<int32, [1]>([1])];
            tensor<fp16, [2, 1]> var_45_cast = expand_dims(axes = var_45_axes_0, x = timestep)[name = tensor<string, []>("op_45_cast")];
            tensor<fp16, [1, 192]> var_47_to_fp16 = const()[name = tensor<string, []>("op_47_to_fp16"), val = tensor<fp16, [1, 192]>(BLOBFILE(path = tensor<string, []>("@model_path/weights/weight.bin"), offset = tensor<uint64, []>(64)))];
            tensor<fp16, [2, 192]> emb_3_cast = mul(x = var_45_cast, y = var_47_to_fp16)[name = tensor<string, []>("emb_3_cast")];
            tensor<fp16, [2, 192]> var_52_cast = sin(x = emb_3_cast)[name = tensor<string, []>("op_52_cast")];
            tensor<fp16, [2, 192]> var_53_cast = cos(x = emb_3_cast)[name = tensor<string, []>("op_53_cast")];
            tensor<bool, []> emb_7_interleave_0 = const()[name = tensor<string, []>("emb_7_interleave_0"), val = tensor<bool, []>(false)];
            tensor<fp16, [2, 384]> emb_7_cast = concat(axis = var_28, interleave = emb_7_interleave_0, values = (var_52_cast, var_53_cast))[name = tensor<string, []>("emb_7_cast")];
            tensor<int32, [2]> var_57_begin_0 = const()[name = tensor<string, []>("op_57_begin_0"), val = tensor<int32, [2]>([0, 192])];
            tensor<int32, [2]> var_57_end_0 = const()[name = tensor<string, []>("op_57_end_0"), val = tensor<int32, [2]>([2, 384])];
            tensor<bool, [2]> var_57_end_mask_0 = const()[name = tensor<string, []>("op_57_end_mask_0"), val = tensor<bool, [2]>([true, true])];
            tensor<fp16, [2, 192]> var_57_cast = slice_by_index(begin = var_57_begin_0, end = var_57_end_0, end_mask = var_57_end_mask_0, x = emb_7_cast)[name = tensor<string, []>("op_57_cast")];
            tensor<int32, [2]> var_59_begin_0 = const()[name = tensor<string, []>("op_59_begin_0"), val = tensor<int32, [2]>([0, 0])];
            tensor<int32, [2]> var_59_end_0 = const()[name = tensor<string, []>("op_59_end_0"), val = tensor<int32, [2]>([2, 192])];
            tensor<bool, [2]> var_59_end_mask_0 = const()[name = tensor<string, []>("op_59_end_mask_0"), val = tensor<bool, [2]>([true, false])];
            tensor<fp16, [2, 192]> var_59_cast = slice_by_index(begin = var_59_begin_0, end = var_59_end_0, end_mask = var_59_end_mask_0, x = emb_7_cast)[name = tensor<string, []>("op_59_cast")];
            tensor<bool, []> sample_3_interleave_0 = const()[name = tensor<string, []>("sample_3_interleave_0"), val = tensor<bool, []>(false)];
            tensor<fp16, [2, 384]> sample_3_cast = concat(axis = var_28, interleave = sample_3_interleave_0, values = (var_57_cast, var_59_cast))[name = tensor<string, []>("sample_3_cast")];
            tensor<int32, []> var_62 = const()[name = tensor<string, []>("op_62"), val = tensor<int32, []>(1)];
            tensor<int32, [1]> var_69_axes_0 = const()[name = tensor<string, []>("op_69_axes_0"), val = tensor<int32, [1]>([-1])];
            tensor<fp16, [2, 384, 1]> var_69_cast = expand_dims(axes = var_69_axes_0, x = sample_3_cast)[name = tensor<string, []>("op_69_cast")];
            tensor<int32, [1]> input_1_axes_0 = const()[name = tensor<string, []>("input_1_axes_0"), val = tensor<int32, [1]>([-1])];
            tensor<fp16, [2, 384, 1, 1]> input_1_cast = expand_dims(axes = input_1_axes_0, x = var_69_cast)[name = tensor<string, []>("input_1_cast")];
            tensor<int32, [2]> var_73 = const()[name = tensor<string, []>("op_73"), val = tensor<int32, [2]>([1, 1])];
            tensor<int32, [2]> var_75 = const()[name = tensor<string, []>("op_75"), val = tensor<int32, [2]>([1, 1])];
            tensor<string, []> input_3_pad_type_0 = const()[name = tensor<string, []>("input_3_pad_type_0"), val = tensor<string, []>("custom")];
            tensor<int32, [4]> input_3_pad_0 = const()[name = tensor<string, []>("input_3_pad_0"), val = tensor<int32, [4]>([0, 0, 0, 0])];
            tensor<fp16, [1536, 384, 1, 1]> time_embedding_linear_1_weight_to_fp16 = const()[name = tensor<string, []>("time_embedding_linear_1_weight_to_fp16"), val = tensor<fp16, [1536, 384, 1, 1]>(BLOBFILE(path = tensor<string, []>("@model_path/weights/weight.bin"), offset = tensor<uint64, []>(512)))];
            tensor<fp16, [1536]> time_embedding_linear_1_bias_to_fp16 = const()[name = tensor<string, []>("time_embedding_linear_1_bias_to_fp16"), val = tensor<fp16, [1536]>(BLOBFILE(path = tensor<string, []>("@model_path/weights/weight.bin"), offset = tensor<uint64, []>(1180224)))];
            tensor<fp16, [2, 1536, 1, 1]> input_3_cast = conv(bias = time_embedding_linear_1_bias_to_fp16, dilations = var_75, groups = var_62, pad = input_3_pad_0, pad_type = input_3_pad_type_0, strides = var_73, weight = time_embedding_linear_1_weight_to_fp16, x = input_1_cast)[name = tensor<string, []>("input_3_cast")];
            tensor<fp16, [2, 1536, 1, 1]> input_5_cast = silu(x = input_3_cast)[name = tensor<string, []>("input_5_cast")];
            tensor<int32, [2]> var_81 = const()[name = tensor<string, []>("op_81"), val = tensor<int32, [2]>([1, 1])];
            tensor<int32, [2]> var_83 = const()[name = tensor<string, []>("op_83"), val = tensor<int32, [2]>([1, 1])];
            tensor<string, []> emb_pad_type_0 = const()[name = tensor<string, []>("emb_pad_type_0"), val = tensor<string, []>("custom")];
            tensor<int32, [4]> emb_pad_0 = const()[name = tensor<string, []>("emb_pad_0"), val = tensor<int32, [4]>([0, 0, 0, 0])];
            tensor<fp16, [1536, 1536, 1, 1]> time_embedding_linear_2_weight_to_fp16 = const()[name = tensor<string, []>("time_embedding_linear_2_weight_to_fp16"), val = tensor<fp16, [1536, 1536, 1, 1]>(BLOBFILE(path = tensor<string, []>("@model_path/weights/weight.bin"), offset = tensor<uint64, []>(1183360)))];
            tensor<fp16, [1536]> time_embedding_linear_2_bias_to_fp16 = const()[name = tensor<string, []>("time_embedding_linear_2_bias_to_fp16"), val = tensor<fp16, [1536]>(BLOBFILE(path = tensor<string, []>("@model_path/weights/weight.bin"), offset = tensor<uint64, []>(5902016)))];
            tensor<fp16, [2, 1536, 1, 1]> emb_cast = conv(bias = time_embedding_linear_2_bias_to_fp16, dilations = var_83, groups = var_62, pad = emb_pad_0, pad_type = emb_pad_type_0, strides = var_81, weight = time_embedding_linear_2_weight_to_fp16, x = input_5_cast)[name = tensor<string, []>("emb_cast")];
            tensor<int32, [1]> concat_0 = const()[name = tensor<string, []>("concat_0"), val = tensor<int32, [1]>([10])];
            tensor<fp16, [10]> timesteps_cast = reshape(shape = concat_0, x = time_ids)[name = tensor<string, []>("timesteps_cast")];
            tensor<int32, []> var_89 = const()[name = tensor<string, []>("op_89"), val = tensor<int32, []>(-1)];
            tensor<int32, [1]> var_106_axes_0 = const()[name = tensor<string, []>("op_106_axes_0"), val = tensor<int32, [1]>([1])];
            tensor<fp16, [10, 1]> var_106_cast = expand_dims(axes = var_106_axes_0, x = timesteps_cast)[name = tensor<string, []>("op_106_cast")];
            tensor<fp16, [1, 128]> var_108_to_fp16 = const()[name = tensor<string, []>("op_108_to_fp16"), val = tensor<fp16, [1, 128]>(BLOBFILE(path = tensor<string, []>("@model_path/weights/weight.bin"), offset = tensor<uint64, []>(5905152)))];
            tensor<fp16, [10, 128]> emb_11_cast = mul(x = var_106_cast, y = var_108_to_fp16)[name = tensor<string, []>("emb_11_cast")];
            tensor<fp16, [10, 128]> var_113_cast = sin(x = emb_11_cast)[name = tensor<string, []>("op_113_cast")];
            tensor<fp16, [10, 128]> var_114_cast = cos(x = emb_11_cast)[name = tensor<string, []>("op_114_cast")];
            tensor<bool, []> emb_15_interleave_0 = const()[name = tensor<string, []>("emb_15_interleave_0"), val = tensor<bool, []>(false)];
            tensor<fp16, [10, 256]> emb_15_cast = concat(axis = var_89, interleave = emb_15_interleave_0, values = (var_113_cast, var_114_cast))[name = tensor<string, []>("emb_15_cast")];
            tensor<int32, [2]> var_118_begin_0 = const()[name = tensor<string, []>("op_118_begin_0"), val = tensor<int32, [2]>([0, 128])];
            tensor<int32, [2]> var_118_end_0 = const()[name = tensor<string, []>("op_118_end_0"), val = tensor<int32, [2]>([10, 256])];
            tensor<bool, [2]> var_118_end_mask_0 = const()[name = tensor<string, []>("op_118_end_mask_0"), val = tensor<bool, [2]>([true, true])];
            tensor<fp16, [10, 128]> var_118_cast = slice_by_index(begin = var_118_begin_0, end = var_118_end_0, end_mask = var_118_end_mask_0, x = emb_15_cast)[name = tensor<string, []>("op_118_cast")];
            tensor<int32, [2]> var_120_begin_0 = const()[name = tensor<string, []>("op_120_begin_0"), val = tensor<int32, [2]>([0, 0])];
            tensor<int32, [2]> var_120_end_0 = const()[name = tensor<string, []>("op_120_end_0"), val = tensor<int32, [2]>([10, 128])];
            tensor<bool, [2]> var_120_end_mask_0 = const()[name = tensor<string, []>("op_120_end_mask_0"), val = tensor<bool, [2]>([true, false])];
            tensor<fp16, [10, 128]> var_120_cast = slice_by_index(begin = var_120_begin_0, end = var_120_end_0, end_mask = var_120_end_mask_0, x = emb_15_cast)[name = tensor<string, []>("op_120_cast")];
            tensor<bool, []> time_embeds_1_interleave_0 = const()[name = tensor<string, []>("time_embeds_1_interleave_0"), val = tensor<bool, []>(false)];
            tensor<fp16, [10, 256]> time_embeds_1_cast = concat(axis = var_89, interleave = time_embeds_1_interleave_0, values = (var_118_cast, var_120_cast))[name = tensor<string, []>("time_embeds_1_cast")];
            tensor<int32, [2]> var_128 = const()[name = tensor<string, []>("op_128"), val = tensor<int32, [2]>([2, -1])];
            tensor<fp16, [2, 1280]> time_embeds_cast = reshape(shape = var_128, x = time_embeds_1_cast)[name = tensor<string, []>("time_embeds_cast")];
            tensor<int32, []> var_131 = const()[name = tensor<string, []>("op_131"), val = tensor<int32, []>(-1)];
            tensor<bool, []> sample_interleave_0 = const()[name = tensor<string, []>("sample_interleave_0"), val = tensor<bool, []>(false)];
            tensor<fp16, [2, 2560]> sample_cast = concat(axis = var_131, interleave = sample_interleave_0, values = (text_embeds, time_embeds_cast))[name = tensor<string, []>("sample_cast")];
            tensor<int32, []> var_133 = const()[name = tensor<string, []>("op_133"), val = tensor<int32, []>(1)];
            tensor<int32, [1]> var_140_axes_0 = const()[name = tensor<string, []>("op_140_axes_0"), val = tensor<int32, [1]>([-1])];
            tensor<fp16, [2, 2560, 1]> var_140_cast = expand_dims(axes = var_140_axes_0, x = sample_cast)[name = tensor<string, []>("op_140_cast")];
            tensor<int32, [1]> input_7_axes_0 = const()[name = tensor<string, []>("input_7_axes_0"), val = tensor<int32, [1]>([-1])];
            tensor<fp16, [2, 2560, 1, 1]> input_7_cast = expand_dims(axes = input_7_axes_0, x = var_140_cast)[name = tensor<string, []>("input_7_cast")];
            tensor<int32, [2]> var_144 = const()[name = tensor<string, []>("op_144"), val = tensor<int32, [2]>([1, 1])];
            tensor<int32, [2]> var_146 = const()[name = tensor<string, []>("op_146"), val = tensor<int32, [2]>([1, 1])];
            tensor<string, []> input_9_pad_type_0 = const()[name = tensor<string, []>("input_9_pad_type_0"), val = tensor<string, []>("custom")];
            tensor<int32, [4]> input_9_pad_0 = const()[name = tensor<string, []>("input_9_pad_0"), val = tensor<int32, [4]>([0, 0, 0, 0])];
            tensor<fp16, [1536, 2560, 1, 1]> add_embedding_linear_1_weight_to_fp16 = const()[name = tensor<string, []>("add_embedding_linear_1_weight_to_fp16"), val = tensor<fp16, [1536, 2560, 1, 1]>(BLOBFILE(path = tensor<string, []>("@model_path/weights/weight.bin"), offset = tensor<uint64, []>(5905472)))];
            tensor<fp16, [1536]> add_embedding_linear_1_bias_to_fp16 = const()[name = tensor<string, []>("add_embedding_linear_1_bias_to_fp16"), val = tensor<fp16, [1536]>(BLOBFILE(path = tensor<string, []>("@model_path/weights/weight.bin"), offset = tensor<uint64, []>(13769856)))];
            tensor<fp16, [2, 1536, 1, 1]> input_9_cast = conv(bias = add_embedding_linear_1_bias_to_fp16, dilations = var_146, groups = var_133, pad = input_9_pad_0, pad_type = input_9_pad_type_0, strides = var_144, weight = add_embedding_linear_1_weight_to_fp16, x = input_7_cast)[name = tensor<string, []>("input_9_cast")];
            tensor<fp16, [2, 1536, 1, 1]> input_11_cast = silu(x = input_9_cast)[name = tensor<string, []>("input_11_cast")];
            tensor<int32, [2]> var_152 = const()[name = tensor<string, []>("op_152"), val = tensor<int32, [2]>([1, 1])];
            tensor<int32, [2]> var_154 = const()[name = tensor<string, []>("op_154"), val = tensor<int32, [2]>([1, 1])];
            tensor<string, []> aug_emb_pad_type_0 = const()[name = tensor<string, []>("aug_emb_pad_type_0"), val = tensor<string, []>("custom")];
            tensor<int32, [4]> aug_emb_pad_0 = const()[name = tensor<string, []>("aug_emb_pad_0"), val = tensor<int32, [4]>([0, 0, 0, 0])];
            tensor<fp16, [1536, 1536, 1, 1]> add_embedding_linear_2_weight_to_fp16 = const()[name = tensor<string, []>("add_embedding_linear_2_weight_to_fp16"), val = tensor<fp16, [1536, 1536, 1, 1]>(BLOBFILE(path = tensor<string, []>("@model_path/weights/weight.bin"), offset = tensor<uint64, []>(13772992)))];
            tensor<fp16, [1536]> add_embedding_linear_2_bias_to_fp16 = const()[name = tensor<string, []>("add_embedding_linear_2_bias_to_fp16"), val = tensor<fp16, [1536]>(BLOBFILE(path = tensor<string, []>("@model_path/weights/weight.bin"), offset = tensor<uint64, []>(18491648)))];
            tensor<fp16, [2, 1536, 1, 1]> aug_emb_cast = conv(bias = add_embedding_linear_2_bias_to_fp16, dilations = var_154, groups = var_133, pad = aug_emb_pad_0, pad_type = aug_emb_pad_type_0, strides = var_152, weight = add_embedding_linear_2_weight_to_fp16, x = input_11_cast)[name = tensor<string, []>("aug_emb_cast")];
            tensor<fp16, [2, 1536, 1, 1]> input_19_cast = add(x = emb_cast, y = aug_emb_cast)[name = tensor<string, []>("input_19_cast")];
            tensor<int32, []> var_162 = const()[name = tensor<string, []>("op_162"), val = tensor<int32, []>(1)];
            tensor<int32, [2]> var_165 = const()[name = tensor<string, []>("op_165"), val = tensor<int32, [2]>([1, 1])];
            tensor<int32, [2]> var_167 = const()[name = tensor<string, []>("op_167"), val = tensor<int32, [2]>([1, 1])];
            tensor<string, []> input_13_pad_type_0 = const()[name = tensor<string, []>("input_13_pad_type_0"), val = tensor<string, []>("custom")];
            tensor<int32, [4]> input_13_pad_0 = const()[name = tensor<string, []>("input_13_pad_0"), val = tensor<int32, [4]>([1, 1, 1, 1])];
            tensor<fp16, [384, 4, 3, 3]> conv_in_weight_to_fp16 = const()[name = tensor<string, []>("conv_in_weight_to_fp16"), val = tensor<fp16, [384, 4, 3, 3]>(BLOBFILE(path = tensor<string, []>("@model_path/weights/weight.bin"), offset = tensor<uint64, []>(18494784)))];
            tensor<fp16, [384]> conv_in_bias_to_fp16 = const()[name = tensor<string, []>("conv_in_bias_to_fp16"), val = tensor<fp16, [384]>(BLOBFILE(path = tensor<string, []>("@model_path/weights/weight.bin"), offset = tensor<uint64, []>(18522496)))];
            tensor<fp16, [2, 384, 128, 128]> input_13_cast = conv(bias = conv_in_bias_to_fp16, dilations = var_167, groups = var_162, pad = input_13_pad_0, pad_type = input_13_pad_type_0, strides = var_165, weight = conv_in_weight_to_fp16, x = sample)[name = tensor<string, []>("input_13_cast")];
            tensor<int32, []> var_176 = const()[name = tensor<string, []>("op_176"), val = tensor<int32, []>(1)];
            tensor<int32, [5]> reshape_0_shape_0 = const()[name = tensor<string, []>("reshape_0_shape_0"), val = tensor<int32, [5]>([2, 32, 12, 128, 128])];
            tensor<fp16, [2, 32, 12, 128, 128]> reshape_0_cast = reshape(shape = reshape_0_shape_0, x = input_13_cast)[name = tensor<string, []>("reshape_0_cast")];
            tensor<int32, [3]> reduce_mean_0_axes_0 = const()[name = tensor<string, []>("reduce_mean_0_axes_0"), val = tensor<int32, [3]>([2, 3, 4])];
            tensor<bool, []> reduce_mean_0_keep_dims_0 = const()[name = tensor<string, []>("reduce_mean_0_keep_dims_0"), val = tensor<bool, []>(true)];
            tensor<fp16, [2, 32, 1, 1, 1]> reduce_mean_0_cast = reduce_mean(axes = reduce_mean_0_axes_0, keep_dims = reduce_mean_0_keep_dims_0, x = reshape_0_cast)[name = tensor<string, []>("reduce_mean_0_cast")];
            tensor<fp16, [2, 32, 12, 128, 128]> sub_0_cast = sub(x = reshape_0_cast, y = reduce_mean_0_cast)[name = tensor<string, []>("sub_0_cast")];
            tensor<fp16, [2, 32, 12, 128, 128]> square_0_cast = square(x = sub_0_cast)[name = tensor<string, []>("square_0_cast")];
            tensor<int32, [3]> reduce_mean_2_axes_0 = const()[name = tensor<string, []>("reduce_mean_2_axes_0"), val = tensor<int32, [3]>([2, 3, 4])];
            tensor<bool, []> reduce_mean_2_keep_dims_0 = const()[name = tensor<string, []>("reduce_mean_2_keep_dims_0"), val = tensor<bool, []>(true)];
            tensor<fp16, [2, 32, 1, 1, 1]> reduce_mean_2_cast = reduce_mean(axes = reduce_mean_2_axes_0, keep_dims = reduce_mean_2_keep_dims_0, x = square_0_cast)[name = tensor<string, []>("reduce_mean_2_cast")];
            tensor<fp16, []> add_0_y_0_to_fp16 = const()[name = tensor<string, []>("add_0_y_0_to_fp16"), val = tensor<fp16, []>(0x1.5p-17)];
            tensor<fp16, [2, 32, 1, 1, 1]> add_0_cast = add(x = reduce_mean_2_cast, y = add_0_y_0_to_fp16)[name = tensor<string, []>("add_0_cast")];
            tensor<fp16, [2, 32, 1, 1, 1]> sqrt_0_cast = sqrt(x = add_0_cast)[name = tensor<string, []>("sqrt_0_cast")];
            tensor<fp16, [2, 32, 12, 128, 128]> real_div_0_cast = real_div(x = sub_0_cast, y = sqrt_0_cast)[name = tensor<string, []>("real_div_0_cast")];
            tensor<int32, [4]> reshape_1_shape_0 = const()[name = tensor<string, []>("reshape_1_shape_0"), val = tensor<int32, [4]>([2, 384, 128, 128])];
            tensor<fp16, [2, 384, 128, 128]> reshape_1_cast = reshape(shape = reshape_1_shape_0, x = real_div_0_cast)[name = tensor<string, []>("reshape_1_cast")];
            tensor<fp16, [384]> add_1_mean_0_to_fp16 = const()[name = tensor<string, []>("add_1_mean_0_to_fp16"), val = tensor<fp16, [384]>(BLOBFILE(path = tensor<string, []>("@model_path/weights/weight.bin"), offset = tensor<uint64, []>(18523328)))];
            tensor<fp16, [384]> add_1_variance_0_to_fp16 = const()[name = tensor<string, []>("add_1_variance_0_to_fp16"), val = tensor<fp16, [384]>(BLOBFILE(path = tensor<string, []>("@model_path/weights/weight.bin"), offset = tensor<uint64, []>(18524160)))];
            tensor<fp16, [384]> add_1_gamma_0_to_fp16 = const()[name = tensor<string, []>("add_1_gamma_0_to_fp16"), val = tensor<fp16, [384]>(BLOBFILE(path = tensor<string, []>("@model_path/weights/weight.bin"), offset = tensor<uint64, []>(18524992)))];
            tensor<fp16, [384]> add_1_beta_0_to_fp16 = const()[name = tensor<string, []>("add_1_beta_0_to_fp16"), val = tensor<fp16, [384]>(BLOBFILE(path = tensor<string, []>("@model_path/weights/weight.bin"), offset = tensor<uint64, []>(18525824)))];
            tensor<fp16, []> add_1_epsilon_0_to_fp16 = const()[name = tensor<string, []>("add_1_epsilon_0_to_fp16"), val = tensor<fp16, []>(0x1.5p-17)];
            tensor<fp16, [2, 384, 128, 128]> add_1_cast = batch_norm(beta = add_1_beta_0_to_fp16, epsilon = add_1_epsilon_0_to_fp16, gamma = add_1_gamma_0_to_fp16, mean = add_1_mean_0_to_fp16, variance = add_1_variance_0_to_fp16, x = reshape_1_cast)[name = tensor<string, []>("add_1_cast")];
            tensor<fp16, [2, 384, 128, 128]> input_17_cast = silu(x = add_1_cast)[name = tensor<string, []>("input_17_cast")];
            tensor<int32, [2]> var_194 = const()[name = tensor<string, []>("op_194"), val = tensor<int32, [2]>([1, 1])];
            tensor<int32, [2]> var_196 = const()[name = tensor<string, []>("op_196"), val = tensor<int32, [2]>([1, 1])];
            tensor<string, []> hidden_states_1_pad_type_0 = const()[name = tensor<string, []>("hidden_states_1_pad_type_0"), val = tensor<string, []>("custom")];
            tensor<int32, [4]> hidden_states_1_pad_0 = const()[name = tensor<string, []>("hidden_states_1_pad_0"), val = tensor<int32, [4]>([1, 1, 1, 1])];
            tensor<fp16, [384, 384, 3, 3]> down_blocks_0_resnets_0_conv1_weight_to_fp16 = const()[name = tensor<string, []>("down_blocks_0_resnets_0_conv1_weight_to_fp16"), val = tensor<fp16, [384, 384, 3, 3]>(BLOBFILE(path = tensor<string, []>("@model_path/weights/weight.bin"), offset = tensor<uint64, []>(18526656)))];
            tensor<fp16, [384]> down_blocks_0_resnets_0_conv1_bias_to_fp16 = const()[name = tensor<string, []>("down_blocks_0_resnets_0_conv1_bias_to_fp16"), val = tensor<fp16, [384]>(BLOBFILE(path = tensor<string, []>("@model_path/weights/weight.bin"), offset = tensor<uint64, []>(21180928)))];
            tensor<fp16, [2, 384, 128, 128]> hidden_states_1_cast = conv(bias = down_blocks_0_resnets_0_conv1_bias_to_fp16, dilations = var_196, groups = var_176, pad = hidden_states_1_pad_0, pad_type = hidden_states_1_pad_type_0, strides = var_194, weight = down_blocks_0_resnets_0_conv1_weight_to_fp16, x = input_17_cast)[name = tensor<string, []>("hidden_states_1_cast")];
            tensor<fp16, [2, 1536, 1, 1]> input_21_cast = silu(x = input_19_cast)[name = tensor<string, []>("input_21_cast")];
            tensor<int32, [2]> var_202 = const()[name = tensor<string, []>("op_202"), val = tensor<int32, [2]>([1, 1])];
            tensor<int32, [2]> var_204 = const()[name = tensor<string, []>("op_204"), val = tensor<int32, [2]>([1, 1])];
            tensor<string, []> temb_1_pad_type_0 = const()[name = tensor<string, []>("temb_1_pad_type_0"), val = tensor<string, []>("custom")];
            tensor<int32, [4]> temb_1_pad_0 = const()[name = tensor<string, []>("temb_1_pad_0"), val = tensor<int32, [4]>([0, 0, 0, 0])];
            tensor<fp16, [384, 1536, 1, 1]> down_blocks_0_resnets_0_time_emb_proj_weight_to_fp16 = const()[name = tensor<string, []>("down_blocks_0_resnets_0_time_emb_proj_weight_to_fp16"), val = tensor<fp16, [384, 1536, 1, 1]>(BLOBFILE(path = tensor<string, []>("@model_path/weights/weight.bin"), offset = tensor<uint64, []>(21181760)))];
            tensor<fp16, [384]> down_blocks_0_resnets_0_time_emb_proj_bias_to_fp16 = const()[name = tensor<string, []>("down_blocks_0_resnets_0_time_emb_proj_bias_to_fp16"), val = tensor<fp16, [384]>(BLOBFILE(path = tensor<string, []>("@model_path/weights/weight.bin"), offset = tensor<uint64, []>(22361472)))];
            tensor<fp16, [2, 384, 1, 1]> temb_1_cast = conv(bias = down_blocks_0_resnets_0_time_emb_proj_bias_to_fp16, dilations = var_204, groups = var_176, pad = temb_1_pad_0, pad_type = temb_1_pad_type_0, strides = var_202, weight = down_blocks_0_resnets_0_time_emb_proj_weight_to_fp16, x = input_21_cast)[name = tensor<string, []>("temb_1_cast")];
            tensor<fp16, [2, 384, 128, 128]> input_23_cast = add(x = hidden_states_1_cast, y = temb_1_cast)[name = tensor<string, []>("input_23_cast")];
            tensor<int32, [5]> reshape_4_shape_0 = const()[name = tensor<string, []>("reshape_4_shape_0"), val = tensor<int32, [5]>([2, 32, 12, 128, 128])];
            tensor<fp16, [2, 32, 12, 128, 128]> reshape_4_cast = reshape(shape = reshape_4_shape_0, x = input_23_cast)[name = tensor<string, []>("reshape_4_cast")];
            tensor<int32, [3]> reduce_mean_3_axes_0 = const()[name = tensor<string, []>("reduce_mean_3_axes_0"), val = tensor<int32, [3]>([2, 3, 4])];
            tensor<bool, []> reduce_mean_3_keep_dims_0 = const()[name = tensor<string, []>("reduce_mean_3_keep_dims_0"), val = tensor<bool, []>(true)];
            tensor<fp16, [2, 32, 1, 1, 1]> reduce_mean_3_cast = reduce_mean(axes = reduce_mean_3_axes_0, keep_dims = reduce_mean_3_keep_dims_0, x = reshape_4_cast)[name = tensor<string, []>("reduce_mean_3_cast")];
            tensor<fp16, [2, 32, 12, 128, 128]> sub_2_cast = sub(x = reshape_4_cast, y = reduce_mean_3_cast)[name = tensor<string, []>("sub_2_cast")];
            tensor<fp16, [2, 32, 12, 128, 128]> square_1_cast = square(x = sub_2_cast)[name = tensor<string, []>("square_1_cast")];
            tensor<int32, [3]> reduce_mean_5_axes_0 = const()[name = tensor<string, []>("reduce_mean_5_axes_0"), val = tensor<int32, [3]>([2, 3, 4])];
            tensor<bool, []> reduce_mean_5_keep_dims_0 = const()[name = tensor<string, []>("reduce_mean_5_keep_dims_0"), val = tensor<bool, []>(true)];
            tensor<fp16, [2, 32, 1, 1, 1]> reduce_mean_5_cast = reduce_mean(axes = reduce_mean_5_axes_0, keep_dims = reduce_mean_5_keep_dims_0, x = square_1_cast)[name = tensor<string, []>("reduce_mean_5_cast")];
            tensor<fp16, []> add_2_y_0_to_fp16 = const()[name = tensor<string, []>("add_2_y_0_to_fp16"), val = tensor<fp16, []>(0x1.5p-17)];
            tensor<fp16, [2, 32, 1, 1, 1]> add_2_cast = add(x = reduce_mean_5_cast, y = add_2_y_0_to_fp16)[name = tensor<string, []>("add_2_cast")];
            tensor<fp16, [2, 32, 1, 1, 1]> sqrt_1_cast = sqrt(x = add_2_cast)[name = tensor<string, []>("sqrt_1_cast")];
            tensor<fp16, [2, 32, 12, 128, 128]> real_div_1_cast = real_div(x = sub_2_cast, y = sqrt_1_cast)[name = tensor<string, []>("real_div_1_cast")];
            tensor<int32, [4]> reshape_5_shape_0 = const()[name = tensor<string, []>("reshape_5_shape_0"), val = tensor<int32, [4]>([2, 384, 128, 128])];
            tensor<fp16, [2, 384, 128, 128]> reshape_5_cast = reshape(shape = reshape_5_shape_0, x = real_div_1_cast)[name = tensor<string, []>("reshape_5_cast")];
            tensor<fp16, [384]> add_3_gamma_0_to_fp16 = const()[name = tensor<string, []>("add_3_gamma_0_to_fp16"), val = tensor<fp16, [384]>(BLOBFILE(path = tensor<string, []>("@model_path/weights/weight.bin"), offset = tensor<uint64, []>(22362304)))];
            tensor<fp16, [384]> add_3_beta_0_to_fp16 = const()[name = tensor<string, []>("add_3_beta_0_to_fp16"), val = tensor<fp16, [384]>(BLOBFILE(path = tensor<string, []>("@model_path/weights/weight.bin"), offset = tensor<uint64, []>(22363136)))];
            tensor<fp16, []> add_3_epsilon_0_to_fp16 = const()[name = tensor<string, []>("add_3_epsilon_0_to_fp16"), val = tensor<fp16, []>(0x1.5p-17)];
            tensor<fp16, [2, 384, 128, 128]> add_3_cast = batch_norm(beta = add_3_beta_0_to_fp16, epsilon = add_3_epsilon_0_to_fp16, gamma = add_3_gamma_0_to_fp16, mean = add_1_mean_0_to_fp16, variance = add_1_variance_0_to_fp16, x = reshape_5_cast)[name = tensor<string, []>("add_3_cast")];
            tensor<fp16, [2, 384, 128, 128]> input_27_cast = silu(x = add_3_cast)[name = tensor<string, []>("input_27_cast")];
            tensor<int32, [2]> var_214 = const()[name = tensor<string, []>("op_214"), val = tensor<int32, [2]>([1, 1])];
            tensor<int32, [2]> var_216 = const()[name = tensor<string, []>("op_216"), val = tensor<int32, [2]>([1, 1])];
            tensor<string, []> hidden_states_3_pad_type_0 = const()[name = tensor<string, []>("hidden_states_3_pad_type_0"), val = tensor<string, []>("custom")];
            tensor<int32, [4]> hidden_states_3_pad_0 = const()[name = tensor<string, []>("hidden_states_3_pad_0"), val = tensor<int32, [4]>([1, 1, 1, 1])];
            tensor<fp16, [384, 384, 3, 3]> down_blocks_0_resnets_0_conv2_weight_to_fp16 = const()[name = tensor<string, []>("down_blocks_0_resnets_0_conv2_weight_to_fp16"), val = tensor<fp16, [384, 384, 3, 3]>(BLOBFILE(path = tensor<string, []>("@model_path/weights/weight.bin"), offset = tensor<uint64, []>(22363968)))];
            tensor<fp16, [384]> down_blocks_0_resnets_0_conv2_bias_to_fp16 = const()[name = tensor<string, []>("down_blocks_0_resnets_0_conv2_bias_to_fp16"), val = tensor<fp16, [384]>(BLOBFILE(path = tensor<string, []>("@model_path/weights/weight.bin"), offset = tensor<uint64, []>(25018240)))];
            tensor<fp16, [2, 384, 128, 128]> hidden_states_3_cast = conv(bias = down_blocks_0_resnets_0_conv2_bias_to_fp16, dilations = var_216, groups = var_176, pad = hidden_states_3_pad_0, pad_type = hidden_states_3_pad_type_0, strides = var_214, weight = down_blocks_0_resnets_0_conv2_weight_to_fp16, x = input_27_cast)[name = tensor<string, []>("hidden_states_3_cast")];
            tensor<fp16, [2, 384, 128, 128]> input_29_cast = add(x = input_13_cast, y = hidden_states_3_cast)[name = tensor<string, []>("input_29_cast")];
            tensor<int32, [5]> reshape_8_shape_0 = const()[name = tensor<string, []>("reshape_8_shape_0"), val = tensor<int32, [5]>([2, 32, 12, 128, 128])];
            tensor<fp16, [2, 32, 12, 128, 128]> reshape_8_cast = reshape(shape = reshape_8_shape_0, x = input_29_cast)[name = tensor<string, []>("reshape_8_cast")];
            tensor<int32, [3]> reduce_mean_6_axes_0 = const()[name = tensor<string, []>("reduce_mean_6_axes_0"), val = tensor<int32, [3]>([2, 3, 4])];
            tensor<bool, []> reduce_mean_6_keep_dims_0 = const()[name = tensor<string, []>("reduce_mean_6_keep_dims_0"), val = tensor<bool, []>(true)];
            tensor<fp16, [2, 32, 1, 1, 1]> reduce_mean_6_cast = reduce_mean(axes = reduce_mean_6_axes_0, keep_dims = reduce_mean_6_keep_dims_0, x = reshape_8_cast)[name = tensor<string, []>("reduce_mean_6_cast")];
            tensor<fp16, [2, 32, 12, 128, 128]> sub_4_cast = sub(x = reshape_8_cast, y = reduce_mean_6_cast)[name = tensor<string, []>("sub_4_cast")];
            tensor<fp16, [2, 32, 12, 128, 128]> square_2_cast = square(x = sub_4_cast)[name = tensor<string, []>("square_2_cast")];
            tensor<int32, [3]> reduce_mean_8_axes_0 = const()[name = tensor<string, []>("reduce_mean_8_axes_0"), val = tensor<int32, [3]>([2, 3, 4])];
            tensor<bool, []> reduce_mean_8_keep_dims_0 = const()[name = tensor<string, []>("reduce_mean_8_keep_dims_0"), val = tensor<bool, []>(true)];
            tensor<fp16, [2, 32, 1, 1, 1]> reduce_mean_8_cast = reduce_mean(axes = reduce_mean_8_axes_0, keep_dims = reduce_mean_8_keep_dims_0, x = square_2_cast)[name = tensor<string, []>("reduce_mean_8_cast")];
            tensor<fp16, []> add_4_y_0_to_fp16 = const()[name = tensor<string, []>("add_4_y_0_to_fp16"), val = tensor<fp16, []>(0x1.5p-17)];
            tensor<fp16, [2, 32, 1, 1, 1]> add_4_cast = add(x = reduce_mean_8_cast, y = add_4_y_0_to_fp16)[name = tensor<string, []>("add_4_cast")];
            tensor<fp16, [2, 32, 1, 1, 1]> sqrt_2_cast = sqrt(x = add_4_cast)[name = tensor<string, []>("sqrt_2_cast")];
            tensor<fp16, [2, 32, 12, 128, 128]> real_div_2_cast = real_div(x = sub_4_cast, y = sqrt_2_cast)[name = tensor<string, []>("real_div_2_cast")];
            tensor<int32, [4]> reshape_9_shape_0 = const()[name = tensor<string, []>("reshape_9_shape_0"), val = tensor<int32, [4]>([2, 384, 128, 128])];
            tensor<fp16, [2, 384, 128, 128]> reshape_9_cast = reshape(shape = reshape_9_shape_0, x = real_div_2_cast)[name = tensor<string, []>("reshape_9_cast")];
            tensor<fp16, [384]> add_5_gamma_0_to_fp16 = const()[name = tensor<string, []>("add_5_gamma_0_to_fp16"), val = tensor<fp16, [384]>(BLOBFILE(path = tensor<string, []>("@model_path/weights/weight.bin"), offset = tensor<uint64, []>(25019072)))];
            tensor<fp16, [384]> add_5_beta_0_to_fp16 = const()[name = tensor<string, []>("add_5_beta_0_to_fp16"), val = tensor<fp16, [384]>(BLOBFILE(path = tensor<string, []>("@model_path/weights/weight.bin"), offset = tensor<uint64, []>(25019904)))];
            tensor<fp16, []> add_5_epsilon_0_to_fp16 = const()[name = tensor<string, []>("add_5_epsilon_0_to_fp16"), val = tensor<fp16, []>(0x1.5p-17)];
            tensor<fp16, [2, 384, 128, 128]> add_5_cast = batch_norm(beta = add_5_beta_0_to_fp16, epsilon = add_5_epsilon_0_to_fp16, gamma = add_5_gamma_0_to_fp16, mean = add_1_mean_0_to_fp16, variance = add_1_variance_0_to_fp16, x = reshape_9_cast)[name = tensor<string, []>("add_5_cast")];
            tensor<fp16, [2, 384, 128, 128]> input_33_cast = silu(x = add_5_cast)[name = tensor<string, []>("input_33_cast")];
            tensor<int32, [2]> var_231 = const()[name = tensor<string, []>("op_231"), val = tensor<int32, [2]>([1, 1])];
            tensor<int32, [2]> var_233 = const()[name = tensor<string, []>("op_233"), val = tensor<int32, [2]>([1, 1])];
            tensor<string, []> hidden_states_5_pad_type_0 = const()[name = tensor<string, []>("hidden_states_5_pad_type_0"), val = tensor<string, []>("custom")];
            tensor<int32, [4]> hidden_states_5_pad_0 = const()[name = tensor<string, []>("hidden_states_5_pad_0"), val = tensor<int32, [4]>([1, 1, 1, 1])];
            tensor<fp16, [384, 384, 3, 3]> down_blocks_0_resnets_1_conv1_weight_to_fp16 = const()[name = tensor<string, []>("down_blocks_0_resnets_1_conv1_weight_to_fp16"), val = tensor<fp16, [384, 384, 3, 3]>(BLOBFILE(path = tensor<string, []>("@model_path/weights/weight.bin"), offset = tensor<uint64, []>(25020736)))];
            tensor<fp16, [384]> down_blocks_0_resnets_1_conv1_bias_to_fp16 = const()[name = tensor<string, []>("down_blocks_0_resnets_1_conv1_bias_to_fp16"), val = tensor<fp16, [384]>(BLOBFILE(path = tensor<string, []>("@model_path/weights/weight.bin"), offset = tensor<uint64, []>(27675008)))];
            tensor<fp16, [2, 384, 128, 128]> hidden_states_5_cast = conv(bias = down_blocks_0_resnets_1_conv1_bias_to_fp16, dilations = var_233, groups = var_176, pad = hidden_states_5_pad_0, pad_type = hidden_states_5_pad_type_0, strides = var_231, weight = down_blocks_0_resnets_1_conv1_weight_to_fp16, x = input_33_cast)[name = tensor<string, []>("hidden_states_5_cast")];
            tensor<int32, [2]> var_239 = const()[name = tensor<string, []>("op_239"), val = tensor<int32, [2]>([1, 1])];
            tensor<int32, [2]> var_241 = const()[name = tensor<string, []>("op_241"), val = tensor<int32, [2]>([1, 1])];
            tensor<string, []> temb_3_pad_type_0 = const()[name = tensor<string, []>("temb_3_pad_type_0"), val = tensor<string, []>("custom")];
            tensor<int32, [4]> temb_3_pad_0 = const()[name = tensor<string, []>("temb_3_pad_0"), val = tensor<int32, [4]>([0, 0, 0, 0])];
            tensor<fp16, [384, 1536, 1, 1]> down_blocks_0_resnets_1_time_emb_proj_weight_to_fp16 = const()[name = tensor<string, []>("down_blocks_0_resnets_1_time_emb_proj_weight_to_fp16"), val = tensor<fp16, [384, 1536, 1, 1]>(BLOBFILE(path = tensor<string, []>("@model_path/weights/weight.bin"), offset = tensor<uint64, []>(27675840)))];
            tensor<fp16, [384]> down_blocks_0_resnets_1_time_emb_proj_bias_to_fp16 = const()[name = tensor<string, []>("down_blocks_0_resnets_1_time_emb_proj_bias_to_fp16"), val = tensor<fp16, [384]>(BLOBFILE(path = tensor<string, []>("@model_path/weights/weight.bin"), offset = tensor<uint64, []>(28855552)))];
            tensor<fp16, [2, 384, 1, 1]> temb_3_cast = conv(bias = down_blocks_0_resnets_1_time_emb_proj_bias_to_fp16, dilations = var_241, groups = var_176, pad = temb_3_pad_0, pad_type = temb_3_pad_type_0, strides = var_239, weight = down_blocks_0_resnets_1_time_emb_proj_weight_to_fp16, x = input_21_cast)[name = tensor<string, []>("temb_3_cast")];
            tensor<fp16, [2, 384, 128, 128]> input_37_cast = add(x = hidden_states_5_cast, y = temb_3_cast)[name = tensor<string, []>("input_37_cast")];
            tensor<int32, [5]> reshape_12_shape_0 = const()[name = tensor<string, []>("reshape_12_shape_0"), val = tensor<int32, [5]>([2, 32, 12, 128, 128])];
            tensor<fp16, [2, 32, 12, 128, 128]> reshape_12_cast = reshape(shape = reshape_12_shape_0, x = input_37_cast)[name = tensor<string, []>("reshape_12_cast")];
            tensor<int32, [3]> reduce_mean_9_axes_0 = const()[name = tensor<string, []>("reduce_mean_9_axes_0"), val = tensor<int32, [3]>([2, 3, 4])];
            tensor<bool, []> reduce_mean_9_keep_dims_0 = const()[name = tensor<string, []>("reduce_mean_9_keep_dims_0"), val = tensor<bool, []>(true)];
            tensor<fp16, [2, 32, 1, 1, 1]> reduce_mean_9_cast = reduce_mean(axes = reduce_mean_9_axes_0, keep_dims = reduce_mean_9_keep_dims_0, x = reshape_12_cast)[name = tensor<string, []>("reduce_mean_9_cast")];
            tensor<fp16, [2, 32, 12, 128, 128]> sub_6_cast = sub(x = reshape_12_cast, y = reduce_mean_9_cast)[name = tensor<string, []>("sub_6_cast")];
            tensor<fp16, [2, 32, 12, 128, 128]> square_3_cast = square(x = sub_6_cast)[name = tensor<string, []>("square_3_cast")];
            tensor<int32, [3]> reduce_mean_11_axes_0 = const()[name = tensor<string, []>("reduce_mean_11_axes_0"), val = tensor<int32, [3]>([2, 3, 4])];
            tensor<bool, []> reduce_mean_11_keep_dims_0 = const()[name = tensor<string, []>("reduce_mean_11_keep_dims_0"), val = tensor<bool, []>(true)];
            tensor<fp16, [2, 32, 1, 1, 1]> reduce_mean_11_cast = reduce_mean(axes = reduce_mean_11_axes_0, keep_dims = reduce_mean_11_keep_dims_0, x = square_3_cast)[name = tensor<string, []>("reduce_mean_11_cast")];
            tensor<fp16, []> add_6_y_0_to_fp16 = const()[name = tensor<string, []>("add_6_y_0_to_fp16"), val = tensor<fp16, []>(0x1.5p-17)];
            tensor<fp16, [2, 32, 1, 1, 1]> add_6_cast = add(x = reduce_mean_11_cast, y = add_6_y_0_to_fp16)[name = tensor<string, []>("add_6_cast")];
            tensor<fp16, [2, 32, 1, 1, 1]> sqrt_3_cast = sqrt(x = add_6_cast)[name = tensor<string, []>("sqrt_3_cast")];
            tensor<fp16, [2, 32, 12, 128, 128]> real_div_3_cast = real_div(x = sub_6_cast, y = sqrt_3_cast)[name = tensor<string, []>("real_div_3_cast")];
            tensor<int32, [4]> reshape_13_shape_0 = const()[name = tensor<string, []>("reshape_13_shape_0"), val = tensor<int32, [4]>([2, 384, 128, 128])];
            tensor<fp16, [2, 384, 128, 128]> reshape_13_cast = reshape(shape = reshape_13_shape_0, x = real_div_3_cast)[name = tensor<string, []>("reshape_13_cast")];
            tensor<fp16, [384]> add_7_gamma_0_to_fp16 = const()[name = tensor<string, []>("add_7_gamma_0_to_fp16"), val = tensor<fp16, [384]>(BLOBFILE(path = tensor<string, []>("@model_path/weights/weight.bin"), offset = tensor<uint64, []>(28856384)))];
            tensor<fp16, [384]> add_7_beta_0_to_fp16 = const()[name = tensor<string, []>("add_7_beta_0_to_fp16"), val = tensor<fp16, [384]>(BLOBFILE(path = tensor<string, []>("@model_path/weights/weight.bin"), offset = tensor<uint64, []>(28857216)))];
            tensor<fp16, []> add_7_epsilon_0_to_fp16 = const()[name = tensor<string, []>("add_7_epsilon_0_to_fp16"), val = tensor<fp16, []>(0x1.5p-17)];
            tensor<fp16, [2, 384, 128, 128]> add_7_cast = batch_norm(beta = add_7_beta_0_to_fp16, epsilon = add_7_epsilon_0_to_fp16, gamma = add_7_gamma_0_to_fp16, mean = add_1_mean_0_to_fp16, variance = add_1_variance_0_to_fp16, x = reshape_13_cast)[name = tensor<string, []>("add_7_cast")];
            tensor<fp16, [2, 384, 128, 128]> input_41_cast = silu(x = add_7_cast)[name = tensor<string, []>("input_41_cast")];
            tensor<int32, [2]> var_251 = const()[name = tensor<string, []>("op_251"), val = tensor<int32, [2]>([1, 1])];
            tensor<int32, [2]> var_253 = const()[name = tensor<string, []>("op_253"), val = tensor<int32, [2]>([1, 1])];
            tensor<string, []> hidden_states_7_pad_type_0 = const()[name = tensor<string, []>("hidden_states_7_pad_type_0"), val = tensor<string, []>("custom")];
            tensor<int32, [4]> hidden_states_7_pad_0 = const()[name = tensor<string, []>("hidden_states_7_pad_0"), val = tensor<int32, [4]>([1, 1, 1, 1])];
            tensor<fp16, [384, 384, 3, 3]> down_blocks_0_resnets_1_conv2_weight_to_fp16 = const()[name = tensor<string, []>("down_blocks_0_resnets_1_conv2_weight_to_fp16"), val = tensor<fp16, [384, 384, 3, 3]>(BLOBFILE(path = tensor<string, []>("@model_path/weights/weight.bin"), offset = tensor<uint64, []>(28858048)))];
            tensor<fp16, [384]> down_blocks_0_resnets_1_conv2_bias_to_fp16 = const()[name = tensor<string, []>("down_blocks_0_resnets_1_conv2_bias_to_fp16"), val = tensor<fp16, [384]>(BLOBFILE(path = tensor<string, []>("@model_path/weights/weight.bin"), offset = tensor<uint64, []>(31512320)))];
            tensor<fp16, [2, 384, 128, 128]> hidden_states_7_cast = conv(bias = down_blocks_0_resnets_1_conv2_bias_to_fp16, dilations = var_253, groups = var_176, pad = hidden_states_7_pad_0, pad_type = hidden_states_7_pad_type_0, strides = var_251, weight = down_blocks_0_resnets_1_conv2_weight_to_fp16, x = input_41_cast)[name = tensor<string, []>("hidden_states_7_cast")];
            tensor<fp16, [2, 384, 128, 128]> input_43_cast = add(x = input_29_cast, y = hidden_states_7_cast)[name = tensor<string, []>("input_43_cast")];
            tensor<int32, [2]> var_260 = const()[name = tensor<string, []>("op_260"), val = tensor<int32, [2]>([2, 2])];
            tensor<int32, [2]> var_262 = const()[name = tensor<string, []>("op_262"), val = tensor<int32, [2]>([1, 1])];
            tensor<string, []> input_45_pad_type_0 = const()[name = tensor<string, []>("input_45_pad_type_0"), val = tensor<string, []>("custom")];
            tensor<int32, [4]> input_45_pad_0 = const()[name = tensor<string, []>("input_45_pad_0"), val = tensor<int32, [4]>([1, 1, 1, 1])];
            tensor<fp16, [384, 384, 3, 3]> down_blocks_0_downsamplers_0_conv_weight_to_fp16 = const()[name = tensor<string, []>("down_blocks_0_downsamplers_0_conv_weight_to_fp16"), val = tensor<fp16, [384, 384, 3, 3]>(BLOBFILE(path = tensor<string, []>("@model_path/weights/weight.bin"), offset = tensor<uint64, []>(31513152)))];
            tensor<fp16, [384]> down_blocks_0_downsamplers_0_conv_bias_to_fp16 = const()[name = tensor<string, []>("down_blocks_0_downsamplers_0_conv_bias_to_fp16"), val = tensor<fp16, [384]>(BLOBFILE(path = tensor<string, []>("@model_path/weights/weight.bin"), offset = tensor<uint64, []>(34167424)))];
            tensor<fp16, [2, 384, 64, 64]> input_45_cast = conv(bias = down_blocks_0_downsamplers_0_conv_bias_to_fp16, dilations = var_262, groups = var_176, pad = input_45_pad_0, pad_type = input_45_pad_type_0, strides = var_260, weight = down_blocks_0_downsamplers_0_conv_weight_to_fp16, x = input_43_cast)[name = tensor<string, []>("input_45_cast")];
            tensor<int32, []> var_270 = const()[name = tensor<string, []>("op_270"), val = tensor<int32, []>(3)];
            tensor<bool, []> var_281 = const()[name = tensor<string, []>("op_281"), val = tensor<bool, []>(true)];
            tensor<int32, []> var_286 = const()[name = tensor<string, []>("op_286"), val = tensor<int32, []>(1)];
            tensor<int32, [5]> reshape_16_shape_0 = const()[name = tensor<string, []>("reshape_16_shape_0"), val = tensor<int32, [5]>([2, 32, 12, 64, 64])];
            tensor<fp16, [2, 32, 12, 64, 64]> reshape_16_cast = reshape(shape = reshape_16_shape_0, x = input_45_cast)[name = tensor<string, []>("reshape_16_cast")];
            tensor<int32, [3]> reduce_mean_12_axes_0 = const()[name = tensor<string, []>("reduce_mean_12_axes_0"), val = tensor<int32, [3]>([2, 3, 4])];
            tensor<bool, []> reduce_mean_12_keep_dims_0 = const()[name = tensor<string, []>("reduce_mean_12_keep_dims_0"), val = tensor<bool, []>(true)];
            tensor<fp16, [2, 32, 1, 1, 1]> reduce_mean_12_cast = reduce_mean(axes = reduce_mean_12_axes_0, keep_dims = reduce_mean_12_keep_dims_0, x = reshape_16_cast)[name = tensor<string, []>("reduce_mean_12_cast")];
            tensor<fp16, [2, 32, 12, 64, 64]> sub_8_cast = sub(x = reshape_16_cast, y = reduce_mean_12_cast)[name = tensor<string, []>("sub_8_cast")];
            tensor<fp16, [2, 32, 12, 64, 64]> square_4_cast = square(x = sub_8_cast)[name = tensor<string, []>("square_4_cast")];
            tensor<int32, [3]> reduce_mean_14_axes_0 = const()[name = tensor<string, []>("reduce_mean_14_axes_0"), val = tensor<int32, [3]>([2, 3, 4])];
            tensor<bool, []> reduce_mean_14_keep_dims_0 = const()[name = tensor<string, []>("reduce_mean_14_keep_dims_0"), val = tensor<bool, []>(true)];
            tensor<fp16, [2, 32, 1, 1, 1]> reduce_mean_14_cast = reduce_mean(axes = reduce_mean_14_axes_0, keep_dims = reduce_mean_14_keep_dims_0, x = square_4_cast)[name = tensor<string, []>("reduce_mean_14_cast")];
            tensor<fp16, []> add_8_y_0_to_fp16 = const()[name = tensor<string, []>("add_8_y_0_to_fp16"), val = tensor<fp16, []>(0x1.5p-17)];
            tensor<fp16, [2, 32, 1, 1, 1]> add_8_cast = add(x = reduce_mean_14_cast, y = add_8_y_0_to_fp16)[name = tensor<string, []>("add_8_cast")];
            tensor<fp16, [2, 32, 1, 1, 1]> sqrt_4_cast = sqrt(x = add_8_cast)[name = tensor<string, []>("sqrt_4_cast")];
            tensor<fp16, [2, 32, 12, 64, 64]> real_div_4_cast = real_div(x = sub_8_cast, y = sqrt_4_cast)[name = tensor<string, []>("real_div_4_cast")];
            tensor<int32, [4]> reshape_17_shape_0 = const()[name = tensor<string, []>("reshape_17_shape_0"), val = tensor<int32, [4]>([2, 384, 64, 64])];
            tensor<fp16, [2, 384, 64, 64]> reshape_17_cast = reshape(shape = reshape_17_shape_0, x = real_div_4_cast)[name = tensor<string, []>("reshape_17_cast")];
            tensor<fp16, [384]> add_9_gamma_0_to_fp16 = const()[name = tensor<string, []>("add_9_gamma_0_to_fp16"), val = tensor<fp16, [384]>(BLOBFILE(path = tensor<string, []>("@model_path/weights/weight.bin"), offset = tensor<uint64, []>(34168256)))];
            tensor<fp16, [384]> add_9_beta_0_to_fp16 = const()[name = tensor<string, []>("add_9_beta_0_to_fp16"), val = tensor<fp16, [384]>(BLOBFILE(path = tensor<string, []>("@model_path/weights/weight.bin"), offset = tensor<uint64, []>(34169088)))];
            tensor<fp16, []> add_9_epsilon_0_to_fp16 = const()[name = tensor<string, []>("add_9_epsilon_0_to_fp16"), val = tensor<fp16, []>(0x1.5p-17)];
            tensor<fp16, [2, 384, 64, 64]> add_9_cast = batch_norm(beta = add_9_beta_0_to_fp16, epsilon = add_9_epsilon_0_to_fp16, gamma = add_9_gamma_0_to_fp16, mean = add_1_mean_0_to_fp16, variance = add_1_variance_0_to_fp16, x = reshape_17_cast)[name = tensor<string, []>("add_9_cast")];
            tensor<fp16, [2, 384, 64, 64]> input_49_cast = silu(x = add_9_cast)[name = tensor<string, []>("input_49_cast")];
            tensor<int32, [2]> var_309 = const()[name = tensor<string, []>("op_309"), val = tensor<int32, [2]>([1, 1])];
            tensor<int32, [2]> var_311 = const()[name = tensor<string, []>("op_311"), val = tensor<int32, [2]>([1, 1])];
            tensor<string, []> hidden_states_9_pad_type_0 = const()[name = tensor<string, []>("hidden_states_9_pad_type_0"), val = tensor<string, []>("custom")];
            tensor<int32, [4]> hidden_states_9_pad_0 = const()[name = tensor<string, []>("hidden_states_9_pad_0"), val = tensor<int32, [4]>([1, 1, 1, 1])];
            tensor<fp16, [768, 384, 3, 3]> down_blocks_1_resnets_0_conv1_weight_to_fp16 = const()[name = tensor<string, []>("down_blocks_1_resnets_0_conv1_weight_to_fp16"), val = tensor<fp16, [768, 384, 3, 3]>(BLOBFILE(path = tensor<string, []>("@model_path/weights/weight.bin"), offset = tensor<uint64, []>(34169920)))];
            tensor<fp16, [768]> down_blocks_1_resnets_0_conv1_bias_to_fp16 = const()[name = tensor<string, []>("down_blocks_1_resnets_0_conv1_bias_to_fp16"), val = tensor<fp16, [768]>(BLOBFILE(path = tensor<string, []>("@model_path/weights/weight.bin"), offset = tensor<uint64, []>(39478400)))];
            tensor<fp16, [2, 768, 64, 64]> hidden_states_9_cast = conv(bias = down_blocks_1_resnets_0_conv1_bias_to_fp16, dilations = var_311, groups = var_286, pad = hidden_states_9_pad_0, pad_type = hidden_states_9_pad_type_0, strides = var_309, weight = down_blocks_1_resnets_0_conv1_weight_to_fp16, x = input_49_cast)[name = tensor<string, []>("hidden_states_9_cast")];
            tensor<int32, [2]> var_317 = const()[name = tensor<string, []>("op_317"), val = tensor<int32, [2]>([1, 1])];
            tensor<int32, [2]> var_319 = const()[name = tensor<string, []>("op_319"), val = tensor<int32, [2]>([1, 1])];
            tensor<string, []> temb_5_pad_type_0 = const()[name = tensor<string, []>("temb_5_pad_type_0"), val = tensor<string, []>("custom")];
            tensor<int32, [4]> temb_5_pad_0 = const()[name = tensor<string, []>("temb_5_pad_0"), val = tensor<int32, [4]>([0, 0, 0, 0])];
            tensor<fp16, [768, 1536, 1, 1]> down_blocks_1_resnets_0_time_emb_proj_weight_to_fp16 = const()[name = tensor<string, []>("down_blocks_1_resnets_0_time_emb_proj_weight_to_fp16"), val = tensor<fp16, [768, 1536, 1, 1]>(BLOBFILE(path = tensor<string, []>("@model_path/weights/weight.bin"), offset = tensor<uint64, []>(39480000)))];
            tensor<fp16, [768]> down_blocks_1_resnets_0_time_emb_proj_bias_to_fp16 = const()[name = tensor<string, []>("down_blocks_1_resnets_0_time_emb_proj_bias_to_fp16"), val = tensor<fp16, [768]>(BLOBFILE(path = tensor<string, []>("@model_path/weights/weight.bin"), offset = tensor<uint64, []>(41839360)))];
            tensor<fp16, [2, 768, 1, 1]> temb_5_cast = conv(bias = down_blocks_1_resnets_0_time_emb_proj_bias_to_fp16, dilations = var_319, groups = var_286, pad = temb_5_pad_0, pad_type = temb_5_pad_type_0, strides = var_317, weight = down_blocks_1_resnets_0_time_emb_proj_weight_to_fp16, x = input_21_cast)[name = tensor<string, []>("temb_5_cast")];
            tensor<fp16, [2, 768, 64, 64]> input_53_cast = add(x = hidden_states_9_cast, y = temb_5_cast)[name = tensor<string, []>("input_53_cast")];
            tensor<int32, [5]> reshape_20_shape_0 = const()[name = tensor<string, []>("reshape_20_shape_0"), val = tensor<int32, [5]>([2, 32, 24, 64, 64])];
            tensor<fp16, [2, 32, 24, 64, 64]> reshape_20_cast = reshape(shape = reshape_20_shape_0, x = input_53_cast)[name = tensor<string, []>("reshape_20_cast")];
            tensor<int32, [3]> reduce_mean_15_axes_0 = const()[name = tensor<string, []>("reduce_mean_15_axes_0"), val = tensor<int32, [3]>([2, 3, 4])];
            tensor<bool, []> reduce_mean_15_keep_dims_0 = const()[name = tensor<string, []>("reduce_mean_15_keep_dims_0"), val = tensor<bool, []>(true)];
            tensor<fp16, [2, 32, 1, 1, 1]> reduce_mean_15_cast = reduce_mean(axes = reduce_mean_15_axes_0, keep_dims = reduce_mean_15_keep_dims_0, x = reshape_20_cast)[name = tensor<string, []>("reduce_mean_15_cast")];
            tensor<fp16, [2, 32, 24, 64, 64]> sub_10_cast = sub(x = reshape_20_cast, y = reduce_mean_15_cast)[name = tensor<string, []>("sub_10_cast")];
            tensor<fp16, [2, 32, 24, 64, 64]> square_5_cast = square(x = sub_10_cast)[name = tensor<string, []>("square_5_cast")];
            tensor<int32, [3]> reduce_mean_17_axes_0 = const()[name = tensor<string, []>("reduce_mean_17_axes_0"), val = tensor<int32, [3]>([2, 3, 4])];
            tensor<bool, []> reduce_mean_17_keep_dims_0 = const()[name = tensor<string, []>("reduce_mean_17_keep_dims_0"), val = tensor<bool, []>(true)];
            tensor<fp16, [2, 32, 1, 1, 1]> reduce_mean_17_cast = reduce_mean(axes = reduce_mean_17_axes_0, keep_dims = reduce_mean_17_keep_dims_0, x = square_5_cast)[name = tensor<string, []>("reduce_mean_17_cast")];
            tensor<fp16, []> add_10_y_0_to_fp16 = const()[name = tensor<string, []>("add_10_y_0_to_fp16"), val = tensor<fp16, []>(0x1.5p-17)];
            tensor<fp16, [2, 32, 1, 1, 1]> add_10_cast = add(x = reduce_mean_17_cast, y = add_10_y_0_to_fp16)[name = tensor<string, []>("add_10_cast")];
            tensor<fp16, [2, 32, 1, 1, 1]> sqrt_5_cast = sqrt(x = add_10_cast)[name = tensor<string, []>("sqrt_5_cast")];
            tensor<fp16, [2, 32, 24, 64, 64]> real_div_5_cast = real_div(x = sub_10_cast, y = sqrt_5_cast)[name = tensor<string, []>("real_div_5_cast")];
            tensor<int32, [4]> reshape_21_shape_0 = const()[name = tensor<string, []>("reshape_21_shape_0"), val = tensor<int32, [4]>([2, 768, 64, 64])];
            tensor<fp16, [2, 768, 64, 64]> reshape_21_cast = reshape(shape = reshape_21_shape_0, x = real_div_5_cast)[name = tensor<string, []>("reshape_21_cast")];
            tensor<fp16, [768]> add_11_mean_0_to_fp16 = const()[name = tensor<string, []>("add_11_mean_0_to_fp16"), val = tensor<fp16, [768]>(BLOBFILE(path = tensor<string, []>("@model_path/weights/weight.bin"), offset = tensor<uint64, []>(41840960)))];
            tensor<fp16, [768]> add_11_variance_0_to_fp16 = const()[name = tensor<string, []>("add_11_variance_0_to_fp16"), val = tensor<fp16, [768]>(BLOBFILE(path = tensor<string, []>("@model_path/weights/weight.bin"), offset = tensor<uint64, []>(41842560)))];
            tensor<fp16, [768]> add_11_gamma_0_to_fp16 = const()[name = tensor<string, []>("add_11_gamma_0_to_fp16"), val = tensor<fp16, [768]>(BLOBFILE(path = tensor<string, []>("@model_path/weights/weight.bin"), offset = tensor<uint64, []>(41844160)))];
            tensor<fp16, [768]> add_11_beta_0_to_fp16 = const()[name = tensor<string, []>("add_11_beta_0_to_fp16"), val = tensor<fp16, [768]>(BLOBFILE(path = tensor<string, []>("@model_path/weights/weight.bin"), offset = tensor<uint64, []>(41845760)))];
            tensor<fp16, []> add_11_epsilon_0_to_fp16 = const()[name = tensor<string, []>("add_11_epsilon_0_to_fp16"), val = tensor<fp16, []>(0x1.5p-17)];
            tensor<fp16, [2, 768, 64, 64]> add_11_cast = batch_norm(beta = add_11_beta_0_to_fp16, epsilon = add_11_epsilon_0_to_fp16, gamma = add_11_gamma_0_to_fp16, mean = add_11_mean_0_to_fp16, variance = add_11_variance_0_to_fp16, x = reshape_21_cast)[name = tensor<string, []>("add_11_cast")];
            tensor<fp16, [2, 768, 64, 64]> input_57_cast = silu(x = add_11_cast)[name = tensor<string, []>("input_57_cast")];
            tensor<int32, [2]> var_329 = const()[name = tensor<string, []>("op_329"), val = tensor<int32, [2]>([1, 1])];
            tensor<int32, [2]> var_331 = const()[name = tensor<string, []>("op_331"), val = tensor<int32, [2]>([1, 1])];
            tensor<string, []> hidden_states_11_pad_type_0 = const()[name = tensor<string, []>("hidden_states_11_pad_type_0"), val = tensor<string, []>("custom")];
            tensor<int32, [4]> hidden_states_11_pad_0 = const()[name = tensor<string, []>("hidden_states_11_pad_0"), val = tensor<int32, [4]>([1, 1, 1, 1])];
            tensor<fp16, [768, 768, 3, 3]> down_blocks_1_resnets_0_conv2_weight_to_fp16 = const()[name = tensor<string, []>("down_blocks_1_resnets_0_conv2_weight_to_fp16"), val = tensor<fp16, [768, 768, 3, 3]>(BLOBFILE(path = tensor<string, []>("@model_path/weights/weight.bin"), offset = tensor<uint64, []>(41847360)))];
            tensor<fp16, [768]> down_blocks_1_resnets_0_conv2_bias_to_fp16 = const()[name = tensor<string, []>("down_blocks_1_resnets_0_conv2_bias_to_fp16"), val = tensor<fp16, [768]>(BLOBFILE(path = tensor<string, []>("@model_path/weights/weight.bin"), offset = tensor<uint64, []>(52464256)))];
            tensor<fp16, [2, 768, 64, 64]> hidden_states_11_cast = conv(bias = down_blocks_1_resnets_0_conv2_bias_to_fp16, dilations = var_331, groups = var_286, pad = hidden_states_11_pad_0, pad_type = hidden_states_11_pad_type_0, strides = var_329, weight = down_blocks_1_resnets_0_conv2_weight_to_fp16, x = input_57_cast)[name = tensor<string, []>("hidden_states_11_cast")];
            tensor<int32, [2]> var_336 = const()[name = tensor<string, []>("op_336"), val = tensor<int32, [2]>([1, 1])];
            tensor<int32, [2]> var_338 = const()[name = tensor<string, []>("op_338"), val = tensor<int32, [2]>([1, 1])];
            tensor<string, []> x_1_pad_type_0 = const()[name = tensor<string, []>("x_1_pad_type_0"), val = tensor<string, []>("custom")];
            tensor<int32, [4]> x_1_pad_0 = const()[name = tensor<string, []>("x_1_pad_0"), val = tensor<int32, [4]>([0, 0, 0, 0])];
            tensor<fp16, [768, 384, 1, 1]> down_blocks_1_resnets_0_conv_shortcut_weight_to_fp16 = const()[name = tensor<string, []>("down_blocks_1_resnets_0_conv_shortcut_weight_to_fp16"), val = tensor<fp16, [768, 384, 1, 1]>(BLOBFILE(path = tensor<string, []>("@model_path/weights/weight.bin"), offset = tensor<uint64, []>(52465856)))];
            tensor<fp16, [768]> down_blocks_1_resnets_0_conv_shortcut_bias_to_fp16 = const()[name = tensor<string, []>("down_blocks_1_resnets_0_conv_shortcut_bias_to_fp16"), val = tensor<fp16, [768]>(BLOBFILE(path = tensor<string, []>("@model_path/weights/weight.bin"), offset = tensor<uint64, []>(53055744)))];
            tensor<fp16, [2, 768, 64, 64]> x_1_cast = conv(bias = down_blocks_1_resnets_0_conv_shortcut_bias_to_fp16, dilations = var_338, groups = var_286, pad = x_1_pad_0, pad_type = x_1_pad_type_0, strides = var_336, weight = down_blocks_1_resnets_0_conv_shortcut_weight_to_fp16, x = input_45_cast)[name = tensor<string, []>("x_1_cast")];
            tensor<fp16, [2, 768, 64, 64]> hidden_states_13_cast = add(x = x_1_cast, y = hidden_states_11_cast)[name = tensor<string, []>("hidden_states_13_cast")];
            tensor<int32, [5]> reshape_24_shape_0 = const()[name = tensor<string, []>("reshape_24_shape_0"), val = tensor<int32, [5]>([2, 32, 24, 64, 64])];
            tensor<fp16, [2, 32, 24, 64, 64]> reshape_24_cast = reshape(shape = reshape_24_shape_0, x = hidden_states_13_cast)[name = tensor<string, []>("reshape_24_cast")];
            tensor<int32, [3]> reduce_mean_18_axes_0 = const()[name = tensor<string, []>("reduce_mean_18_axes_0"), val = tensor<int32, [3]>([2, 3, 4])];
            tensor<bool, []> reduce_mean_18_keep_dims_0 = const()[name = tensor<string, []>("reduce_mean_18_keep_dims_0"), val = tensor<bool, []>(true)];
            tensor<fp16, [2, 32, 1, 1, 1]> reduce_mean_18_cast = reduce_mean(axes = reduce_mean_18_axes_0, keep_dims = reduce_mean_18_keep_dims_0, x = reshape_24_cast)[name = tensor<string, []>("reduce_mean_18_cast")];
            tensor<fp16, [2, 32, 24, 64, 64]> sub_12_cast = sub(x = reshape_24_cast, y = reduce_mean_18_cast)[name = tensor<string, []>("sub_12_cast")];
            tensor<fp16, [2, 32, 24, 64, 64]> square_6_cast = square(x = sub_12_cast)[name = tensor<string, []>("square_6_cast")];
            tensor<int32, [3]> reduce_mean_20_axes_0 = const()[name = tensor<string, []>("reduce_mean_20_axes_0"), val = tensor<int32, [3]>([2, 3, 4])];
            tensor<bool, []> reduce_mean_20_keep_dims_0 = const()[name = tensor<string, []>("reduce_mean_20_keep_dims_0"), val = tensor<bool, []>(true)];
            tensor<fp16, [2, 32, 1, 1, 1]> reduce_mean_20_cast = reduce_mean(axes = reduce_mean_20_axes_0, keep_dims = reduce_mean_20_keep_dims_0, x = square_6_cast)[name = tensor<string, []>("reduce_mean_20_cast")];
            tensor<fp16, []> add_12_y_0_to_fp16 = const()[name = tensor<string, []>("add_12_y_0_to_fp16"), val = tensor<fp16, []>(0x1.1p-20)];
            tensor<fp16, [2, 32, 1, 1, 1]> add_12_cast = add(x = reduce_mean_20_cast, y = add_12_y_0_to_fp16)[name = tensor<string, []>("add_12_cast")];
            tensor<fp16, [2, 32, 1, 1, 1]> sqrt_6_cast = sqrt(x = add_12_cast)[name = tensor<string, []>("sqrt_6_cast")];
            tensor<fp16, [2, 32, 24, 64, 64]> real_div_6_cast = real_div(x = sub_12_cast, y = sqrt_6_cast)[name = tensor<string, []>("real_div_6_cast")];
            tensor<int32, [4]> reshape_25_shape_0 = const()[name = tensor<string, []>("reshape_25_shape_0"), val = tensor<int32, [4]>([2, 768, 64, 64])];
            tensor<fp16, [2, 768, 64, 64]> reshape_25_cast = reshape(shape = reshape_25_shape_0, x = real_div_6_cast)[name = tensor<string, []>("reshape_25_cast")];
            tensor<fp16, [768]> add_13_gamma_0_to_fp16 = const()[name = tensor<string, []>("add_13_gamma_0_to_fp16"), val = tensor<fp16, [768]>(BLOBFILE(path = tensor<string, []>("@model_path/weights/weight.bin"), offset = tensor<uint64, []>(53057344)))];
            tensor<fp16, [768]> add_13_beta_0_to_fp16 = const()[name = tensor<string, []>("add_13_beta_0_to_fp16"), val = tensor<fp16, [768]>(BLOBFILE(path = tensor<string, []>("@model_path/weights/weight.bin"), offset = tensor<uint64, []>(53058944)))];
            tensor<fp16, []> add_13_epsilon_0_to_fp16 = const()[name = tensor<string, []>("add_13_epsilon_0_to_fp16"), val = tensor<fp16, []>(0x1.5p-17)];
            tensor<fp16, [2, 768, 64, 64]> add_13_cast = batch_norm(beta = add_13_beta_0_to_fp16, epsilon = add_13_epsilon_0_to_fp16, gamma = add_13_gamma_0_to_fp16, mean = add_11_mean_0_to_fp16, variance = add_11_variance_0_to_fp16, x = reshape_25_cast)[name = tensor<string, []>("add_13_cast")];
            tensor<int32, [2]> var_364 = const()[name = tensor<string, []>("op_364"), val = tensor<int32, [2]>([1, 1])];
            tensor<int32, [2]> var_366 = const()[name = tensor<string, []>("op_366"), val = tensor<int32, [2]>([1, 1])];
            tensor<string, []> hidden_states_15_pad_type_0 = const()[name = tensor<string, []>("hidden_states_15_pad_type_0"), val = tensor<string, []>("custom")];
            tensor<int32, [4]> hidden_states_15_pad_0 = const()[name = tensor<string, []>("hidden_states_15_pad_0"), val = tensor<int32, [4]>([0, 0, 0, 0])];
            tensor<fp16, [768, 768, 1, 1]> down_blocks_1_attentions_0_proj_in_weight_to_fp16 = const()[name = tensor<string, []>("down_blocks_1_attentions_0_proj_in_weight_to_fp16"), val = tensor<fp16, [768, 768, 1, 1]>(BLOBFILE(path = tensor<string, []>("@model_path/weights/weight.bin"), offset = tensor<uint64, []>(53060544)))];
            tensor<fp16, [768]> down_blocks_1_attentions_0_proj_in_bias_to_fp16 = const()[name = tensor<string, []>("down_blocks_1_attentions_0_proj_in_bias_to_fp16"), val = tensor<fp16, [768]>(BLOBFILE(path = tensor<string, []>("@model_path/weights/weight.bin"), offset = tensor<uint64, []>(54240256)))];
            tensor<fp16, [2, 768, 64, 64]> hidden_states_15_cast = conv(bias = down_blocks_1_attentions_0_proj_in_bias_to_fp16, dilations = var_366, groups = var_286, pad = hidden_states_15_pad_0, pad_type = hidden_states_15_pad_type_0, strides = var_364, weight = down_blocks_1_attentions_0_proj_in_weight_to_fp16, x = add_13_cast)[name = tensor<string, []>("hidden_states_15_cast")];
            tensor<int32, [4]> var_371 = const()[name = tensor<string, []>("op_371"), val = tensor<int32, [4]>([2, 768, 1, 4096])];
            tensor<fp16, [2, 768, 1, 4096]> inputs_1_cast = reshape(shape = var_371, x = hidden_states_15_cast)[name = tensor<string, []>("inputs_1_cast")];
            tensor<int32, [1]> var_381 = const()[name = tensor<string, []>("op_381"), val = tensor<int32, [1]>([1])];
            tensor<fp16, [2, 1, 1, 4096]> channels_mean_1_cast = reduce_mean(axes = var_381, keep_dims = var_281, x = inputs_1_cast)[name = tensor<string, []>("channels_mean_1_cast")];
            tensor<fp16, [2, 768, 1, 4096]> zero_mean_1_cast = sub(x = inputs_1_cast, y = channels_mean_1_cast)[name = tensor<string, []>("zero_mean_1_cast")];
            tensor<fp16, [2, 768, 1, 4096]> zero_mean_sq_1_cast = mul(x = zero_mean_1_cast, y = zero_mean_1_cast)[name = tensor<string, []>("zero_mean_sq_1_cast")];
            tensor<int32, [1]> var_385 = const()[name = tensor<string, []>("op_385"), val = tensor<int32, [1]>([1])];
            tensor<fp16, [2, 1, 1, 4096]> var_386_cast = reduce_mean(axes = var_385, keep_dims = var_281, x = zero_mean_sq_1_cast)[name = tensor<string, []>("op_386_cast")];
            tensor<fp16, []> var_387_to_fp16 = const()[name = tensor<string, []>("op_387_to_fp16"), val = tensor<fp16, []>(0x1.5p-17)];
            tensor<fp16, [2, 1, 1, 4096]> var_388_cast = add(x = var_386_cast, y = var_387_to_fp16)[name = tensor<string, []>("op_388_cast")];
            tensor<fp16, []> denom_1_epsilon_0_to_fp16 = const()[name = tensor<string, []>("denom_1_epsilon_0_to_fp16"), val = tensor<fp16, []>(0x1p-24)];
            tensor<fp16, [2, 1, 1, 4096]> denom_1_cast = rsqrt(epsilon = denom_1_epsilon_0_to_fp16, x = var_388_cast)[name = tensor<string, []>("denom_1_cast")];
            tensor<fp16, [2, 768, 1, 4096]> out_1_cast = mul(x = zero_mean_1_cast, y = denom_1_cast)[name = tensor<string, []>("out_1_cast")];
            tensor<fp16, [1, 768, 1, 1]> var_392_to_fp16 = const()[name = tensor<string, []>("op_392_to_fp16"), val = tensor<fp16, [1, 768, 1, 1]>(BLOBFILE(path = tensor<string, []>("@model_path/weights/weight.bin"), offset = tensor<uint64, []>(54241856)))];
            tensor<fp16, [2, 768, 1, 4096]> var_393_cast = add(x = out_1_cast, y = var_392_to_fp16)[name = tensor<string, []>("op_393_cast")];
            tensor<fp16, [1, 768, 1, 1]> var_395_to_fp16 = const()[name = tensor<string, []>("op_395_to_fp16"), val = tensor<fp16, [1, 768, 1, 1]>(BLOBFILE(path = tensor<string, []>("@model_path/weights/weight.bin"), offset = tensor<uint64, []>(54243456)))];
            tensor<fp16, [2, 768, 1, 4096]> hidden_states_17_cast = mul(x = var_393_cast, y = var_395_to_fp16)[name = tensor<string, []>("hidden_states_17_cast")];
            tensor<int32, [2]> var_402 = const()[name = tensor<string, []>("op_402"), val = tensor<int32, [2]>([1, 1])];
            tensor<int32, [2]> var_404 = const()[name = tensor<string, []>("op_404"), val = tensor<int32, [2]>([1, 1])];
            tensor<string, []> q_1_pad_type_0 = const()[name = tensor<string, []>("q_1_pad_type_0"), val = tensor<string, []>("custom")];
            tensor<int32, [4]> q_1_pad_0 = const()[name = tensor<string, []>("q_1_pad_0"), val = tensor<int32, [4]>([0, 0, 0, 0])];
            tensor<fp16, [768, 768, 1, 1]> down_blocks_1_attentions_0_transformer_blocks_0_attn1_to_q_weight_to_fp16 = const()[name = tensor<string, []>("down_blocks_1_attentions_0_transformer_blocks_0_attn1_to_q_weight_to_fp16"), val = tensor<fp16, [768, 768, 1, 1]>(BLOBFILE(path = tensor<string, []>("@model_path/weights/weight.bin"), offset = tensor<uint64, []>(54245056)))];
            tensor<fp16, [2, 768, 1, 4096]> q_1_cast = conv(dilations = var_404, groups = var_286, pad = q_1_pad_0, pad_type = q_1_pad_type_0, strides = var_402, weight = down_blocks_1_attentions_0_transformer_blocks_0_attn1_to_q_weight_to_fp16, x = hidden_states_17_cast)[name = tensor<string, []>("q_1_cast")];
            tensor<int32, [2]> var_408 = const()[name = tensor<string, []>("op_408"), val = tensor<int32, [2]>([1, 1])];
            tensor<int32, [2]> var_410 = const()[name = tensor<string, []>("op_410"), val = tensor<int32, [2]>([1, 1])];
            tensor<string, []> k_1_pad_type_0 = const()[name = tensor<string, []>("k_1_pad_type_0"), val = tensor<string, []>("custom")];
            tensor<int32, [4]> k_1_pad_0 = const()[name = tensor<string, []>("k_1_pad_0"), val = tensor<int32, [4]>([0, 0, 0, 0])];
            tensor<fp16, [768, 768, 1, 1]> down_blocks_1_attentions_0_transformer_blocks_0_attn1_to_k_weight_to_fp16 = const()[name = tensor<string, []>("down_blocks_1_attentions_0_transformer_blocks_0_attn1_to_k_weight_to_fp16"), val = tensor<fp16, [768, 768, 1, 1]>(BLOBFILE(path = tensor<string, []>("@model_path/weights/weight.bin"), offset = tensor<uint64, []>(55424768)))];
            tensor<fp16, [2, 768, 1, 4096]> k_1_cast = conv(dilations = var_410, groups = var_286, pad = k_1_pad_0, pad_type = k_1_pad_type_0, strides = var_408, weight = down_blocks_1_attentions_0_transformer_blocks_0_attn1_to_k_weight_to_fp16, x = hidden_states_17_cast)[name = tensor<string, []>("k_1_cast")];
            tensor<int32, [2]> var_414 = const()[name = tensor<string, []>("op_414"), val = tensor<int32, [2]>([1, 1])];
            tensor<int32, [2]> var_416 = const()[name = tensor<string, []>("op_416"), val = tensor<int32, [2]>([1, 1])];
            tensor<string, []> v_1_pad_type_0 = const()[name = tensor<string, []>("v_1_pad_type_0"), val = tensor<string, []>("custom")];
            tensor<int32, [4]> v_1_pad_0 = const()[name = tensor<string, []>("v_1_pad_0"), val = tensor<int32, [4]>([0, 0, 0, 0])];
            tensor<fp16, [768, 768, 1, 1]> down_blocks_1_attentions_0_transformer_blocks_0_attn1_to_v_weight_to_fp16 = const()[name = tensor<string, []>("down_blocks_1_attentions_0_transformer_blocks_0_attn1_to_v_weight_to_fp16"), val = tensor<fp16, [768, 768, 1, 1]>(BLOBFILE(path = tensor<string, []>("@model_path/weights/weight.bin"), offset = tensor<uint64, []>(56604480)))];
            tensor<fp16, [2, 768, 1, 4096]> v_1_cast = conv(dilations = var_416, groups = var_286, pad = v_1_pad_0, pad_type = v_1_pad_type_0, strides = var_414, weight = down_blocks_1_attentions_0_transformer_blocks_0_attn1_to_v_weight_to_fp16, x = hidden_states_17_cast)[name = tensor<string, []>("v_1_cast")];
            tensor<int32, [4]> var_420 = const()[name = tensor<string, []>("op_420"), val = tensor<int32, [4]>([2, 12, 64, -1])];
            tensor<fp16, [2, 12, 64, 4096]> var_421_cast = reshape(shape = var_420, x = q_1_cast)[name = tensor<string, []>("op_421_cast")];
            tensor<int32, [4]> var_422 = const()[name = tensor<string, []>("op_422"), val = tensor<int32, [4]>([2, 12, 64, -1])];
            tensor<fp16, [2, 12, 64, 4096]> var_423_cast = reshape(shape = var_422, x = k_1_cast)[name = tensor<string, []>("op_423_cast")];
            tensor<int32, [4]> var_424 = const()[name = tensor<string, []>("op_424"), val = tensor<int32, [4]>([2, 12, 64, -1])];
            tensor<fp16, [2, 12, 64, 4096]> var_425_cast = reshape(shape = var_424, x = v_1_cast)[name = tensor<string, []>("op_425_cast")];
            tensor<bool, []> attn_weights_1_transpose_x_0 = const()[name = tensor<string, []>("attn_weights_1_transpose_x_0"), val = tensor<bool, []>(true)];
            tensor<bool, []> attn_weights_1_transpose_y_0 = const()[name = tensor<string, []>("attn_weights_1_transpose_y_0"), val = tensor<bool, []>(false)];
            tensor<fp16, [2, 12, 4096, 4096]> attn_weights_1_cast = matmul(transpose_x = attn_weights_1_transpose_x_0, transpose_y = attn_weights_1_transpose_y_0, x = var_421_cast, y = var_423_cast)[name = tensor<string, []>("attn_weights_1_cast")];
            tensor<fp16, []> var_277_to_fp16 = const()[name = tensor<string, []>("op_277_to_fp16"), val = tensor<fp16, []>(0x1p-3)];
            tensor<fp16, [2, 12, 4096, 4096]> attn_weights_3_cast = mul(x = attn_weights_1_cast, y = var_277_to_fp16)[name = tensor<string, []>("attn_weights_3_cast")];
            tensor<fp16, [2, 12, 4096, 4096]> var_429_cast = softmax(axis = var_270, x = attn_weights_3_cast)[name = tensor<string, []>("op_429_cast")];
            tensor<bool, []> attn_1_transpose_x_0 = const()[name = tensor<string, []>("attn_1_transpose_x_0"), val = tensor<bool, []>(false)];
            tensor<bool, []> attn_1_transpose_y_0 = const()[name = tensor<string, []>("attn_1_transpose_y_0"), val = tensor<bool, []>(true)];
            tensor<fp16, [2, 12, 64, 4096]> attn_1_cast = matmul(transpose_x = attn_1_transpose_x_0, transpose_y = attn_1_transpose_y_0, x = var_425_cast, y = var_429_cast)[name = tensor<string, []>("attn_1_cast")];
            tensor<int32, [4]> var_433 = const()[name = tensor<string, []>("op_433"), val = tensor<int32, [4]>([2, 768, 1, -1])];
            tensor<fp16, [2, 768, 1, 4096]> input_61_cast = reshape(shape = var_433, x = attn_1_cast)[name = tensor<string, []>("input_61_cast")];
            tensor<int32, [2]> var_438 = const()[name = tensor<string, []>("op_438"), val = tensor<int32, [2]>([1, 1])];
            tensor<int32, [2]> var_440 = const()[name = tensor<string, []>("op_440"), val = tensor<int32, [2]>([1, 1])];
            tensor<string, []> var_442_pad_type_0 = const()[name = tensor<string, []>("op_442_pad_type_0"), val = tensor<string, []>("custom")];
            tensor<int32, [4]> var_442_pad_0 = const()[name = tensor<string, []>("op_442_pad_0"), val = tensor<int32, [4]>([0, 0, 0, 0])];
            tensor<fp16, [768, 768, 1, 1]> down_blocks_1_attentions_0_transformer_blocks_0_attn1_to_out_0_weight_to_fp16 = const()[name = tensor<string, []>("down_blocks_1_attentions_0_transformer_blocks_0_attn1_to_out_0_weight_to_fp16"), val = tensor<fp16, [768, 768, 1, 1]>(BLOBFILE(path = tensor<string, []>("@model_path/weights/weight.bin"), offset = tensor<uint64, []>(57784192)))];
            tensor<fp16, [768]> down_blocks_1_attentions_0_transformer_blocks_0_attn1_to_out_0_bias_to_fp16 = const()[name = tensor<string, []>("down_blocks_1_attentions_0_transformer_blocks_0_attn1_to_out_0_bias_to_fp16"), val = tensor<fp16, [768]>(BLOBFILE(path = tensor<string, []>("@model_path/weights/weight.bin"), offset = tensor<uint64, []>(58963904)))];
            tensor<fp16, [2, 768, 1, 4096]> var_442_cast = conv(bias = down_blocks_1_attentions_0_transformer_blocks_0_attn1_to_out_0_bias_to_fp16, dilations = var_440, groups = var_286, pad = var_442_pad_0, pad_type = var_442_pad_type_0, strides = var_438, weight = down_blocks_1_attentions_0_transformer_blocks_0_attn1_to_out_0_weight_to_fp16, x = input_61_cast)[name = tensor<string, []>("op_442_cast")];
            tensor<fp16, [2, 768, 1, 4096]> inputs_3_cast = add(x = var_442_cast, y = inputs_1_cast)[name = tensor<string, []>("inputs_3_cast")];
            tensor<int32, [1]> var_446 = const()[name = tensor<string, []>("op_446"), val = tensor<int32, [1]>([1])];
            tensor<fp16, [2, 1, 1, 4096]> channels_mean_3_cast = reduce_mean(axes = var_446, keep_dims = var_281, x = inputs_3_cast)[name = tensor<string, []>("channels_mean_3_cast")];
            tensor<fp16, [2, 768, 1, 4096]> zero_mean_3_cast = sub(x = inputs_3_cast, y = channels_mean_3_cast)[name = tensor<string, []>("zero_mean_3_cast")];
            tensor<fp16, [2, 768, 1, 4096]> zero_mean_sq_3_cast = mul(x = zero_mean_3_cast, y = zero_mean_3_cast)[name = tensor<string, []>("zero_mean_sq_3_cast")];
            tensor<int32, [1]> var_450 = const()[name = tensor<string, []>("op_450"), val = tensor<int32, [1]>([1])];
            tensor<fp16, [2, 1, 1, 4096]> var_451_cast = reduce_mean(axes = var_450, keep_dims = var_281, x = zero_mean_sq_3_cast)[name = tensor<string, []>("op_451_cast")];
            tensor<fp16, []> var_452_to_fp16 = const()[name = tensor<string, []>("op_452_to_fp16"), val = tensor<fp16, []>(0x1.5p-17)];
            tensor<fp16, [2, 1, 1, 4096]> var_453_cast = add(x = var_451_cast, y = var_452_to_fp16)[name = tensor<string, []>("op_453_cast")];
            tensor<fp16, []> denom_3_epsilon_0_to_fp16 = const()[name = tensor<string, []>("denom_3_epsilon_0_to_fp16"), val = tensor<fp16, []>(0x1p-24)];
            tensor<fp16, [2, 1, 1, 4096]> denom_3_cast = rsqrt(epsilon = denom_3_epsilon_0_to_fp16, x = var_453_cast)[name = tensor<string, []>("denom_3_cast")];
            tensor<fp16, [2, 768, 1, 4096]> out_3_cast = mul(x = zero_mean_3_cast, y = denom_3_cast)[name = tensor<string, []>("out_3_cast")];
            tensor<fp16, [1, 768, 1, 1]> var_457_to_fp16 = const()[name = tensor<string, []>("op_457_to_fp16"), val = tensor<fp16, [1, 768, 1, 1]>(BLOBFILE(path = tensor<string, []>("@model_path/weights/weight.bin"), offset = tensor<uint64, []>(58965504)))];
            tensor<fp16, [2, 768, 1, 4096]> var_458_cast = add(x = out_3_cast, y = var_457_to_fp16)[name = tensor<string, []>("op_458_cast")];
            tensor<fp16, [1, 768, 1, 1]> var_460_to_fp16 = const()[name = tensor<string, []>("op_460_to_fp16"), val = tensor<fp16, [1, 768, 1, 1]>(BLOBFILE(path = tensor<string, []>("@model_path/weights/weight.bin"), offset = tensor<uint64, []>(58967104)))];
            tensor<fp16, [2, 768, 1, 4096]> hidden_states_19_cast = mul(x = var_458_cast, y = var_460_to_fp16)[name = tensor<string, []>("hidden_states_19_cast")];
            tensor<int32, [2]> var_467 = const()[name = tensor<string, []>("op_467"), val = tensor<int32, [2]>([1, 1])];
            tensor<int32, [2]> var_469 = const()[name = tensor<string, []>("op_469"), val = tensor<int32, [2]>([1, 1])];
            tensor<string, []> q_3_pad_type_0 = const()[name = tensor<string, []>("q_3_pad_type_0"), val = tensor<string, []>("custom")];
            tensor<int32, [4]> q_3_pad_0 = const()[name = tensor<string, []>("q_3_pad_0"), val = tensor<int32, [4]>([0, 0, 0, 0])];
            tensor<fp16, [768, 768, 1, 1]> down_blocks_1_attentions_0_transformer_blocks_0_attn2_to_q_weight_to_fp16 = const()[name = tensor<string, []>("down_blocks_1_attentions_0_transformer_blocks_0_attn2_to_q_weight_to_fp16"), val = tensor<fp16, [768, 768, 1, 1]>(BLOBFILE(path = tensor<string, []>("@model_path/weights/weight.bin"), offset = tensor<uint64, []>(58968704)))];
            tensor<fp16, [2, 768, 1, 4096]> q_3_cast = conv(dilations = var_469, groups = var_286, pad = q_3_pad_0, pad_type = q_3_pad_type_0, strides = var_467, weight = down_blocks_1_attentions_0_transformer_blocks_0_attn2_to_q_weight_to_fp16, x = hidden_states_19_cast)[name = tensor<string, []>("q_3_cast")];
            tensor<int32, [2]> var_473 = const()[name = tensor<string, []>("op_473"), val = tensor<int32, [2]>([1, 1])];
            tensor<int32, [2]> var_475 = const()[name = tensor<string, []>("op_475"), val = tensor<int32, [2]>([1, 1])];
            tensor<string, []> k_3_pad_type_0 = const()[name = tensor<string, []>("k_3_pad_type_0"), val = tensor<string, []>("custom")];
            tensor<int32, [4]> k_3_pad_0 = const()[name = tensor<string, []>("k_3_pad_0"), val = tensor<int32, [4]>([0, 0, 0, 0])];
            tensor<fp16, [768, 1280, 1, 1]> down_blocks_1_attentions_0_transformer_blocks_0_attn2_to_k_weight_to_fp16 = const()[name = tensor<string, []>("down_blocks_1_attentions_0_transformer_blocks_0_attn2_to_k_weight_to_fp16"), val = tensor<fp16, [768, 1280, 1, 1]>(BLOBFILE(path = tensor<string, []>("@model_path/weights/weight.bin"), offset = tensor<uint64, []>(60148416)))];
            tensor<fp16, [2, 768, 1, 77]> k_3_cast = conv(dilations = var_475, groups = var_286, pad = k_3_pad_0, pad_type = k_3_pad_type_0, strides = var_473, weight = down_blocks_1_attentions_0_transformer_blocks_0_attn2_to_k_weight_to_fp16, x = encoder_hidden_states)[name = tensor<string, []>("k_3_cast")];
            tensor<int32, [2]> var_479 = const()[name = tensor<string, []>("op_479"), val = tensor<int32, [2]>([1, 1])];
            tensor<int32, [2]> var_481 = const()[name = tensor<string, []>("op_481"), val = tensor<int32, [2]>([1, 1])];
            tensor<string, []> v_3_pad_type_0 = const()[name = tensor<string, []>("v_3_pad_type_0"), val = tensor<string, []>("custom")];
            tensor<int32, [4]> v_3_pad_0 = const()[name = tensor<string, []>("v_3_pad_0"), val = tensor<int32, [4]>([0, 0, 0, 0])];
            tensor<fp16, [768, 1280, 1, 1]> down_blocks_1_attentions_0_transformer_blocks_0_attn2_to_v_weight_to_fp16 = const()[name = tensor<string, []>("down_blocks_1_attentions_0_transformer_blocks_0_attn2_to_v_weight_to_fp16"), val = tensor<fp16, [768, 1280, 1, 1]>(BLOBFILE(path = tensor<string, []>("@model_path/weights/weight.bin"), offset = tensor<uint64, []>(62114560)))];
            tensor<fp16, [2, 768, 1, 77]> v_3_cast = conv(dilations = var_481, groups = var_286, pad = v_3_pad_0, pad_type = v_3_pad_type_0, strides = var_479, weight = down_blocks_1_attentions_0_transformer_blocks_0_attn2_to_v_weight_to_fp16, x = encoder_hidden_states)[name = tensor<string, []>("v_3_cast")];
            tensor<int32, [4]> var_485 = const()[name = tensor<string, []>("op_485"), val = tensor<int32, [4]>([2, 12, 64, -1])];
            tensor<fp16, [2, 12, 64, 4096]> var_486_cast = reshape(shape = var_485, x = q_3_cast)[name = tensor<string, []>("op_486_cast")];
            tensor<int32, [4]> var_487 = const()[name = tensor<string, []>("op_487"), val = tensor<int32, [4]>([2, 12, 64, -1])];
            tensor<fp16, [2, 12, 64, 77]> var_488_cast = reshape(shape = var_487, x = k_3_cast)[name = tensor<string, []>("op_488_cast")];
            tensor<int32, [4]> var_489 = const()[name = tensor<string, []>("op_489"), val = tensor<int32, [4]>([2, 12, 64, -1])];
            tensor<fp16, [2, 12, 64, 77]> var_490_cast = reshape(shape = var_489, x = v_3_cast)[name = tensor<string, []>("op_490_cast")];
            tensor<bool, []> attn_weights_5_transpose_x_0 = const()[name = tensor<string, []>("attn_weights_5_transpose_x_0"), val = tensor<bool, []>(true)];
            tensor<bool, []> attn_weights_5_transpose_y_0 = const()[name = tensor<string, []>("attn_weights_5_transpose_y_0"), val = tensor<bool, []>(false)];
            tensor<fp16, [2, 12, 4096, 77]> attn_weights_5_cast = matmul(transpose_x = attn_weights_5_transpose_x_0, transpose_y = attn_weights_5_transpose_y_0, x = var_486_cast, y = var_488_cast)[name = tensor<string, []>("attn_weights_5_cast")];
            tensor<fp16, [2, 12, 4096, 77]> attn_weights_7_cast = mul(x = attn_weights_5_cast, y = var_277_to_fp16)[name = tensor<string, []>("attn_weights_7_cast")];
            tensor<fp16, [2, 12, 4096, 77]> var_494_cast = softmax(axis = var_270, x = attn_weights_7_cast)[name = tensor<string, []>("op_494_cast")];
            tensor<bool, []> attn_3_transpose_x_0 = const()[name = tensor<string, []>("attn_3_transpose_x_0"), val = tensor<bool, []>(false)];
            tensor<bool, []> attn_3_transpose_y_0 = const()[name = tensor<string, []>("attn_3_transpose_y_0"), val = tensor<bool, []>(true)];
            tensor<fp16, [2, 12, 64, 4096]> attn_3_cast = matmul(transpose_x = attn_3_transpose_x_0, transpose_y = attn_3_transpose_y_0, x = var_490_cast, y = var_494_cast)[name = tensor<string, []>("attn_3_cast")];
            tensor<int32, [4]> var_498 = const()[name = tensor<string, []>("op_498"), val = tensor<int32, [4]>([2, 768, 1, -1])];
            tensor<fp16, [2, 768, 1, 4096]> input_63_cast = reshape(shape = var_498, x = attn_3_cast)[name = tensor<string, []>("input_63_cast")];
            tensor<int32, [2]> var_503 = const()[name = tensor<string, []>("op_503"), val = tensor<int32, [2]>([1, 1])];
            tensor<int32, [2]> var_505 = const()[name = tensor<string, []>("op_505"), val = tensor<int32, [2]>([1, 1])];
            tensor<string, []> var_507_pad_type_0 = const()[name = tensor<string, []>("op_507_pad_type_0"), val = tensor<string, []>("custom")];
            tensor<int32, [4]> var_507_pad_0 = const()[name = tensor<string, []>("op_507_pad_0"), val = tensor<int32, [4]>([0, 0, 0, 0])];
            tensor<fp16, [768, 768, 1, 1]> down_blocks_1_attentions_0_transformer_blocks_0_attn2_to_out_0_weight_to_fp16 = const()[name = tensor<string, []>("down_blocks_1_attentions_0_transformer_blocks_0_attn2_to_out_0_weight_to_fp16"), val = tensor<fp16, [768, 768, 1, 1]>(BLOBFILE(path = tensor<string, []>("@model_path/weights/weight.bin"), offset = tensor<uint64, []>(64080704)))];
            tensor<fp16, [768]> down_blocks_1_attentions_0_transformer_blocks_0_attn2_to_out_0_bias_to_fp16 = const()[name = tensor<string, []>("down_blocks_1_attentions_0_transformer_blocks_0_attn2_to_out_0_bias_to_fp16"), val = tensor<fp16, [768]>(BLOBFILE(path = tensor<string, []>("@model_path/weights/weight.bin"), offset = tensor<uint64, []>(65260416)))];
            tensor<fp16, [2, 768, 1, 4096]> var_507_cast = conv(bias = down_blocks_1_attentions_0_transformer_blocks_0_attn2_to_out_0_bias_to_fp16, dilations = var_505, groups = var_286, pad = var_507_pad_0, pad_type = var_507_pad_type_0, strides = var_503, weight = down_blocks_1_attentions_0_transformer_blocks_0_attn2_to_out_0_weight_to_fp16, x = input_63_cast)[name = tensor<string, []>("op_507_cast")];
            tensor<fp16, [2, 768, 1, 4096]> inputs_5_cast = add(x = var_507_cast, y = inputs_3_cast)[name = tensor<string, []>("inputs_5_cast")];
            tensor<int32, [1]> var_511 = const()[name = tensor<string, []>("op_511"), val = tensor<int32, [1]>([1])];
            tensor<fp16, [2, 1, 1, 4096]> channels_mean_5_cast = reduce_mean(axes = var_511, keep_dims = var_281, x = inputs_5_cast)[name = tensor<string, []>("channels_mean_5_cast")];
            tensor<fp16, [2, 768, 1, 4096]> zero_mean_5_cast = sub(x = inputs_5_cast, y = channels_mean_5_cast)[name = tensor<string, []>("zero_mean_5_cast")];
            tensor<fp16, [2, 768, 1, 4096]> zero_mean_sq_5_cast = mul(x = zero_mean_5_cast, y = zero_mean_5_cast)[name = tensor<string, []>("zero_mean_sq_5_cast")];
            tensor<int32, [1]> var_515 = const()[name = tensor<string, []>("op_515"), val = tensor<int32, [1]>([1])];
            tensor<fp16, [2, 1, 1, 4096]> var_516_cast = reduce_mean(axes = var_515, keep_dims = var_281, x = zero_mean_sq_5_cast)[name = tensor<string, []>("op_516_cast")];
            tensor<fp16, []> var_517_to_fp16 = const()[name = tensor<string, []>("op_517_to_fp16"), val = tensor<fp16, []>(0x1.5p-17)];
            tensor<fp16, [2, 1, 1, 4096]> var_518_cast = add(x = var_516_cast, y = var_517_to_fp16)[name = tensor<string, []>("op_518_cast")];
            tensor<fp16, []> denom_5_epsilon_0_to_fp16 = const()[name = tensor<string, []>("denom_5_epsilon_0_to_fp16"), val = tensor<fp16, []>(0x1p-24)];
            tensor<fp16, [2, 1, 1, 4096]> denom_5_cast = rsqrt(epsilon = denom_5_epsilon_0_to_fp16, x = var_518_cast)[name = tensor<string, []>("denom_5_cast")];
            tensor<fp16, [2, 768, 1, 4096]> out_5_cast = mul(x = zero_mean_5_cast, y = denom_5_cast)[name = tensor<string, []>("out_5_cast")];
            tensor<fp16, [1, 768, 1, 1]> var_522_to_fp16 = const()[name = tensor<string, []>("op_522_to_fp16"), val = tensor<fp16, [1, 768, 1, 1]>(BLOBFILE(path = tensor<string, []>("@model_path/weights/weight.bin"), offset = tensor<uint64, []>(65262016)))];
            tensor<fp16, [2, 768, 1, 4096]> var_523_cast = add(x = out_5_cast, y = var_522_to_fp16)[name = tensor<string, []>("op_523_cast")];
            tensor<fp16, [1, 768, 1, 1]> var_525_to_fp16 = const()[name = tensor<string, []>("op_525_to_fp16"), val = tensor<fp16, [1, 768, 1, 1]>(BLOBFILE(path = tensor<string, []>("@model_path/weights/weight.bin"), offset = tensor<uint64, []>(65263616)))];
            tensor<fp16, [2, 768, 1, 4096]> input_65_cast = mul(x = var_523_cast, y = var_525_to_fp16)[name = tensor<string, []>("input_65_cast")];
            tensor<int32, [2]> var_533 = const()[name = tensor<string, []>("op_533"), val = tensor<int32, [2]>([1, 1])];
            tensor<int32, [2]> var_535 = const()[name = tensor<string, []>("op_535"), val = tensor<int32, [2]>([1, 1])];
            tensor<string, []> var_537_pad_type_0 = const()[name = tensor<string, []>("op_537_pad_type_0"), val = tensor<string, []>("custom")];
            tensor<int32, [4]> var_537_pad_0 = const()[name = tensor<string, []>("op_537_pad_0"), val = tensor<int32, [4]>([0, 0, 0, 0])];
            tensor<fp16, [6144, 768, 1, 1]> down_blocks_1_attentions_0_transformer_blocks_0_ff_net_0_proj_weight_to_fp16 = const()[name = tensor<string, []>("down_blocks_1_attentions_0_transformer_blocks_0_ff_net_0_proj_weight_to_fp16"), val = tensor<fp16, [6144, 768, 1, 1]>(BLOBFILE(path = tensor<string, []>("@model_path/weights/weight.bin"), offset = tensor<uint64, []>(65265216)))];
            tensor<fp16, [6144]> down_blocks_1_attentions_0_transformer_blocks_0_ff_net_0_proj_bias_to_fp16 = const()[name = tensor<string, []>("down_blocks_1_attentions_0_transformer_blocks_0_ff_net_0_proj_bias_to_fp16"), val = tensor<fp16, [6144]>(BLOBFILE(path = tensor<string, []>("@model_path/weights/weight.bin"), offset = tensor<uint64, []>(74702464)))];
            tensor<fp16, [2, 6144, 1, 4096]> var_537_cast = conv(bias = down_blocks_1_attentions_0_transformer_blocks_0_ff_net_0_proj_bias_to_fp16, dilations = var_535, groups = var_286, pad = var_537_pad_0, pad_type = var_537_pad_type_0, strides = var_533, weight = down_blocks_1_attentions_0_transformer_blocks_0_ff_net_0_proj_weight_to_fp16, x = input_65_cast)[name = tensor<string, []>("op_537_cast")];
            tensor<int32, [2]> var_538_split_sizes_0 = const()[name = tensor<string, []>("op_538_split_sizes_0"), val = tensor<int32, [2]>([3072, 3072])];
            tensor<int32, []> var_538_axis_0 = const()[name = tensor<string, []>("op_538_axis_0"), val = tensor<int32, []>(1)];
            tensor<fp16, [2, 3072, 1, 4096]> var_538_cast_0, tensor<fp16, [2, 3072, 1, 4096]> var_538_cast_1 = split(axis = var_538_axis_0, split_sizes = var_538_split_sizes_0, x = var_537_cast)[name = tensor<string, []>("op_538_cast")];
            tensor<string, []> var_540_mode_0 = const()[name = tensor<string, []>("op_540_mode_0"), val = tensor<string, []>("EXACT")];
            tensor<fp16, [2, 3072, 1, 4096]> var_540_cast = gelu(mode = var_540_mode_0, x = var_538_cast_1)[name = tensor<string, []>("op_540_cast")];
            tensor<fp16, [2, 3072, 1, 4096]> input_67_cast = mul(x = var_538_cast_0, y = var_540_cast)[name = tensor<string, []>("input_67_cast")];
            tensor<int32, [2]> var_544 = const()[name = tensor<string, []>("op_544"), val = tensor<int32, [2]>([1, 1])];
            tensor<int32, [2]> var_546 = const()[name = tensor<string, []>("op_546"), val = tensor<int32, [2]>([1, 1])];
            tensor<string, []> var_548_pad_type_0 = const()[name = tensor<string, []>("op_548_pad_type_0"), val = tensor<string, []>("custom")];
            tensor<int32, [4]> var_548_pad_0 = const()[name = tensor<string, []>("op_548_pad_0"), val = tensor<int32, [4]>([0, 0, 0, 0])];
            tensor<fp16, [768, 3072, 1, 1]> down_blocks_1_attentions_0_transformer_blocks_0_ff_net_2_weight_to_fp16 = const()[name = tensor<string, []>("down_blocks_1_attentions_0_transformer_blocks_0_ff_net_2_weight_to_fp16"), val = tensor<fp16, [768, 3072, 1, 1]>(BLOBFILE(path = tensor<string, []>("@model_path/weights/weight.bin"), offset = tensor<uint64, []>(74714816)))];
            tensor<fp16, [768]> down_blocks_1_attentions_0_transformer_blocks_0_ff_net_2_bias_to_fp16 = const()[name = tensor<string, []>("down_blocks_1_attentions_0_transformer_blocks_0_ff_net_2_bias_to_fp16"), val = tensor<fp16, [768]>(BLOBFILE(path = tensor<string, []>("@model_path/weights/weight.bin"), offset = tensor<uint64, []>(79433472)))];
            tensor<fp16, [2, 768, 1, 4096]> var_548_cast = conv(bias = down_blocks_1_attentions_0_transformer_blocks_0_ff_net_2_bias_to_fp16, dilations = var_546, groups = var_286, pad = var_548_pad_0, pad_type = var_548_pad_type_0, strides = var_544, weight = down_blocks_1_attentions_0_transformer_blocks_0_ff_net_2_weight_to_fp16, x = input_67_cast)[name = tensor<string, []>("op_548_cast")];
            tensor<fp16, [2, 768, 1, 4096]> inputs_7_cast = add(x = var_548_cast, y = inputs_5_cast)[name = tensor<string, []>("inputs_7_cast")];
            tensor<int32, [1]> var_558 = const()[name = tensor<string, []>("op_558"), val = tensor<int32, [1]>([1])];
            tensor<fp16, [2, 1, 1, 4096]> channels_mean_7_cast = reduce_mean(axes = var_558, keep_dims = var_281, x = inputs_7_cast)[name = tensor<string, []>("channels_mean_7_cast")];
            tensor<fp16, [2, 768, 1, 4096]> zero_mean_7_cast = sub(x = inputs_7_cast, y = channels_mean_7_cast)[name = tensor<string, []>("zero_mean_7_cast")];
            tensor<fp16, [2, 768, 1, 4096]> zero_mean_sq_7_cast = mul(x = zero_mean_7_cast, y = zero_mean_7_cast)[name = tensor<string, []>("zero_mean_sq_7_cast")];
            tensor<int32, [1]> var_562 = const()[name = tensor<string, []>("op_562"), val = tensor<int32, [1]>([1])];
            tensor<fp16, [2, 1, 1, 4096]> var_563_cast = reduce_mean(axes = var_562, keep_dims = var_281, x = zero_mean_sq_7_cast)[name = tensor<string, []>("op_563_cast")];
            tensor<fp16, []> var_564_to_fp16 = const()[name = tensor<string, []>("op_564_to_fp16"), val = tensor<fp16, []>(0x1.5p-17)];
            tensor<fp16, [2, 1, 1, 4096]> var_565_cast = add(x = var_563_cast, y = var_564_to_fp16)[name = tensor<string, []>("op_565_cast")];
            tensor<fp16, []> denom_7_epsilon_0_to_fp16 = const()[name = tensor<string, []>("denom_7_epsilon_0_to_fp16"), val = tensor<fp16, []>(0x1p-24)];
            tensor<fp16, [2, 1, 1, 4096]> denom_7_cast = rsqrt(epsilon = denom_7_epsilon_0_to_fp16, x = var_565_cast)[name = tensor<string, []>("denom_7_cast")];
            tensor<fp16, [2, 768, 1, 4096]> out_7_cast = mul(x = zero_mean_7_cast, y = denom_7_cast)[name = tensor<string, []>("out_7_cast")];
            tensor<fp16, [1, 768, 1, 1]> var_569_to_fp16 = const()[name = tensor<string, []>("op_569_to_fp16"), val = tensor<fp16, [1, 768, 1, 1]>(BLOBFILE(path = tensor<string, []>("@model_path/weights/weight.bin"), offset = tensor<uint64, []>(79435072)))];
            tensor<fp16, [2, 768, 1, 4096]> var_570_cast = add(x = out_7_cast, y = var_569_to_fp16)[name = tensor<string, []>("op_570_cast")];
            tensor<fp16, [1, 768, 1, 1]> var_572_to_fp16 = const()[name = tensor<string, []>("op_572_to_fp16"), val = tensor<fp16, [1, 768, 1, 1]>(BLOBFILE(path = tensor<string, []>("@model_path/weights/weight.bin"), offset = tensor<uint64, []>(79436672)))];
            tensor<fp16, [2, 768, 1, 4096]> hidden_states_23_cast = mul(x = var_570_cast, y = var_572_to_fp16)[name = tensor<string, []>("hidden_states_23_cast")];
            tensor<int32, [2]> var_579 = const()[name = tensor<string, []>("op_579"), val = tensor<int32, [2]>([1, 1])];
            tensor<int32, [2]> var_581 = const()[name = tensor<string, []>("op_581"), val = tensor<int32, [2]>([1, 1])];
            tensor<string, []> q_5_pad_type_0 = const()[name = tensor<string, []>("q_5_pad_type_0"), val = tensor<string, []>("custom")];
            tensor<int32, [4]> q_5_pad_0 = const()[name = tensor<string, []>("q_5_pad_0"), val = tensor<int32, [4]>([0, 0, 0, 0])];
            tensor<fp16, [768, 768, 1, 1]> down_blocks_1_attentions_0_transformer_blocks_1_attn1_to_q_weight_to_fp16 = const()[name = tensor<string, []>("down_blocks_1_attentions_0_transformer_blocks_1_attn1_to_q_weight_to_fp16"), val = tensor<fp16, [768, 768, 1, 1]>(BLOBFILE(path = tensor<string, []>("@model_path/weights/weight.bin"), offset = tensor<uint64, []>(79438272)))];
            tensor<fp16, [2, 768, 1, 4096]> q_5_cast = conv(dilations = var_581, groups = var_286, pad = q_5_pad_0, pad_type = q_5_pad_type_0, strides = var_579, weight = down_blocks_1_attentions_0_transformer_blocks_1_attn1_to_q_weight_to_fp16, x = hidden_states_23_cast)[name = tensor<string, []>("q_5_cast")];
            tensor<int32, [2]> var_585 = const()[name = tensor<string, []>("op_585"), val = tensor<int32, [2]>([1, 1])];
            tensor<int32, [2]> var_587 = const()[name = tensor<string, []>("op_587"), val = tensor<int32, [2]>([1, 1])];
            tensor<string, []> k_5_pad_type_0 = const()[name = tensor<string, []>("k_5_pad_type_0"), val = tensor<string, []>("custom")];
            tensor<int32, [4]> k_5_pad_0 = const()[name = tensor<string, []>("k_5_pad_0"), val = tensor<int32, [4]>([0, 0, 0, 0])];
            tensor<fp16, [768, 768, 1, 1]> down_blocks_1_attentions_0_transformer_blocks_1_attn1_to_k_weight_to_fp16 = const()[name = tensor<string, []>("down_blocks_1_attentions_0_transformer_blocks_1_attn1_to_k_weight_to_fp16"), val = tensor<fp16, [768, 768, 1, 1]>(BLOBFILE(path = tensor<string, []>("@model_path/weights/weight.bin"), offset = tensor<uint64, []>(80617984)))];
            tensor<fp16, [2, 768, 1, 4096]> k_5_cast = conv(dilations = var_587, groups = var_286, pad = k_5_pad_0, pad_type = k_5_pad_type_0, strides = var_585, weight = down_blocks_1_attentions_0_transformer_blocks_1_attn1_to_k_weight_to_fp16, x = hidden_states_23_cast)[name = tensor<string, []>("k_5_cast")];
            tensor<int32, [2]> var_591 = const()[name = tensor<string, []>("op_591"), val = tensor<int32, [2]>([1, 1])];
            tensor<int32, [2]> var_593 = const()[name = tensor<string, []>("op_593"), val = tensor<int32, [2]>([1, 1])];
            tensor<string, []> v_5_pad_type_0 = const()[name = tensor<string, []>("v_5_pad_type_0"), val = tensor<string, []>("custom")];
            tensor<int32, [4]> v_5_pad_0 = const()[name = tensor<string, []>("v_5_pad_0"), val = tensor<int32, [4]>([0, 0, 0, 0])];
            tensor<fp16, [768, 768, 1, 1]> down_blocks_1_attentions_0_transformer_blocks_1_attn1_to_v_weight_to_fp16 = const()[name = tensor<string, []>("down_blocks_1_attentions_0_transformer_blocks_1_attn1_to_v_weight_to_fp16"), val = tensor<fp16, [768, 768, 1, 1]>(BLOBFILE(path = tensor<string, []>("@model_path/weights/weight.bin"), offset = tensor<uint64, []>(81797696)))];
            tensor<fp16, [2, 768, 1, 4096]> v_5_cast = conv(dilations = var_593, groups = var_286, pad = v_5_pad_0, pad_type = v_5_pad_type_0, strides = var_591, weight = down_blocks_1_attentions_0_transformer_blocks_1_attn1_to_v_weight_to_fp16, x = hidden_states_23_cast)[name = tensor<string, []>("v_5_cast")];
            tensor<int32, [4]> var_597 = const()[name = tensor<string, []>("op_597"), val = tensor<int32, [4]>([2, 12, 64, -1])];
            tensor<fp16, [2, 12, 64, 4096]> var_598_cast = reshape(shape = var_597, x = q_5_cast)[name = tensor<string, []>("op_598_cast")];
            tensor<int32, [4]> var_599 = const()[name = tensor<string, []>("op_599"), val = tensor<int32, [4]>([2, 12, 64, -1])];
            tensor<fp16, [2, 12, 64, 4096]> var_600_cast = reshape(shape = var_599, x = k_5_cast)[name = tensor<string, []>("op_600_cast")];
            tensor<int32, [4]> var_601 = const()[name = tensor<string, []>("op_601"), val = tensor<int32, [4]>([2, 12, 64, -1])];
            tensor<fp16, [2, 12, 64, 4096]> var_602_cast = reshape(shape = var_601, x = v_5_cast)[name = tensor<string, []>("op_602_cast")];
            tensor<bool, []> attn_weights_9_transpose_x_0 = const()[name = tensor<string, []>("attn_weights_9_transpose_x_0"), val = tensor<bool, []>(true)];
            tensor<bool, []> attn_weights_9_transpose_y_0 = const()[name = tensor<string, []>("attn_weights_9_transpose_y_0"), val = tensor<bool, []>(false)];
            tensor<fp16, [2, 12, 4096, 4096]> attn_weights_9_cast = matmul(transpose_x = attn_weights_9_transpose_x_0, transpose_y = attn_weights_9_transpose_y_0, x = var_598_cast, y = var_600_cast)[name = tensor<string, []>("attn_weights_9_cast")];
            tensor<fp16, [2, 12, 4096, 4096]> attn_weights_11_cast = mul(x = attn_weights_9_cast, y = var_277_to_fp16)[name = tensor<string, []>("attn_weights_11_cast")];
            tensor<fp16, [2, 12, 4096, 4096]> var_606_cast = softmax(axis = var_270, x = attn_weights_11_cast)[name = tensor<string, []>("op_606_cast")];
            tensor<bool, []> attn_5_transpose_x_0 = const()[name = tensor<string, []>("attn_5_transpose_x_0"), val = tensor<bool, []>(false)];
            tensor<bool, []> attn_5_transpose_y_0 = const()[name = tensor<string, []>("attn_5_transpose_y_0"), val = tensor<bool, []>(true)];
            tensor<fp16, [2, 12, 64, 4096]> attn_5_cast = matmul(transpose_x = attn_5_transpose_x_0, transpose_y = attn_5_transpose_y_0, x = var_602_cast, y = var_606_cast)[name = tensor<string, []>("attn_5_cast")];
            tensor<int32, [4]> var_610 = const()[name = tensor<string, []>("op_610"), val = tensor<int32, [4]>([2, 768, 1, -1])];
            tensor<fp16, [2, 768, 1, 4096]> input_69_cast = reshape(shape = var_610, x = attn_5_cast)[name = tensor<string, []>("input_69_cast")];
            tensor<int32, [2]> var_615 = const()[name = tensor<string, []>("op_615"), val = tensor<int32, [2]>([1, 1])];
            tensor<int32, [2]> var_617 = const()[name = tensor<string, []>("op_617"), val = tensor<int32, [2]>([1, 1])];
            tensor<string, []> var_619_pad_type_0 = const()[name = tensor<string, []>("op_619_pad_type_0"), val = tensor<string, []>("custom")];
            tensor<int32, [4]> var_619_pad_0 = const()[name = tensor<string, []>("op_619_pad_0"), val = tensor<int32, [4]>([0, 0, 0, 0])];
            tensor<fp16, [768, 768, 1, 1]> down_blocks_1_attentions_0_transformer_blocks_1_attn1_to_out_0_weight_to_fp16 = const()[name = tensor<string, []>("down_blocks_1_attentions_0_transformer_blocks_1_attn1_to_out_0_weight_to_fp16"), val = tensor<fp16, [768, 768, 1, 1]>(BLOBFILE(path = tensor<string, []>("@model_path/weights/weight.bin"), offset = tensor<uint64, []>(82977408)))];
            tensor<fp16, [768]> down_blocks_1_attentions_0_transformer_blocks_1_attn1_to_out_0_bias_to_fp16 = const()[name = tensor<string, []>("down_blocks_1_attentions_0_transformer_blocks_1_attn1_to_out_0_bias_to_fp16"), val = tensor<fp16, [768]>(BLOBFILE(path = tensor<string, []>("@model_path/weights/weight.bin"), offset = tensor<uint64, []>(84157120)))];
            tensor<fp16, [2, 768, 1, 4096]> var_619_cast = conv(bias = down_blocks_1_attentions_0_transformer_blocks_1_attn1_to_out_0_bias_to_fp16, dilations = var_617, groups = var_286, pad = var_619_pad_0, pad_type = var_619_pad_type_0, strides = var_615, weight = down_blocks_1_attentions_0_transformer_blocks_1_attn1_to_out_0_weight_to_fp16, x = input_69_cast)[name = tensor<string, []>("op_619_cast")];
            tensor<fp16, [2, 768, 1, 4096]> inputs_9_cast = add(x = var_619_cast, y = inputs_7_cast)[name = tensor<string, []>("inputs_9_cast")];
            tensor<int32, [1]> var_623 = const()[name = tensor<string, []>("op_623"), val = tensor<int32, [1]>([1])];
            tensor<fp16, [2, 1, 1, 4096]> channels_mean_9_cast = reduce_mean(axes = var_623, keep_dims = var_281, x = inputs_9_cast)[name = tensor<string, []>("channels_mean_9_cast")];
            tensor<fp16, [2, 768, 1, 4096]> zero_mean_9_cast = sub(x = inputs_9_cast, y = channels_mean_9_cast)[name = tensor<string, []>("zero_mean_9_cast")];
            tensor<fp16, [2, 768, 1, 4096]> zero_mean_sq_9_cast = mul(x = zero_mean_9_cast, y = zero_mean_9_cast)[name = tensor<string, []>("zero_mean_sq_9_cast")];
            tensor<int32, [1]> var_627 = const()[name = tensor<string, []>("op_627"), val = tensor<int32, [1]>([1])];
            tensor<fp16, [2, 1, 1, 4096]> var_628_cast = reduce_mean(axes = var_627, keep_dims = var_281, x = zero_mean_sq_9_cast)[name = tensor<string, []>("op_628_cast")];
            tensor<fp16, []> var_629_to_fp16 = const()[name = tensor<string, []>("op_629_to_fp16"), val = tensor<fp16, []>(0x1.5p-17)];
            tensor<fp16, [2, 1, 1, 4096]> var_630_cast = add(x = var_628_cast, y = var_629_to_fp16)[name = tensor<string, []>("op_630_cast")];
            tensor<fp16, []> denom_9_epsilon_0_to_fp16 = const()[name = tensor<string, []>("denom_9_epsilon_0_to_fp16"), val = tensor<fp16, []>(0x1p-24)];
            tensor<fp16, [2, 1, 1, 4096]> denom_9_cast = rsqrt(epsilon = denom_9_epsilon_0_to_fp16, x = var_630_cast)[name = tensor<string, []>("denom_9_cast")];
            tensor<fp16, [2, 768, 1, 4096]> out_9_cast = mul(x = zero_mean_9_cast, y = denom_9_cast)[name = tensor<string, []>("out_9_cast")];
            tensor<fp16, [1, 768, 1, 1]> var_634_to_fp16 = const()[name = tensor<string, []>("op_634_to_fp16"), val = tensor<fp16, [1, 768, 1, 1]>(BLOBFILE(path = tensor<string, []>("@model_path/weights/weight.bin"), offset = tensor<uint64, []>(84158720)))];
            tensor<fp16, [2, 768, 1, 4096]> var_635_cast = add(x = out_9_cast, y = var_634_to_fp16)[name = tensor<string, []>("op_635_cast")];
            tensor<fp16, [1, 768, 1, 1]> var_637_to_fp16 = const()[name = tensor<string, []>("op_637_to_fp16"), val = tensor<fp16, [1, 768, 1, 1]>(BLOBFILE(path = tensor<string, []>("@model_path/weights/weight.bin"), offset = tensor<uint64, []>(84160320)))];
            tensor<fp16, [2, 768, 1, 4096]> hidden_states_25_cast = mul(x = var_635_cast, y = var_637_to_fp16)[name = tensor<string, []>("hidden_states_25_cast")];
            tensor<int32, [2]> var_644 = const()[name = tensor<string, []>("op_644"), val = tensor<int32, [2]>([1, 1])];
            tensor<int32, [2]> var_646 = const()[name = tensor<string, []>("op_646"), val = tensor<int32, [2]>([1, 1])];
            tensor<string, []> q_7_pad_type_0 = const()[name = tensor<string, []>("q_7_pad_type_0"), val = tensor<string, []>("custom")];
            tensor<int32, [4]> q_7_pad_0 = const()[name = tensor<string, []>("q_7_pad_0"), val = tensor<int32, [4]>([0, 0, 0, 0])];
            tensor<fp16, [768, 768, 1, 1]> down_blocks_1_attentions_0_transformer_blocks_1_attn2_to_q_weight_to_fp16 = const()[name = tensor<string, []>("down_blocks_1_attentions_0_transformer_blocks_1_attn2_to_q_weight_to_fp16"), val = tensor<fp16, [768, 768, 1, 1]>(BLOBFILE(path = tensor<string, []>("@model_path/weights/weight.bin"), offset = tensor<uint64, []>(84161920)))];
            tensor<fp16, [2, 768, 1, 4096]> q_7_cast = conv(dilations = var_646, groups = var_286, pad = q_7_pad_0, pad_type = q_7_pad_type_0, strides = var_644, weight = down_blocks_1_attentions_0_transformer_blocks_1_attn2_to_q_weight_to_fp16, x = hidden_states_25_cast)[name = tensor<string, []>("q_7_cast")];
            tensor<int32, [2]> var_650 = const()[name = tensor<string, []>("op_650"), val = tensor<int32, [2]>([1, 1])];
            tensor<int32, [2]> var_652 = const()[name = tensor<string, []>("op_652"), val = tensor<int32, [2]>([1, 1])];
            tensor<string, []> k_7_pad_type_0 = const()[name = tensor<string, []>("k_7_pad_type_0"), val = tensor<string, []>("custom")];
            tensor<int32, [4]> k_7_pad_0 = const()[name = tensor<string, []>("k_7_pad_0"), val = tensor<int32, [4]>([0, 0, 0, 0])];
            tensor<fp16, [768, 1280, 1, 1]> down_blocks_1_attentions_0_transformer_blocks_1_attn2_to_k_weight_to_fp16 = const()[name = tensor<string, []>("down_blocks_1_attentions_0_transformer_blocks_1_attn2_to_k_weight_to_fp16"), val = tensor<fp16, [768, 1280, 1, 1]>(BLOBFILE(path = tensor<string, []>("@model_path/weights/weight.bin"), offset = tensor<uint64, []>(85341632)))];
            tensor<fp16, [2, 768, 1, 77]> k_7_cast = conv(dilations = var_652, groups = var_286, pad = k_7_pad_0, pad_type = k_7_pad_type_0, strides = var_650, weight = down_blocks_1_attentions_0_transformer_blocks_1_attn2_to_k_weight_to_fp16, x = encoder_hidden_states)[name = tensor<string, []>("k_7_cast")];
            tensor<int32, [2]> var_656 = const()[name = tensor<string, []>("op_656"), val = tensor<int32, [2]>([1, 1])];
            tensor<int32, [2]> var_658 = const()[name = tensor<string, []>("op_658"), val = tensor<int32, [2]>([1, 1])];
            tensor<string, []> v_7_pad_type_0 = const()[name = tensor<string, []>("v_7_pad_type_0"), val = tensor<string, []>("custom")];
            tensor<int32, [4]> v_7_pad_0 = const()[name = tensor<string, []>("v_7_pad_0"), val = tensor<int32, [4]>([0, 0, 0, 0])];
            tensor<fp16, [768, 1280, 1, 1]> down_blocks_1_attentions_0_transformer_blocks_1_attn2_to_v_weight_to_fp16 = const()[name = tensor<string, []>("down_blocks_1_attentions_0_transformer_blocks_1_attn2_to_v_weight_to_fp16"), val = tensor<fp16, [768, 1280, 1, 1]>(BLOBFILE(path = tensor<string, []>("@model_path/weights/weight.bin"), offset = tensor<uint64, []>(87307776)))];
            tensor<fp16, [2, 768, 1, 77]> v_7_cast = conv(dilations = var_658, groups = var_286, pad = v_7_pad_0, pad_type = v_7_pad_type_0, strides = var_656, weight = down_blocks_1_attentions_0_transformer_blocks_1_attn2_to_v_weight_to_fp16, x = encoder_hidden_states)[name = tensor<string, []>("v_7_cast")];
            tensor<int32, [4]> var_662 = const()[name = tensor<string, []>("op_662"), val = tensor<int32, [4]>([2, 12, 64, -1])];
            tensor<fp16, [2, 12, 64, 4096]> var_663_cast = reshape(shape = var_662, x = q_7_cast)[name = tensor<string, []>("op_663_cast")];
            tensor<int32, [4]> var_664 = const()[name = tensor<string, []>("op_664"), val = tensor<int32, [4]>([2, 12, 64, -1])];
            tensor<fp16, [2, 12, 64, 77]> var_665_cast = reshape(shape = var_664, x = k_7_cast)[name = tensor<string, []>("op_665_cast")];
            tensor<int32, [4]> var_666 = const()[name = tensor<string, []>("op_666"), val = tensor<int32, [4]>([2, 12, 64, -1])];
            tensor<fp16, [2, 12, 64, 77]> var_667_cast = reshape(shape = var_666, x = v_7_cast)[name = tensor<string, []>("op_667_cast")];
            tensor<bool, []> attn_weights_13_transpose_x_0 = const()[name = tensor<string, []>("attn_weights_13_transpose_x_0"), val = tensor<bool, []>(true)];
            tensor<bool, []> attn_weights_13_transpose_y_0 = const()[name = tensor<string, []>("attn_weights_13_transpose_y_0"), val = tensor<bool, []>(false)];
            tensor<fp16, [2, 12, 4096, 77]> attn_weights_13_cast = matmul(transpose_x = attn_weights_13_transpose_x_0, transpose_y = attn_weights_13_transpose_y_0, x = var_663_cast, y = var_665_cast)[name = tensor<string, []>("attn_weights_13_cast")];
            tensor<fp16, [2, 12, 4096, 77]> attn_weights_15_cast = mul(x = attn_weights_13_cast, y = var_277_to_fp16)[name = tensor<string, []>("attn_weights_15_cast")];
            tensor<fp16, [2, 12, 4096, 77]> var_671_cast = softmax(axis = var_270, x = attn_weights_15_cast)[name = tensor<string, []>("op_671_cast")];
            tensor<bool, []> attn_7_transpose_x_0 = const()[name = tensor<string, []>("attn_7_transpose_x_0"), val = tensor<bool, []>(false)];
            tensor<bool, []> attn_7_transpose_y_0 = const()[name = tensor<string, []>("attn_7_transpose_y_0"), val = tensor<bool, []>(true)];
            tensor<fp16, [2, 12, 64, 4096]> attn_7_cast = matmul(transpose_x = attn_7_transpose_x_0, transpose_y = attn_7_transpose_y_0, x = var_667_cast, y = var_671_cast)[name = tensor<string, []>("attn_7_cast")];
            tensor<int32, [4]> var_675 = const()[name = tensor<string, []>("op_675"), val = tensor<int32, [4]>([2, 768, 1, -1])];
            tensor<fp16, [2, 768, 1, 4096]> input_71_cast = reshape(shape = var_675, x = attn_7_cast)[name = tensor<string, []>("input_71_cast")];
            tensor<int32, [2]> var_680 = const()[name = tensor<string, []>("op_680"), val = tensor<int32, [2]>([1, 1])];
            tensor<int32, [2]> var_682 = const()[name = tensor<string, []>("op_682"), val = tensor<int32, [2]>([1, 1])];
            tensor<string, []> var_684_pad_type_0 = const()[name = tensor<string, []>("op_684_pad_type_0"), val = tensor<string, []>("custom")];
            tensor<int32, [4]> var_684_pad_0 = const()[name = tensor<string, []>("op_684_pad_0"), val = tensor<int32, [4]>([0, 0, 0, 0])];
            tensor<fp16, [768, 768, 1, 1]> down_blocks_1_attentions_0_transformer_blocks_1_attn2_to_out_0_weight_to_fp16 = const()[name = tensor<string, []>("down_blocks_1_attentions_0_transformer_blocks_1_attn2_to_out_0_weight_to_fp16"), val = tensor<fp16, [768, 768, 1, 1]>(BLOBFILE(path = tensor<string, []>("@model_path/weights/weight.bin"), offset = tensor<uint64, []>(89273920)))];
            tensor<fp16, [768]> down_blocks_1_attentions_0_transformer_blocks_1_attn2_to_out_0_bias_to_fp16 = const()[name = tensor<string, []>("down_blocks_1_attentions_0_transformer_blocks_1_attn2_to_out_0_bias_to_fp16"), val = tensor<fp16, [768]>(BLOBFILE(path = tensor<string, []>("@model_path/weights/weight.bin"), offset = tensor<uint64, []>(90453632)))];
            tensor<fp16, [2, 768, 1, 4096]> var_684_cast = conv(bias = down_blocks_1_attentions_0_transformer_blocks_1_attn2_to_out_0_bias_to_fp16, dilations = var_682, groups = var_286, pad = var_684_pad_0, pad_type = var_684_pad_type_0, strides = var_680, weight = down_blocks_1_attentions_0_transformer_blocks_1_attn2_to_out_0_weight_to_fp16, x = input_71_cast)[name = tensor<string, []>("op_684_cast")];
            tensor<fp16, [2, 768, 1, 4096]> inputs_11_cast = add(x = var_684_cast, y = inputs_9_cast)[name = tensor<string, []>("inputs_11_cast")];
            tensor<int32, [1]> var_688 = const()[name = tensor<string, []>("op_688"), val = tensor<int32, [1]>([1])];
            tensor<fp16, [2, 1, 1, 4096]> channels_mean_11_cast = reduce_mean(axes = var_688, keep_dims = var_281, x = inputs_11_cast)[name = tensor<string, []>("channels_mean_11_cast")];
            tensor<fp16, [2, 768, 1, 4096]> zero_mean_11_cast = sub(x = inputs_11_cast, y = channels_mean_11_cast)[name = tensor<string, []>("zero_mean_11_cast")];
            tensor<fp16, [2, 768, 1, 4096]> zero_mean_sq_11_cast = mul(x = zero_mean_11_cast, y = zero_mean_11_cast)[name = tensor<string, []>("zero_mean_sq_11_cast")];
            tensor<int32, [1]> var_692 = const()[name = tensor<string, []>("op_692"), val = tensor<int32, [1]>([1])];
            tensor<fp16, [2, 1, 1, 4096]> var_693_cast = reduce_mean(axes = var_692, keep_dims = var_281, x = zero_mean_sq_11_cast)[name = tensor<string, []>("op_693_cast")];
            tensor<fp16, []> var_694_to_fp16 = const()[name = tensor<string, []>("op_694_to_fp16"), val = tensor<fp16, []>(0x1.5p-17)];
            tensor<fp16, [2, 1, 1, 4096]> var_695_cast = add(x = var_693_cast, y = var_694_to_fp16)[name = tensor<string, []>("op_695_cast")];
            tensor<fp16, []> denom_11_epsilon_0_to_fp16 = const()[name = tensor<string, []>("denom_11_epsilon_0_to_fp16"), val = tensor<fp16, []>(0x1p-24)];
            tensor<fp16, [2, 1, 1, 4096]> denom_11_cast = rsqrt(epsilon = denom_11_epsilon_0_to_fp16, x = var_695_cast)[name = tensor<string, []>("denom_11_cast")];
            tensor<fp16, [2, 768, 1, 4096]> out_11_cast = mul(x = zero_mean_11_cast, y = denom_11_cast)[name = tensor<string, []>("out_11_cast")];
            tensor<fp16, [1, 768, 1, 1]> var_699_to_fp16 = const()[name = tensor<string, []>("op_699_to_fp16"), val = tensor<fp16, [1, 768, 1, 1]>(BLOBFILE(path = tensor<string, []>("@model_path/weights/weight.bin"), offset = tensor<uint64, []>(90455232)))];
            tensor<fp16, [2, 768, 1, 4096]> var_700_cast = add(x = out_11_cast, y = var_699_to_fp16)[name = tensor<string, []>("op_700_cast")];
            tensor<fp16, [1, 768, 1, 1]> var_702_to_fp16 = const()[name = tensor<string, []>("op_702_to_fp16"), val = tensor<fp16, [1, 768, 1, 1]>(BLOBFILE(path = tensor<string, []>("@model_path/weights/weight.bin"), offset = tensor<uint64, []>(90456832)))];
            tensor<fp16, [2, 768, 1, 4096]> input_73_cast = mul(x = var_700_cast, y = var_702_to_fp16)[name = tensor<string, []>("input_73_cast")];
            tensor<int32, [2]> var_710 = const()[name = tensor<string, []>("op_710"), val = tensor<int32, [2]>([1, 1])];
            tensor<int32, [2]> var_712 = const()[name = tensor<string, []>("op_712"), val = tensor<int32, [2]>([1, 1])];
            tensor<string, []> var_714_pad_type_0 = const()[name = tensor<string, []>("op_714_pad_type_0"), val = tensor<string, []>("custom")];
            tensor<int32, [4]> var_714_pad_0 = const()[name = tensor<string, []>("op_714_pad_0"), val = tensor<int32, [4]>([0, 0, 0, 0])];
            tensor<fp16, [6144, 768, 1, 1]> down_blocks_1_attentions_0_transformer_blocks_1_ff_net_0_proj_weight_to_fp16 = const()[name = tensor<string, []>("down_blocks_1_attentions_0_transformer_blocks_1_ff_net_0_proj_weight_to_fp16"), val = tensor<fp16, [6144, 768, 1, 1]>(BLOBFILE(path = tensor<string, []>("@model_path/weights/weight.bin"), offset = tensor<uint64, []>(90458432)))];
            tensor<fp16, [6144]> down_blocks_1_attentions_0_transformer_blocks_1_ff_net_0_proj_bias_to_fp16 = const()[name = tensor<string, []>("down_blocks_1_attentions_0_transformer_blocks_1_ff_net_0_proj_bias_to_fp16"), val = tensor<fp16, [6144]>(BLOBFILE(path = tensor<string, []>("@model_path/weights/weight.bin"), offset = tensor<uint64, []>(99895680)))];
            tensor<fp16, [2, 6144, 1, 4096]> var_714_cast = conv(bias = down_blocks_1_attentions_0_transformer_blocks_1_ff_net_0_proj_bias_to_fp16, dilations = var_712, groups = var_286, pad = var_714_pad_0, pad_type = var_714_pad_type_0, strides = var_710, weight = down_blocks_1_attentions_0_transformer_blocks_1_ff_net_0_proj_weight_to_fp16, x = input_73_cast)[name = tensor<string, []>("op_714_cast")];
            tensor<int32, [2]> var_715_split_sizes_0 = const()[name = tensor<string, []>("op_715_split_sizes_0"), val = tensor<int32, [2]>([3072, 3072])];
            tensor<int32, []> var_715_axis_0 = const()[name = tensor<string, []>("op_715_axis_0"), val = tensor<int32, []>(1)];
            tensor<fp16, [2, 3072, 1, 4096]> var_715_cast_0, tensor<fp16, [2, 3072, 1, 4096]> var_715_cast_1 = split(axis = var_715_axis_0, split_sizes = var_715_split_sizes_0, x = var_714_cast)[name = tensor<string, []>("op_715_cast")];
            tensor<string, []> var_717_mode_0 = const()[name = tensor<string, []>("op_717_mode_0"), val = tensor<string, []>("EXACT")];
            tensor<fp16, [2, 3072, 1, 4096]> var_717_cast = gelu(mode = var_717_mode_0, x = var_715_cast_1)[name = tensor<string, []>("op_717_cast")];
            tensor<fp16, [2, 3072, 1, 4096]> input_75_cast = mul(x = var_715_cast_0, y = var_717_cast)[name = tensor<string, []>("input_75_cast")];
            tensor<int32, [2]> var_721 = const()[name = tensor<string, []>("op_721"), val = tensor<int32, [2]>([1, 1])];
            tensor<int32, [2]> var_723 = const()[name = tensor<string, []>("op_723"), val = tensor<int32, [2]>([1, 1])];
            tensor<string, []> var_725_pad_type_0 = const()[name = tensor<string, []>("op_725_pad_type_0"), val = tensor<string, []>("custom")];
            tensor<int32, [4]> var_725_pad_0 = const()[name = tensor<string, []>("op_725_pad_0"), val = tensor<int32, [4]>([0, 0, 0, 0])];
            tensor<fp16, [768, 3072, 1, 1]> down_blocks_1_attentions_0_transformer_blocks_1_ff_net_2_weight_to_fp16 = const()[name = tensor<string, []>("down_blocks_1_attentions_0_transformer_blocks_1_ff_net_2_weight_to_fp16"), val = tensor<fp16, [768, 3072, 1, 1]>(BLOBFILE(path = tensor<string, []>("@model_path/weights/weight.bin"), offset = tensor<uint64, []>(99908032)))];
            tensor<fp16, [768]> down_blocks_1_attentions_0_transformer_blocks_1_ff_net_2_bias_to_fp16 = const()[name = tensor<string, []>("down_blocks_1_attentions_0_transformer_blocks_1_ff_net_2_bias_to_fp16"), val = tensor<fp16, [768]>(BLOBFILE(path = tensor<string, []>("@model_path/weights/weight.bin"), offset = tensor<uint64, []>(104626688)))];
            tensor<fp16, [2, 768, 1, 4096]> var_725_cast = conv(bias = down_blocks_1_attentions_0_transformer_blocks_1_ff_net_2_bias_to_fp16, dilations = var_723, groups = var_286, pad = var_725_pad_0, pad_type = var_725_pad_type_0, strides = var_721, weight = down_blocks_1_attentions_0_transformer_blocks_1_ff_net_2_weight_to_fp16, x = input_75_cast)[name = tensor<string, []>("op_725_cast")];
            tensor<fp16, [2, 768, 1, 4096]> inputs_13_cast = add(x = var_725_cast, y = inputs_11_cast)[name = tensor<string, []>("inputs_13_cast")];
            tensor<int32, [1]> var_735 = const()[name = tensor<string, []>("op_735"), val = tensor<int32, [1]>([1])];
            tensor<fp16, [2, 1, 1, 4096]> channels_mean_13_cast = reduce_mean(axes = var_735, keep_dims = var_281, x = inputs_13_cast)[name = tensor<string, []>("channels_mean_13_cast")];
            tensor<fp16, [2, 768, 1, 4096]> zero_mean_13_cast = sub(x = inputs_13_cast, y = channels_mean_13_cast)[name = tensor<string, []>("zero_mean_13_cast")];
            tensor<fp16, [2, 768, 1, 4096]> zero_mean_sq_13_cast = mul(x = zero_mean_13_cast, y = zero_mean_13_cast)[name = tensor<string, []>("zero_mean_sq_13_cast")];
            tensor<int32, [1]> var_739 = const()[name = tensor<string, []>("op_739"), val = tensor<int32, [1]>([1])];
            tensor<fp16, [2, 1, 1, 4096]> var_740_cast = reduce_mean(axes = var_739, keep_dims = var_281, x = zero_mean_sq_13_cast)[name = tensor<string, []>("op_740_cast")];
            tensor<fp16, []> var_741_to_fp16 = const()[name = tensor<string, []>("op_741_to_fp16"), val = tensor<fp16, []>(0x1.5p-17)];
            tensor<fp16, [2, 1, 1, 4096]> var_742_cast = add(x = var_740_cast, y = var_741_to_fp16)[name = tensor<string, []>("op_742_cast")];
            tensor<fp16, []> denom_13_epsilon_0_to_fp16 = const()[name = tensor<string, []>("denom_13_epsilon_0_to_fp16"), val = tensor<fp16, []>(0x1p-24)];
            tensor<fp16, [2, 1, 1, 4096]> denom_13_cast = rsqrt(epsilon = denom_13_epsilon_0_to_fp16, x = var_742_cast)[name = tensor<string, []>("denom_13_cast")];
            tensor<fp16, [2, 768, 1, 4096]> out_13_cast = mul(x = zero_mean_13_cast, y = denom_13_cast)[name = tensor<string, []>("out_13_cast")];
            tensor<fp16, [1, 768, 1, 1]> var_746_to_fp16 = const()[name = tensor<string, []>("op_746_to_fp16"), val = tensor<fp16, [1, 768, 1, 1]>(BLOBFILE(path = tensor<string, []>("@model_path/weights/weight.bin"), offset = tensor<uint64, []>(104628288)))];
            tensor<fp16, [2, 768, 1, 4096]> var_747_cast = add(x = out_13_cast, y = var_746_to_fp16)[name = tensor<string, []>("op_747_cast")];
            tensor<fp16, [1, 768, 1, 1]> var_749_to_fp16 = const()[name = tensor<string, []>("op_749_to_fp16"), val = tensor<fp16, [1, 768, 1, 1]>(BLOBFILE(path = tensor<string, []>("@model_path/weights/weight.bin"), offset = tensor<uint64, []>(104629888)))];
            tensor<fp16, [2, 768, 1, 4096]> hidden_states_29_cast = mul(x = var_747_cast, y = var_749_to_fp16)[name = tensor<string, []>("hidden_states_29_cast")];
            tensor<int32, [2]> var_756 = const()[name = tensor<string, []>("op_756"), val = tensor<int32, [2]>([1, 1])];
            tensor<int32, [2]> var_758 = const()[name = tensor<string, []>("op_758"), val = tensor<int32, [2]>([1, 1])];
            tensor<string, []> q_9_pad_type_0 = const()[name = tensor<string, []>("q_9_pad_type_0"), val = tensor<string, []>("custom")];
            tensor<int32, [4]> q_9_pad_0 = const()[name = tensor<string, []>("q_9_pad_0"), val = tensor<int32, [4]>([0, 0, 0, 0])];
            tensor<fp16, [768, 768, 1, 1]> down_blocks_1_attentions_0_transformer_blocks_2_attn1_to_q_weight_to_fp16 = const()[name = tensor<string, []>("down_blocks_1_attentions_0_transformer_blocks_2_attn1_to_q_weight_to_fp16"), val = tensor<fp16, [768, 768, 1, 1]>(BLOBFILE(path = tensor<string, []>("@model_path/weights/weight.bin"), offset = tensor<uint64, []>(104631488)))];
            tensor<fp16, [2, 768, 1, 4096]> q_9_cast = conv(dilations = var_758, groups = var_286, pad = q_9_pad_0, pad_type = q_9_pad_type_0, strides = var_756, weight = down_blocks_1_attentions_0_transformer_blocks_2_attn1_to_q_weight_to_fp16, x = hidden_states_29_cast)[name = tensor<string, []>("q_9_cast")];
            tensor<int32, [2]> var_762 = const()[name = tensor<string, []>("op_762"), val = tensor<int32, [2]>([1, 1])];
            tensor<int32, [2]> var_764 = const()[name = tensor<string, []>("op_764"), val = tensor<int32, [2]>([1, 1])];
            tensor<string, []> k_9_pad_type_0 = const()[name = tensor<string, []>("k_9_pad_type_0"), val = tensor<string, []>("custom")];
            tensor<int32, [4]> k_9_pad_0 = const()[name = tensor<string, []>("k_9_pad_0"), val = tensor<int32, [4]>([0, 0, 0, 0])];
            tensor<fp16, [768, 768, 1, 1]> down_blocks_1_attentions_0_transformer_blocks_2_attn1_to_k_weight_to_fp16 = const()[name = tensor<string, []>("down_blocks_1_attentions_0_transformer_blocks_2_attn1_to_k_weight_to_fp16"), val = tensor<fp16, [768, 768, 1, 1]>(BLOBFILE(path = tensor<string, []>("@model_path/weights/weight.bin"), offset = tensor<uint64, []>(105811200)))];
            tensor<fp16, [2, 768, 1, 4096]> k_9_cast = conv(dilations = var_764, groups = var_286, pad = k_9_pad_0, pad_type = k_9_pad_type_0, strides = var_762, weight = down_blocks_1_attentions_0_transformer_blocks_2_attn1_to_k_weight_to_fp16, x = hidden_states_29_cast)[name = tensor<string, []>("k_9_cast")];
            tensor<int32, [2]> var_768 = const()[name = tensor<string, []>("op_768"), val = tensor<int32, [2]>([1, 1])];
            tensor<int32, [2]> var_770 = const()[name = tensor<string, []>("op_770"), val = tensor<int32, [2]>([1, 1])];
            tensor<string, []> v_9_pad_type_0 = const()[name = tensor<string, []>("v_9_pad_type_0"), val = tensor<string, []>("custom")];
            tensor<int32, [4]> v_9_pad_0 = const()[name = tensor<string, []>("v_9_pad_0"), val = tensor<int32, [4]>([0, 0, 0, 0])];
            tensor<fp16, [768, 768, 1, 1]> down_blocks_1_attentions_0_transformer_blocks_2_attn1_to_v_weight_to_fp16 = const()[name = tensor<string, []>("down_blocks_1_attentions_0_transformer_blocks_2_attn1_to_v_weight_to_fp16"), val = tensor<fp16, [768, 768, 1, 1]>(BLOBFILE(path = tensor<string, []>("@model_path/weights/weight.bin"), offset = tensor<uint64, []>(106990912)))];
            tensor<fp16, [2, 768, 1, 4096]> v_9_cast = conv(dilations = var_770, groups = var_286, pad = v_9_pad_0, pad_type = v_9_pad_type_0, strides = var_768, weight = down_blocks_1_attentions_0_transformer_blocks_2_attn1_to_v_weight_to_fp16, x = hidden_states_29_cast)[name = tensor<string, []>("v_9_cast")];
            tensor<int32, [4]> var_774 = const()[name = tensor<string, []>("op_774"), val = tensor<int32, [4]>([2, 12, 64, -1])];
            tensor<fp16, [2, 12, 64, 4096]> var_775_cast = reshape(shape = var_774, x = q_9_cast)[name = tensor<string, []>("op_775_cast")];
            tensor<int32, [4]> var_776 = const()[name = tensor<string, []>("op_776"), val = tensor<int32, [4]>([2, 12, 64, -1])];
            tensor<fp16, [2, 12, 64, 4096]> var_777_cast = reshape(shape = var_776, x = k_9_cast)[name = tensor<string, []>("op_777_cast")];
            tensor<int32, [4]> var_778 = const()[name = tensor<string, []>("op_778"), val = tensor<int32, [4]>([2, 12, 64, -1])];
            tensor<fp16, [2, 12, 64, 4096]> var_779_cast = reshape(shape = var_778, x = v_9_cast)[name = tensor<string, []>("op_779_cast")];
            tensor<bool, []> attn_weights_17_transpose_x_0 = const()[name = tensor<string, []>("attn_weights_17_transpose_x_0"), val = tensor<bool, []>(true)];
            tensor<bool, []> attn_weights_17_transpose_y_0 = const()[name = tensor<string, []>("attn_weights_17_transpose_y_0"), val = tensor<bool, []>(false)];
            tensor<fp16, [2, 12, 4096, 4096]> attn_weights_17_cast = matmul(transpose_x = attn_weights_17_transpose_x_0, transpose_y = attn_weights_17_transpose_y_0, x = var_775_cast, y = var_777_cast)[name = tensor<string, []>("attn_weights_17_cast")];
            tensor<fp16, [2, 12, 4096, 4096]> attn_weights_19_cast = mul(x = attn_weights_17_cast, y = var_277_to_fp16)[name = tensor<string, []>("attn_weights_19_cast")];
            tensor<fp16, [2, 12, 4096, 4096]> var_783_cast = softmax(axis = var_270, x = attn_weights_19_cast)[name = tensor<string, []>("op_783_cast")];
            tensor<bool, []> attn_9_transpose_x_0 = const()[name = tensor<string, []>("attn_9_transpose_x_0"), val = tensor<bool, []>(false)];
            tensor<bool, []> attn_9_transpose_y_0 = const()[name = tensor<string, []>("attn_9_transpose_y_0"), val = tensor<bool, []>(true)];
            tensor<fp16, [2, 12, 64, 4096]> attn_9_cast = matmul(transpose_x = attn_9_transpose_x_0, transpose_y = attn_9_transpose_y_0, x = var_779_cast, y = var_783_cast)[name = tensor<string, []>("attn_9_cast")];
            tensor<int32, [4]> var_787 = const()[name = tensor<string, []>("op_787"), val = tensor<int32, [4]>([2, 768, 1, -1])];
            tensor<fp16, [2, 768, 1, 4096]> input_77_cast = reshape(shape = var_787, x = attn_9_cast)[name = tensor<string, []>("input_77_cast")];
            tensor<int32, [2]> var_792 = const()[name = tensor<string, []>("op_792"), val = tensor<int32, [2]>([1, 1])];
            tensor<int32, [2]> var_794 = const()[name = tensor<string, []>("op_794"), val = tensor<int32, [2]>([1, 1])];
            tensor<string, []> var_796_pad_type_0 = const()[name = tensor<string, []>("op_796_pad_type_0"), val = tensor<string, []>("custom")];
            tensor<int32, [4]> var_796_pad_0 = const()[name = tensor<string, []>("op_796_pad_0"), val = tensor<int32, [4]>([0, 0, 0, 0])];
            tensor<fp16, [768, 768, 1, 1]> down_blocks_1_attentions_0_transformer_blocks_2_attn1_to_out_0_weight_to_fp16 = const()[name = tensor<string, []>("down_blocks_1_attentions_0_transformer_blocks_2_attn1_to_out_0_weight_to_fp16"), val = tensor<fp16, [768, 768, 1, 1]>(BLOBFILE(path = tensor<string, []>("@model_path/weights/weight.bin"), offset = tensor<uint64, []>(108170624)))];
            tensor<fp16, [768]> down_blocks_1_attentions_0_transformer_blocks_2_attn1_to_out_0_bias_to_fp16 = const()[name = tensor<string, []>("down_blocks_1_attentions_0_transformer_blocks_2_attn1_to_out_0_bias_to_fp16"), val = tensor<fp16, [768]>(BLOBFILE(path = tensor<string, []>("@model_path/weights/weight.bin"), offset = tensor<uint64, []>(109350336)))];
            tensor<fp16, [2, 768, 1, 4096]> var_796_cast = conv(bias = down_blocks_1_attentions_0_transformer_blocks_2_attn1_to_out_0_bias_to_fp16, dilations = var_794, groups = var_286, pad = var_796_pad_0, pad_type = var_796_pad_type_0, strides = var_792, weight = down_blocks_1_attentions_0_transformer_blocks_2_attn1_to_out_0_weight_to_fp16, x = input_77_cast)[name = tensor<string, []>("op_796_cast")];
            tensor<fp16, [2, 768, 1, 4096]> inputs_15_cast = add(x = var_796_cast, y = inputs_13_cast)[name = tensor<string, []>("inputs_15_cast")];
            tensor<int32, [1]> var_800 = const()[name = tensor<string, []>("op_800"), val = tensor<int32, [1]>([1])];
            tensor<fp16, [2, 1, 1, 4096]> channels_mean_15_cast = reduce_mean(axes = var_800, keep_dims = var_281, x = inputs_15_cast)[name = tensor<string, []>("channels_mean_15_cast")];
            tensor<fp16, [2, 768, 1, 4096]> zero_mean_15_cast = sub(x = inputs_15_cast, y = channels_mean_15_cast)[name = tensor<string, []>("zero_mean_15_cast")];
            tensor<fp16, [2, 768, 1, 4096]> zero_mean_sq_15_cast = mul(x = zero_mean_15_cast, y = zero_mean_15_cast)[name = tensor<string, []>("zero_mean_sq_15_cast")];
            tensor<int32, [1]> var_804 = const()[name = tensor<string, []>("op_804"), val = tensor<int32, [1]>([1])];
            tensor<fp16, [2, 1, 1, 4096]> var_805_cast = reduce_mean(axes = var_804, keep_dims = var_281, x = zero_mean_sq_15_cast)[name = tensor<string, []>("op_805_cast")];
            tensor<fp16, []> var_806_to_fp16 = const()[name = tensor<string, []>("op_806_to_fp16"), val = tensor<fp16, []>(0x1.5p-17)];
            tensor<fp16, [2, 1, 1, 4096]> var_807_cast = add(x = var_805_cast, y = var_806_to_fp16)[name = tensor<string, []>("op_807_cast")];
            tensor<fp16, []> denom_15_epsilon_0_to_fp16 = const()[name = tensor<string, []>("denom_15_epsilon_0_to_fp16"), val = tensor<fp16, []>(0x1p-24)];
            tensor<fp16, [2, 1, 1, 4096]> denom_15_cast = rsqrt(epsilon = denom_15_epsilon_0_to_fp16, x = var_807_cast)[name = tensor<string, []>("denom_15_cast")];
            tensor<fp16, [2, 768, 1, 4096]> out_15_cast = mul(x = zero_mean_15_cast, y = denom_15_cast)[name = tensor<string, []>("out_15_cast")];
            tensor<fp16, [1, 768, 1, 1]> var_811_to_fp16 = const()[name = tensor<string, []>("op_811_to_fp16"), val = tensor<fp16, [1, 768, 1, 1]>(BLOBFILE(path = tensor<string, []>("@model_path/weights/weight.bin"), offset = tensor<uint64, []>(109351936)))];
            tensor<fp16, [2, 768, 1, 4096]> var_812_cast = add(x = out_15_cast, y = var_811_to_fp16)[name = tensor<string, []>("op_812_cast")];
            tensor<fp16, [1, 768, 1, 1]> var_814_to_fp16 = const()[name = tensor<string, []>("op_814_to_fp16"), val = tensor<fp16, [1, 768, 1, 1]>(BLOBFILE(path = tensor<string, []>("@model_path/weights/weight.bin"), offset = tensor<uint64, []>(109353536)))];
            tensor<fp16, [2, 768, 1, 4096]> hidden_states_31_cast = mul(x = var_812_cast, y = var_814_to_fp16)[name = tensor<string, []>("hidden_states_31_cast")];
            tensor<int32, [2]> var_821 = const()[name = tensor<string, []>("op_821"), val = tensor<int32, [2]>([1, 1])];
            tensor<int32, [2]> var_823 = const()[name = tensor<string, []>("op_823"), val = tensor<int32, [2]>([1, 1])];
            tensor<string, []> q_11_pad_type_0 = const()[name = tensor<string, []>("q_11_pad_type_0"), val = tensor<string, []>("custom")];
            tensor<int32, [4]> q_11_pad_0 = const()[name = tensor<string, []>("q_11_pad_0"), val = tensor<int32, [4]>([0, 0, 0, 0])];
            tensor<fp16, [768, 768, 1, 1]> down_blocks_1_attentions_0_transformer_blocks_2_attn2_to_q_weight_to_fp16 = const()[name = tensor<string, []>("down_blocks_1_attentions_0_transformer_blocks_2_attn2_to_q_weight_to_fp16"), val = tensor<fp16, [768, 768, 1, 1]>(BLOBFILE(path = tensor<string, []>("@model_path/weights/weight.bin"), offset = tensor<uint64, []>(109355136)))];
            tensor<fp16, [2, 768, 1, 4096]> q_11_cast = conv(dilations = var_823, groups = var_286, pad = q_11_pad_0, pad_type = q_11_pad_type_0, strides = var_821, weight = down_blocks_1_attentions_0_transformer_blocks_2_attn2_to_q_weight_to_fp16, x = hidden_states_31_cast)[name = tensor<string, []>("q_11_cast")];
            tensor<int32, [2]> var_827 = const()[name = tensor<string, []>("op_827"), val = tensor<int32, [2]>([1, 1])];
            tensor<int32, [2]> var_829 = const()[name = tensor<string, []>("op_829"), val = tensor<int32, [2]>([1, 1])];
            tensor<string, []> k_11_pad_type_0 = const()[name = tensor<string, []>("k_11_pad_type_0"), val = tensor<string, []>("custom")];
            tensor<int32, [4]> k_11_pad_0 = const()[name = tensor<string, []>("k_11_pad_0"), val = tensor<int32, [4]>([0, 0, 0, 0])];
            tensor<fp16, [768, 1280, 1, 1]> down_blocks_1_attentions_0_transformer_blocks_2_attn2_to_k_weight_to_fp16 = const()[name = tensor<string, []>("down_blocks_1_attentions_0_transformer_blocks_2_attn2_to_k_weight_to_fp16"), val = tensor<fp16, [768, 1280, 1, 1]>(BLOBFILE(path = tensor<string, []>("@model_path/weights/weight.bin"), offset = tensor<uint64, []>(110534848)))];
            tensor<fp16, [2, 768, 1, 77]> k_11_cast = conv(dilations = var_829, groups = var_286, pad = k_11_pad_0, pad_type = k_11_pad_type_0, strides = var_827, weight = down_blocks_1_attentions_0_transformer_blocks_2_attn2_to_k_weight_to_fp16, x = encoder_hidden_states)[name = tensor<string, []>("k_11_cast")];
            tensor<int32, [2]> var_833 = const()[name = tensor<string, []>("op_833"), val = tensor<int32, [2]>([1, 1])];
            tensor<int32, [2]> var_835 = const()[name = tensor<string, []>("op_835"), val = tensor<int32, [2]>([1, 1])];
            tensor<string, []> v_11_pad_type_0 = const()[name = tensor<string, []>("v_11_pad_type_0"), val = tensor<string, []>("custom")];
            tensor<int32, [4]> v_11_pad_0 = const()[name = tensor<string, []>("v_11_pad_0"), val = tensor<int32, [4]>([0, 0, 0, 0])];
            tensor<fp16, [768, 1280, 1, 1]> down_blocks_1_attentions_0_transformer_blocks_2_attn2_to_v_weight_to_fp16 = const()[name = tensor<string, []>("down_blocks_1_attentions_0_transformer_blocks_2_attn2_to_v_weight_to_fp16"), val = tensor<fp16, [768, 1280, 1, 1]>(BLOBFILE(path = tensor<string, []>("@model_path/weights/weight.bin"), offset = tensor<uint64, []>(112500992)))];
            tensor<fp16, [2, 768, 1, 77]> v_11_cast = conv(dilations = var_835, groups = var_286, pad = v_11_pad_0, pad_type = v_11_pad_type_0, strides = var_833, weight = down_blocks_1_attentions_0_transformer_blocks_2_attn2_to_v_weight_to_fp16, x = encoder_hidden_states)[name = tensor<string, []>("v_11_cast")];
            tensor<int32, [4]> var_839 = const()[name = tensor<string, []>("op_839"), val = tensor<int32, [4]>([2, 12, 64, -1])];
            tensor<fp16, [2, 12, 64, 4096]> var_840_cast = reshape(shape = var_839, x = q_11_cast)[name = tensor<string, []>("op_840_cast")];
            tensor<int32, [4]> var_841 = const()[name = tensor<string, []>("op_841"), val = tensor<int32, [4]>([2, 12, 64, -1])];
            tensor<fp16, [2, 12, 64, 77]> var_842_cast = reshape(shape = var_841, x = k_11_cast)[name = tensor<string, []>("op_842_cast")];
            tensor<int32, [4]> var_843 = const()[name = tensor<string, []>("op_843"), val = tensor<int32, [4]>([2, 12, 64, -1])];
            tensor<fp16, [2, 12, 64, 77]> var_844_cast = reshape(shape = var_843, x = v_11_cast)[name = tensor<string, []>("op_844_cast")];
            tensor<bool, []> attn_weights_21_transpose_x_0 = const()[name = tensor<string, []>("attn_weights_21_transpose_x_0"), val = tensor<bool, []>(true)];
            tensor<bool, []> attn_weights_21_transpose_y_0 = const()[name = tensor<string, []>("attn_weights_21_transpose_y_0"), val = tensor<bool, []>(false)];
            tensor<fp16, [2, 12, 4096, 77]> attn_weights_21_cast = matmul(transpose_x = attn_weights_21_transpose_x_0, transpose_y = attn_weights_21_transpose_y_0, x = var_840_cast, y = var_842_cast)[name = tensor<string, []>("attn_weights_21_cast")];
            tensor<fp16, [2, 12, 4096, 77]> attn_weights_23_cast = mul(x = attn_weights_21_cast, y = var_277_to_fp16)[name = tensor<string, []>("attn_weights_23_cast")];
            tensor<fp16, [2, 12, 4096, 77]> var_848_cast = softmax(axis = var_270, x = attn_weights_23_cast)[name = tensor<string, []>("op_848_cast")];
            tensor<bool, []> attn_11_transpose_x_0 = const()[name = tensor<string, []>("attn_11_transpose_x_0"), val = tensor<bool, []>(false)];
            tensor<bool, []> attn_11_transpose_y_0 = const()[name = tensor<string, []>("attn_11_transpose_y_0"), val = tensor<bool, []>(true)];
            tensor<fp16, [2, 12, 64, 4096]> attn_11_cast = matmul(transpose_x = attn_11_transpose_x_0, transpose_y = attn_11_transpose_y_0, x = var_844_cast, y = var_848_cast)[name = tensor<string, []>("attn_11_cast")];
            tensor<int32, [4]> var_852 = const()[name = tensor<string, []>("op_852"), val = tensor<int32, [4]>([2, 768, 1, -1])];
            tensor<fp16, [2, 768, 1, 4096]> input_79_cast = reshape(shape = var_852, x = attn_11_cast)[name = tensor<string, []>("input_79_cast")];
            tensor<int32, [2]> var_857 = const()[name = tensor<string, []>("op_857"), val = tensor<int32, [2]>([1, 1])];
            tensor<int32, [2]> var_859 = const()[name = tensor<string, []>("op_859"), val = tensor<int32, [2]>([1, 1])];
            tensor<string, []> var_861_pad_type_0 = const()[name = tensor<string, []>("op_861_pad_type_0"), val = tensor<string, []>("custom")];
            tensor<int32, [4]> var_861_pad_0 = const()[name = tensor<string, []>("op_861_pad_0"), val = tensor<int32, [4]>([0, 0, 0, 0])];
            tensor<fp16, [768, 768, 1, 1]> down_blocks_1_attentions_0_transformer_blocks_2_attn2_to_out_0_weight_to_fp16 = const()[name = tensor<string, []>("down_blocks_1_attentions_0_transformer_blocks_2_attn2_to_out_0_weight_to_fp16"), val = tensor<fp16, [768, 768, 1, 1]>(BLOBFILE(path = tensor<string, []>("@model_path/weights/weight.bin"), offset = tensor<uint64, []>(114467136)))];
            tensor<fp16, [768]> down_blocks_1_attentions_0_transformer_blocks_2_attn2_to_out_0_bias_to_fp16 = const()[name = tensor<string, []>("down_blocks_1_attentions_0_transformer_blocks_2_attn2_to_out_0_bias_to_fp16"), val = tensor<fp16, [768]>(BLOBFILE(path = tensor<string, []>("@model_path/weights/weight.bin"), offset = tensor<uint64, []>(115646848)))];
            tensor<fp16, [2, 768, 1, 4096]> var_861_cast = conv(bias = down_blocks_1_attentions_0_transformer_blocks_2_attn2_to_out_0_bias_to_fp16, dilations = var_859, groups = var_286, pad = var_861_pad_0, pad_type = var_861_pad_type_0, strides = var_857, weight = down_blocks_1_attentions_0_transformer_blocks_2_attn2_to_out_0_weight_to_fp16, x = input_79_cast)[name = tensor<string, []>("op_861_cast")];
            tensor<fp16, [2, 768, 1, 4096]> inputs_17_cast = add(x = var_861_cast, y = inputs_15_cast)[name = tensor<string, []>("inputs_17_cast")];
            tensor<int32, [1]> var_865 = const()[name = tensor<string, []>("op_865"), val = tensor<int32, [1]>([1])];
            tensor<fp16, [2, 1, 1, 4096]> channels_mean_17_cast = reduce_mean(axes = var_865, keep_dims = var_281, x = inputs_17_cast)[name = tensor<string, []>("channels_mean_17_cast")];
            tensor<fp16, [2, 768, 1, 4096]> zero_mean_17_cast = sub(x = inputs_17_cast, y = channels_mean_17_cast)[name = tensor<string, []>("zero_mean_17_cast")];
            tensor<fp16, [2, 768, 1, 4096]> zero_mean_sq_17_cast = mul(x = zero_mean_17_cast, y = zero_mean_17_cast)[name = tensor<string, []>("zero_mean_sq_17_cast")];
            tensor<int32, [1]> var_869 = const()[name = tensor<string, []>("op_869"), val = tensor<int32, [1]>([1])];
            tensor<fp16, [2, 1, 1, 4096]> var_870_cast = reduce_mean(axes = var_869, keep_dims = var_281, x = zero_mean_sq_17_cast)[name = tensor<string, []>("op_870_cast")];
            tensor<fp16, []> var_871_to_fp16 = const()[name = tensor<string, []>("op_871_to_fp16"), val = tensor<fp16, []>(0x1.5p-17)];
            tensor<fp16, [2, 1, 1, 4096]> var_872_cast = add(x = var_870_cast, y = var_871_to_fp16)[name = tensor<string, []>("op_872_cast")];
            tensor<fp16, []> denom_17_epsilon_0_to_fp16 = const()[name = tensor<string, []>("denom_17_epsilon_0_to_fp16"), val = tensor<fp16, []>(0x1p-24)];
            tensor<fp16, [2, 1, 1, 4096]> denom_17_cast = rsqrt(epsilon = denom_17_epsilon_0_to_fp16, x = var_872_cast)[name = tensor<string, []>("denom_17_cast")];
            tensor<fp16, [2, 768, 1, 4096]> out_17_cast = mul(x = zero_mean_17_cast, y = denom_17_cast)[name = tensor<string, []>("out_17_cast")];
            tensor<fp16, [1, 768, 1, 1]> var_876_to_fp16 = const()[name = tensor<string, []>("op_876_to_fp16"), val = tensor<fp16, [1, 768, 1, 1]>(BLOBFILE(path = tensor<string, []>("@model_path/weights/weight.bin"), offset = tensor<uint64, []>(115648448)))];
            tensor<fp16, [2, 768, 1, 4096]> var_877_cast = add(x = out_17_cast, y = var_876_to_fp16)[name = tensor<string, []>("op_877_cast")];
            tensor<fp16, [1, 768, 1, 1]> var_879_to_fp16 = const()[name = tensor<string, []>("op_879_to_fp16"), val = tensor<fp16, [1, 768, 1, 1]>(BLOBFILE(path = tensor<string, []>("@model_path/weights/weight.bin"), offset = tensor<uint64, []>(115650048)))];
            tensor<fp16, [2, 768, 1, 4096]> input_81_cast = mul(x = var_877_cast, y = var_879_to_fp16)[name = tensor<string, []>("input_81_cast")];
            tensor<int32, [2]> var_887 = const()[name = tensor<string, []>("op_887"), val = tensor<int32, [2]>([1, 1])];
            tensor<int32, [2]> var_889 = const()[name = tensor<string, []>("op_889"), val = tensor<int32, [2]>([1, 1])];
            tensor<string, []> var_891_pad_type_0 = const()[name = tensor<string, []>("op_891_pad_type_0"), val = tensor<string, []>("custom")];
            tensor<int32, [4]> var_891_pad_0 = const()[name = tensor<string, []>("op_891_pad_0"), val = tensor<int32, [4]>([0, 0, 0, 0])];
            tensor<fp16, [6144, 768, 1, 1]> down_blocks_1_attentions_0_transformer_blocks_2_ff_net_0_proj_weight_to_fp16 = const()[name = tensor<string, []>("down_blocks_1_attentions_0_transformer_blocks_2_ff_net_0_proj_weight_to_fp16"), val = tensor<fp16, [6144, 768, 1, 1]>(BLOBFILE(path = tensor<string, []>("@model_path/weights/weight.bin"), offset = tensor<uint64, []>(115651648)))];
            tensor<fp16, [6144]> down_blocks_1_attentions_0_transformer_blocks_2_ff_net_0_proj_bias_to_fp16 = const()[name = tensor<string, []>("down_blocks_1_attentions_0_transformer_blocks_2_ff_net_0_proj_bias_to_fp16"), val = tensor<fp16, [6144]>(BLOBFILE(path = tensor<string, []>("@model_path/weights/weight.bin"), offset = tensor<uint64, []>(125088896)))];
            tensor<fp16, [2, 6144, 1, 4096]> var_891_cast = conv(bias = down_blocks_1_attentions_0_transformer_blocks_2_ff_net_0_proj_bias_to_fp16, dilations = var_889, groups = var_286, pad = var_891_pad_0, pad_type = var_891_pad_type_0, strides = var_887, weight = down_blocks_1_attentions_0_transformer_blocks_2_ff_net_0_proj_weight_to_fp16, x = input_81_cast)[name = tensor<string, []>("op_891_cast")];
            tensor<int32, [2]> var_892_split_sizes_0 = const()[name = tensor<string, []>("op_892_split_sizes_0"), val = tensor<int32, [2]>([3072, 3072])];
            tensor<int32, []> var_892_axis_0 = const()[name = tensor<string, []>("op_892_axis_0"), val = tensor<int32, []>(1)];
            tensor<fp16, [2, 3072, 1, 4096]> var_892_cast_0, tensor<fp16, [2, 3072, 1, 4096]> var_892_cast_1 = split(axis = var_892_axis_0, split_sizes = var_892_split_sizes_0, x = var_891_cast)[name = tensor<string, []>("op_892_cast")];
            tensor<string, []> var_894_mode_0 = const()[name = tensor<string, []>("op_894_mode_0"), val = tensor<string, []>("EXACT")];
            tensor<fp16, [2, 3072, 1, 4096]> var_894_cast = gelu(mode = var_894_mode_0, x = var_892_cast_1)[name = tensor<string, []>("op_894_cast")];
            tensor<fp16, [2, 3072, 1, 4096]> input_83_cast = mul(x = var_892_cast_0, y = var_894_cast)[name = tensor<string, []>("input_83_cast")];
            tensor<int32, [2]> var_898 = const()[name = tensor<string, []>("op_898"), val = tensor<int32, [2]>([1, 1])];
            tensor<int32, [2]> var_900 = const()[name = tensor<string, []>("op_900"), val = tensor<int32, [2]>([1, 1])];
            tensor<string, []> var_902_pad_type_0 = const()[name = tensor<string, []>("op_902_pad_type_0"), val = tensor<string, []>("custom")];
            tensor<int32, [4]> var_902_pad_0 = const()[name = tensor<string, []>("op_902_pad_0"), val = tensor<int32, [4]>([0, 0, 0, 0])];
            tensor<fp16, [768, 3072, 1, 1]> down_blocks_1_attentions_0_transformer_blocks_2_ff_net_2_weight_to_fp16 = const()[name = tensor<string, []>("down_blocks_1_attentions_0_transformer_blocks_2_ff_net_2_weight_to_fp16"), val = tensor<fp16, [768, 3072, 1, 1]>(BLOBFILE(path = tensor<string, []>("@model_path/weights/weight.bin"), offset = tensor<uint64, []>(125101248)))];
            tensor<fp16, [768]> down_blocks_1_attentions_0_transformer_blocks_2_ff_net_2_bias_to_fp16 = const()[name = tensor<string, []>("down_blocks_1_attentions_0_transformer_blocks_2_ff_net_2_bias_to_fp16"), val = tensor<fp16, [768]>(BLOBFILE(path = tensor<string, []>("@model_path/weights/weight.bin"), offset = tensor<uint64, []>(129819904)))];
            tensor<fp16, [2, 768, 1, 4096]> var_902_cast = conv(bias = down_blocks_1_attentions_0_transformer_blocks_2_ff_net_2_bias_to_fp16, dilations = var_900, groups = var_286, pad = var_902_pad_0, pad_type = var_902_pad_type_0, strides = var_898, weight = down_blocks_1_attentions_0_transformer_blocks_2_ff_net_2_weight_to_fp16, x = input_83_cast)[name = tensor<string, []>("op_902_cast")];
            tensor<fp16, [2, 768, 1, 4096]> inputs_19_cast = add(x = var_902_cast, y = inputs_17_cast)[name = tensor<string, []>("inputs_19_cast")];
            tensor<int32, [1]> var_912 = const()[name = tensor<string, []>("op_912"), val = tensor<int32, [1]>([1])];
            tensor<fp16, [2, 1, 1, 4096]> channels_mean_19_cast = reduce_mean(axes = var_912, keep_dims = var_281, x = inputs_19_cast)[name = tensor<string, []>("channels_mean_19_cast")];
            tensor<fp16, [2, 768, 1, 4096]> zero_mean_19_cast = sub(x = inputs_19_cast, y = channels_mean_19_cast)[name = tensor<string, []>("zero_mean_19_cast")];
            tensor<fp16, [2, 768, 1, 4096]> zero_mean_sq_19_cast = mul(x = zero_mean_19_cast, y = zero_mean_19_cast)[name = tensor<string, []>("zero_mean_sq_19_cast")];
            tensor<int32, [1]> var_916 = const()[name = tensor<string, []>("op_916"), val = tensor<int32, [1]>([1])];
            tensor<fp16, [2, 1, 1, 4096]> var_917_cast = reduce_mean(axes = var_916, keep_dims = var_281, x = zero_mean_sq_19_cast)[name = tensor<string, []>("op_917_cast")];
            tensor<fp16, []> var_918_to_fp16 = const()[name = tensor<string, []>("op_918_to_fp16"), val = tensor<fp16, []>(0x1.5p-17)];
            tensor<fp16, [2, 1, 1, 4096]> var_919_cast = add(x = var_917_cast, y = var_918_to_fp16)[name = tensor<string, []>("op_919_cast")];
            tensor<fp16, []> denom_19_epsilon_0_to_fp16 = const()[name = tensor<string, []>("denom_19_epsilon_0_to_fp16"), val = tensor<fp16, []>(0x1p-24)];
            tensor<fp16, [2, 1, 1, 4096]> denom_19_cast = rsqrt(epsilon = denom_19_epsilon_0_to_fp16, x = var_919_cast)[name = tensor<string, []>("denom_19_cast")];
            tensor<fp16, [2, 768, 1, 4096]> out_19_cast = mul(x = zero_mean_19_cast, y = denom_19_cast)[name = tensor<string, []>("out_19_cast")];
            tensor<fp16, [1, 768, 1, 1]> var_923_to_fp16 = const()[name = tensor<string, []>("op_923_to_fp16"), val = tensor<fp16, [1, 768, 1, 1]>(BLOBFILE(path = tensor<string, []>("@model_path/weights/weight.bin"), offset = tensor<uint64, []>(129821504)))];
            tensor<fp16, [2, 768, 1, 4096]> var_924_cast = add(x = out_19_cast, y = var_923_to_fp16)[name = tensor<string, []>("op_924_cast")];
            tensor<fp16, [1, 768, 1, 1]> var_926_to_fp16 = const()[name = tensor<string, []>("op_926_to_fp16"), val = tensor<fp16, [1, 768, 1, 1]>(BLOBFILE(path = tensor<string, []>("@model_path/weights/weight.bin"), offset = tensor<uint64, []>(129823104)))];
            tensor<fp16, [2, 768, 1, 4096]> hidden_states_35_cast = mul(x = var_924_cast, y = var_926_to_fp16)[name = tensor<string, []>("hidden_states_35_cast")];
            tensor<int32, [2]> var_933 = const()[name = tensor<string, []>("op_933"), val = tensor<int32, [2]>([1, 1])];
            tensor<int32, [2]> var_935 = const()[name = tensor<string, []>("op_935"), val = tensor<int32, [2]>([1, 1])];
            tensor<string, []> q_13_pad_type_0 = const()[name = tensor<string, []>("q_13_pad_type_0"), val = tensor<string, []>("custom")];
            tensor<int32, [4]> q_13_pad_0 = const()[name = tensor<string, []>("q_13_pad_0"), val = tensor<int32, [4]>([0, 0, 0, 0])];
            tensor<fp16, [768, 768, 1, 1]> down_blocks_1_attentions_0_transformer_blocks_3_attn1_to_q_weight_to_fp16 = const()[name = tensor<string, []>("down_blocks_1_attentions_0_transformer_blocks_3_attn1_to_q_weight_to_fp16"), val = tensor<fp16, [768, 768, 1, 1]>(BLOBFILE(path = tensor<string, []>("@model_path/weights/weight.bin"), offset = tensor<uint64, []>(129824704)))];
            tensor<fp16, [2, 768, 1, 4096]> q_13_cast = conv(dilations = var_935, groups = var_286, pad = q_13_pad_0, pad_type = q_13_pad_type_0, strides = var_933, weight = down_blocks_1_attentions_0_transformer_blocks_3_attn1_to_q_weight_to_fp16, x = hidden_states_35_cast)[name = tensor<string, []>("q_13_cast")];
…
            tensor<int32, [2]> var_9467 = const()[name = tensor<string, []>("op_9467"), val = tensor<int32, [2]>([1, 1])];
            tensor<int32, [2]> var_9469 = const()[name = tensor<string, []>("op_9469"), val = tensor<int32, [2]>([1, 1])];
            tensor<string, []> hidden_states_447_pad_type_0 = const()[name = tensor<string, []>("hidden_states_447_pad_type_0"), val = tensor<string, []>("custom")];
            tensor<int32, [4]> hidden_states_447_pad_0 = const()[name = tensor<string, []>("hidden_states_447_pad_0"), val = tensor<int32, [4]>([1, 1, 1, 1])];
            tensor<fp16, [768, 768, 3, 3]> up_blocks_2_upsamplers_0_conv_weight_to_fp16 = const()[name = tensor<string, []>("up_blocks_2_upsamplers_0_conv_weight_to_fp16"), val = tensor<fp16, [768, 768, 3, 3]>(BLOBFILE(path = tensor<string, []>("@model_path/weights/weight.bin"), offset = tensor<uint64, []>(4476349632)))];
            tensor<fp16, [768]> up_blocks_2_upsamplers_0_conv_bias_to_fp16 = const()[name = tensor<string, []>("up_blocks_2_upsamplers_0_conv_bias_to_fp16"), val = tensor<fp16, [768]>(BLOBFILE(path = tensor<string, []>("@model_path/weights/weight.bin"), offset = tensor<uint64, []>(4486966528)))];
            tensor<fp16, [2, 768, 128, 128]> hidden_states_447_cast = conv(bias = up_blocks_2_upsamplers_0_conv_bias_to_fp16, dilations = var_9469, groups = var_7059, pad = hidden_states_447_pad_0, pad_type = hidden_states_447_pad_type_0, strides = var_9467, weight = up_blocks_2_upsamplers_0_conv_weight_to_fp16, x = input_693_cast)[name = tensor<string, []>("hidden_states_447_cast")];
            tensor<int32, []> var_9477 = const()[name = tensor<string, []>("op_9477"), val = tensor<int32, []>(1)];
            tensor<bool, []> input_695_interleave_0 = const()[name = tensor<string, []>("input_695_interleave_0"), val = tensor<bool, []>(false)];
            tensor<fp16, [2, 1152, 128, 128]> input_695_cast = concat(axis = var_9477, interleave = input_695_interleave_0, values = (hidden_states_447_cast, input_43_cast))[name = tensor<string, []>("input_695_cast")];
            tensor<int32, [5]> reshape_196_shape_0 = const()[name = tensor<string, []>("reshape_196_shape_0"), val = tensor<int32, [5]>([2, 32, 36, 128, 128])];
            tensor<fp16, [2, 32, 36, 128, 128]> reshape_196_cast = reshape(shape = reshape_196_shape_0, x = input_695_cast)[name = tensor<string, []>("reshape_196_cast")];
            tensor<int32, [3]> reduce_mean_147_axes_0 = const()[name = tensor<string, []>("reduce_mean_147_axes_0"), val = tensor<int32, [3]>([2, 3, 4])];
            tensor<bool, []> reduce_mean_147_keep_dims_0 = const()[name = tensor<string, []>("reduce_mean_147_keep_dims_0"), val = tensor<bool, []>(true)];
            tensor<fp16, [2, 32, 1, 1, 1]> reduce_mean_147_cast = reduce_mean(axes = reduce_mean_147_axes_0, keep_dims = reduce_mean_147_keep_dims_0, x = reshape_196_cast)[name = tensor<string, []>("reduce_mean_147_cast")];
            tensor<fp16, [2, 32, 36, 128, 128]> sub_98_cast = sub(x = reshape_196_cast, y = reduce_mean_147_cast)[name = tensor<string, []>("sub_98_cast")];
            tensor<fp16, [2, 32, 36, 128, 128]> square_49_cast = square(x = sub_98_cast)[name = tensor<string, []>("square_49_cast")];
            tensor<int32, [3]> reduce_mean_149_axes_0 = const()[name = tensor<string, []>("reduce_mean_149_axes_0"), val = tensor<int32, [3]>([2, 3, 4])];
            tensor<bool, []> reduce_mean_149_keep_dims_0 = const()[name = tensor<string, []>("reduce_mean_149_keep_dims_0"), val = tensor<bool, []>(true)];
            tensor<fp16, [2, 32, 1, 1, 1]> reduce_mean_149_cast = reduce_mean(axes = reduce_mean_149_axes_0, keep_dims = reduce_mean_149_keep_dims_0, x = square_49_cast)[name = tensor<string, []>("reduce_mean_149_cast")];
            tensor<fp16, []> add_98_y_0_to_fp16 = const()[name = tensor<string, []>("add_98_y_0_to_fp16"), val = tensor<fp16, []>(0x1.5p-17)];
            tensor<fp16, [2, 32, 1, 1, 1]> add_98_cast = add(x = reduce_mean_149_cast, y = add_98_y_0_to_fp16)[name = tensor<string, []>("add_98_cast")];
            tensor<fp16, [2, 32, 1, 1, 1]> sqrt_49_cast = sqrt(x = add_98_cast)[name = tensor<string, []>("sqrt_49_cast")];
            tensor<fp16, [2, 32, 36, 128, 128]> real_div_49_cast = real_div(x = sub_98_cast, y = sqrt_49_cast)[name = tensor<string, []>("real_div_49_cast")];
            tensor<int32, [4]> reshape_197_shape_0 = const()[name = tensor<string, []>("reshape_197_shape_0"), val = tensor<int32, [4]>([2, 1152, 128, 128])];
            tensor<fp16, [2, 1152, 128, 128]> reshape_197_cast = reshape(shape = reshape_197_shape_0, x = real_div_49_cast)[name = tensor<string, []>("reshape_197_cast")];
            tensor<fp16, [1152]> add_99_gamma_0_to_fp16 = const()[name = tensor<string, []>("add_99_gamma_0_to_fp16"), val = tensor<fp16, [1152]>(BLOBFILE(path = tensor<string, []>("@model_path/weights/weight.bin"), offset = tensor<uint64, []>(4486968128)))];
            tensor<fp16, [1152]> add_99_beta_0_to_fp16 = const()[name = tensor<string, []>("add_99_beta_0_to_fp16"), val = tensor<fp16, [1152]>(BLOBFILE(path = tensor<string, []>("@model_path/weights/weight.bin"), offset = tensor<uint64, []>(4486970496)))];
            tensor<fp16, []> add_99_epsilon_0_to_fp16 = const()[name = tensor<string, []>("add_99_epsilon_0_to_fp16"), val = tensor<fp16, []>(0x1.5p-17)];
            tensor<fp16, [2, 1152, 128, 128]> add_99_cast = batch_norm(beta = add_99_beta_0_to_fp16, epsilon = add_99_epsilon_0_to_fp16, gamma = add_99_gamma_0_to_fp16, mean = add_93_mean_0_to_fp16, variance = add_93_variance_0_to_fp16, x = reshape_197_cast)[name = tensor<string, []>("add_99_cast")];
            tensor<fp16, [2, 1152, 128, 128]> input_699_cast = silu(x = add_99_cast)[name = tensor<string, []>("input_699_cast")];
            tensor<int32, [2]> var_9498 = const()[name = tensor<string, []>("op_9498"), val = tensor<int32, [2]>([1, 1])];
            tensor<int32, [2]> var_9500 = const()[name = tensor<string, []>("op_9500"), val = tensor<int32, [2]>([1, 1])];
            tensor<string, []> hidden_states_449_pad_type_0 = const()[name = tensor<string, []>("hidden_states_449_pad_type_0"), val = tensor<string, []>("custom")];
            tensor<int32, [4]> hidden_states_449_pad_0 = const()[name = tensor<string, []>("hidden_states_449_pad_0"), val = tensor<int32, [4]>([1, 1, 1, 1])];
            tensor<fp16, [384, 1152, 3, 3]> up_blocks_3_resnets_0_conv1_weight_to_fp16 = const()[name = tensor<string, []>("up_blocks_3_resnets_0_conv1_weight_to_fp16"), val = tensor<fp16, [384, 1152, 3, 3]>(BLOBFILE(path = tensor<string, []>("@model_path/weights/weight.bin"), offset = tensor<uint64, []>(4486972864)))];
            tensor<fp16, [384]> up_blocks_3_resnets_0_conv1_bias_to_fp16 = const()[name = tensor<string, []>("up_blocks_3_resnets_0_conv1_bias_to_fp16"), val = tensor<fp16, [384]>(BLOBFILE(path = tensor<string, []>("@model_path/weights/weight.bin"), offset = tensor<uint64, []>(4494935552)))];
            tensor<fp16, [2, 384, 128, 128]> hidden_states_449_cast = conv(bias = up_blocks_3_resnets_0_conv1_bias_to_fp16, dilations = var_9500, groups = var_9477, pad = hidden_states_449_pad_0, pad_type = hidden_states_449_pad_type_0, strides = var_9498, weight = up_blocks_3_resnets_0_conv1_weight_to_fp16, x = input_699_cast)[name = tensor<string, []>("hidden_states_449_cast")];
            tensor<int32, [2]> var_9506 = const()[name = tensor<string, []>("op_9506"), val = tensor<int32, [2]>([1, 1])];
            tensor<int32, [2]> var_9508 = const()[name = tensor<string, []>("op_9508"), val = tensor<int32, [2]>([1, 1])];
            tensor<string, []> temb_39_pad_type_0 = const()[name = tensor<string, []>("temb_39_pad_type_0"), val = tensor<string, []>("custom")];
            tensor<int32, [4]> temb_39_pad_0 = const()[name = tensor<string, []>("temb_39_pad_0"), val = tensor<int32, [4]>([0, 0, 0, 0])];
            tensor<fp16, [384, 1536, 1, 1]> up_blocks_3_resnets_0_time_emb_proj_weight_to_fp16 = const()[name = tensor<string, []>("up_blocks_3_resnets_0_time_emb_proj_weight_to_fp16"), val = tensor<fp16, [384, 1536, 1, 1]>(BLOBFILE(path = tensor<string, []>("@model_path/weights/weight.bin"), offset = tensor<uint64, []>(4494936384)))];
            tensor<fp16, [384]> up_blocks_3_resnets_0_time_emb_proj_bias_to_fp16 = const()[name = tensor<string, []>("up_blocks_3_resnets_0_time_emb_proj_bias_to_fp16"), val = tensor<fp16, [384]>(BLOBFILE(path = tensor<string, []>("@model_path/weights/weight.bin"), offset = tensor<uint64, []>(4496116096)))];
            tensor<fp16, [2, 384, 1, 1]> temb_39_cast = conv(bias = up_blocks_3_resnets_0_time_emb_proj_bias_to_fp16, dilations = var_9508, groups = var_9477, pad = temb_39_pad_0, pad_type = temb_39_pad_type_0, strides = var_9506, weight = up_blocks_3_resnets_0_time_emb_proj_weight_to_fp16, x = input_21_cast)[name = tensor<string, []>("temb_39_cast")];
            tensor<fp16, [2, 384, 128, 128]> input_703_cast = add(x = hidden_states_449_cast, y = temb_39_cast)[name = tensor<string, []>("input_703_cast")];
            tensor<int32, [5]> reshape_200_shape_0 = const()[name = tensor<string, []>("reshape_200_shape_0"), val = tensor<int32, [5]>([2, 32, 12, 128, 128])];
            tensor<fp16, [2, 32, 12, 128, 128]> reshape_200_cast = reshape(shape = reshape_200_shape_0, x = input_703_cast)[name = tensor<string, []>("reshape_200_cast")];
            tensor<int32, [3]> reduce_mean_150_axes_0 = const()[name = tensor<string, []>("reduce_mean_150_axes_0"), val = tensor<int32, [3]>([2, 3, 4])];
            tensor<bool, []> reduce_mean_150_keep_dims_0 = const()[name = tensor<string, []>("reduce_mean_150_keep_dims_0"), val = tensor<bool, []>(true)];
            tensor<fp16, [2, 32, 1, 1, 1]> reduce_mean_150_cast = reduce_mean(axes = reduce_mean_150_axes_0, keep_dims = reduce_mean_150_keep_dims_0, x = reshape_200_cast)[name = tensor<string, []>("reduce_mean_150_cast")];
            tensor<fp16, [2, 32, 12, 128, 128]> sub_100_cast = sub(x = reshape_200_cast, y = reduce_mean_150_cast)[name = tensor<string, []>("sub_100_cast")];
            tensor<fp16, [2, 32, 12, 128, 128]> square_50_cast = square(x = sub_100_cast)[name = tensor<string, []>("square_50_cast")];
            tensor<int32, [3]> reduce_mean_152_axes_0 = const()[name = tensor<string, []>("reduce_mean_152_axes_0"), val = tensor<int32, [3]>([2, 3, 4])];
            tensor<bool, []> reduce_mean_152_keep_dims_0 = const()[name = tensor<string, []>("reduce_mean_152_keep_dims_0"), val = tensor<bool, []>(true)];
            tensor<fp16, [2, 32, 1, 1, 1]> reduce_mean_152_cast = reduce_mean(axes = reduce_mean_152_axes_0, keep_dims = reduce_mean_152_keep_dims_0, x = square_50_cast)[name = tensor<string, []>("reduce_mean_152_cast")];
            tensor<fp16, []> add_100_y_0_to_fp16 = const()[name = tensor<string, []>("add_100_y_0_to_fp16"), val = tensor<fp16, []>(0x1.5p-17)];
            tensor<fp16, [2, 32, 1, 1, 1]> add_100_cast = add(x = reduce_mean_152_cast, y = add_100_y_0_to_fp16)[name = tensor<string, []>("add_100_cast")];
            tensor<fp16, [2, 32, 1, 1, 1]> sqrt_50_cast = sqrt(x = add_100_cast)[name = tensor<string, []>("sqrt_50_cast")];
            tensor<fp16, [2, 32, 12, 128, 128]> real_div_50_cast = real_div(x = sub_100_cast, y = sqrt_50_cast)[name = tensor<string, []>("real_div_50_cast")];
            tensor<int32, [4]> reshape_201_shape_0 = const()[name = tensor<string, []>("reshape_201_shape_0"), val = tensor<int32, [4]>([2, 384, 128, 128])];
            tensor<fp16, [2, 384, 128, 128]> reshape_201_cast = reshape(shape = reshape_201_shape_0, x = real_div_50_cast)[name = tensor<string, []>("reshape_201_cast")];
            tensor<fp16, [384]> add_101_gamma_0_to_fp16 = const()[name = tensor<string, []>("add_101_gamma_0_to_fp16"), val = tensor<fp16, [384]>(BLOBFILE(path = tensor<string, []>("@model_path/weights/weight.bin"), offset = tensor<uint64, []>(4496116928)))];
            tensor<fp16, [384]> add_101_beta_0_to_fp16 = const()[name = tensor<string, []>("add_101_beta_0_to_fp16"), val = tensor<fp16, [384]>(BLOBFILE(path = tensor<string, []>("@model_path/weights/weight.bin"), offset = tensor<uint64, []>(4496117760)))];
            tensor<fp16, []> add_101_epsilon_0_to_fp16 = const()[name = tensor<string, []>("add_101_epsilon_0_to_fp16"), val = tensor<fp16, []>(0x1.5p-17)];
            tensor<fp16, [2, 384, 128, 128]> add_101_cast = batch_norm(beta = add_101_beta_0_to_fp16, epsilon = add_101_epsilon_0_to_fp16, gamma = add_101_gamma_0_to_fp16, mean = add_1_mean_0_to_fp16, variance = add_1_variance_0_to_fp16, x = reshape_201_cast)[name = tensor<string, []>("add_101_cast")];
            tensor<fp16, [2, 384, 128, 128]> input_707_cast = silu(x = add_101_cast)[name = tensor<string, []>("input_707_cast")];
            tensor<int32, [2]> var_9518 = const()[name = tensor<string, []>("op_9518"), val = tensor<int32, [2]>([1, 1])];
            tensor<int32, [2]> var_9520 = const()[name = tensor<string, []>("op_9520"), val = tensor<int32, [2]>([1, 1])];
            tensor<string, []> hidden_states_451_pad_type_0 = const()[name = tensor<string, []>("hidden_states_451_pad_type_0"), val = tensor<string, []>("custom")];
            tensor<int32, [4]> hidden_states_451_pad_0 = const()[name = tensor<string, []>("hidden_states_451_pad_0"), val = tensor<int32, [4]>([1, 1, 1, 1])];
            tensor<fp16, [384, 384, 3, 3]> up_blocks_3_resnets_0_conv2_weight_to_fp16 = const()[name = tensor<string, []>("up_blocks_3_resnets_0_conv2_weight_to_fp16"), val = tensor<fp16, [384, 384, 3, 3]>(BLOBFILE(path = tensor<string, []>("@model_path/weights/weight.bin"), offset = tensor<uint64, []>(4496118592)))];
            tensor<fp16, [384]> up_blocks_3_resnets_0_conv2_bias_to_fp16 = const()[name = tensor<string, []>("up_blocks_3_resnets_0_conv2_bias_to_fp16"), val = tensor<fp16, [384]>(BLOBFILE(path = tensor<string, []>("@model_path/weights/weight.bin"), offset = tensor<uint64, []>(4498772864)))];
            tensor<fp16, [2, 384, 128, 128]> hidden_states_451_cast = conv(bias = up_blocks_3_resnets_0_conv2_bias_to_fp16, dilations = var_9520, groups = var_9477, pad = hidden_states_451_pad_0, pad_type = hidden_states_451_pad_type_0, strides = var_9518, weight = up_blocks_3_resnets_0_conv2_weight_to_fp16, x = input_707_cast)[name = tensor<string, []>("hidden_states_451_cast")];
            tensor<int32, [2]> var_9525 = const()[name = tensor<string, []>("op_9525"), val = tensor<int32, [2]>([1, 1])];
            tensor<int32, [2]> var_9527 = const()[name = tensor<string, []>("op_9527"), val = tensor<int32, [2]>([1, 1])];
            tensor<string, []> x_23_pad_type_0 = const()[name = tensor<string, []>("x_23_pad_type_0"), val = tensor<string, []>("custom")];
            tensor<int32, [4]> x_23_pad_0 = const()[name = tensor<string, []>("x_23_pad_0"), val = tensor<int32, [4]>([0, 0, 0, 0])];
            tensor<fp16, [384, 1152, 1, 1]> up_blocks_3_resnets_0_conv_shortcut_weight_to_fp16 = const()[name = tensor<string, []>("up_blocks_3_resnets_0_conv_shortcut_weight_to_fp16"), val = tensor<fp16, [384, 1152, 1, 1]>(BLOBFILE(path = tensor<string, []>("@model_path/weights/weight.bin"), offset = tensor<uint64, []>(4498773696)))];
            tensor<fp16, [384]> up_blocks_3_resnets_0_conv_shortcut_bias_to_fp16 = const()[name = tensor<string, []>("up_blocks_3_resnets_0_conv_shortcut_bias_to_fp16"), val = tensor<fp16, [384]>(BLOBFILE(path = tensor<string, []>("@model_path/weights/weight.bin"), offset = tensor<uint64, []>(4499658496)))];
            tensor<fp16, [2, 384, 128, 128]> x_23_cast = conv(bias = up_blocks_3_resnets_0_conv_shortcut_bias_to_fp16, dilations = var_9527, groups = var_9477, pad = x_23_pad_0, pad_type = x_23_pad_type_0, strides = var_9525, weight = up_blocks_3_resnets_0_conv_shortcut_weight_to_fp16, x = input_695_cast)[name = tensor<string, []>("x_23_cast")];
            tensor<fp16, [2, 384, 128, 128]> hidden_states_453_cast = add(x = x_23_cast, y = hidden_states_451_cast)[name = tensor<string, []>("hidden_states_453_cast")];
            tensor<bool, []> input_709_interleave_0 = const()[name = tensor<string, []>("input_709_interleave_0"), val = tensor<bool, []>(false)];
            tensor<fp16, [2, 768, 128, 128]> input_709_cast = concat(axis = var_9477, interleave = input_709_interleave_0, values = (hidden_states_453_cast, input_29_cast))[name = tensor<string, []>("input_709_cast")];
            tensor<int32, [5]> reshape_204_shape_0 = const()[name = tensor<string, []>("reshape_204_shape_0"), val = tensor<int32, [5]>([2, 32, 24, 128, 128])];
            tensor<fp16, [2, 32, 24, 128, 128]> reshape_204_cast = reshape(shape = reshape_204_shape_0, x = input_709_cast)[name = tensor<string, []>("reshape_204_cast")];
            tensor<int32, [3]> reduce_mean_153_axes_0 = const()[name = tensor<string, []>("reduce_mean_153_axes_0"), val = tensor<int32, [3]>([2, 3, 4])];
            tensor<bool, []> reduce_mean_153_keep_dims_0 = const()[name = tensor<string, []>("reduce_mean_153_keep_dims_0"), val = tensor<bool, []>(true)];
            tensor<fp16, [2, 32, 1, 1, 1]> reduce_mean_153_cast = reduce_mean(axes = reduce_mean_153_axes_0, keep_dims = reduce_mean_153_keep_dims_0, x = reshape_204_cast)[name = tensor<string, []>("reduce_mean_153_cast")];
            tensor<fp16, [2, 32, 24, 128, 128]> sub_102_cast = sub(x = reshape_204_cast, y = reduce_mean_153_cast)[name = tensor<string, []>("sub_102_cast")];
            tensor<fp16, [2, 32, 24, 128, 128]> square_51_cast = square(x = sub_102_cast)[name = tensor<string, []>("square_51_cast")];
            tensor<int32, [3]> reduce_mean_155_axes_0 = const()[name = tensor<string, []>("reduce_mean_155_axes_0"), val = tensor<int32, [3]>([2, 3, 4])];
            tensor<bool, []> reduce_mean_155_keep_dims_0 = const()[name = tensor<string, []>("reduce_mean_155_keep_dims_0"), val = tensor<bool, []>(true)];
            tensor<fp16, [2, 32, 1, 1, 1]> reduce_mean_155_cast = reduce_mean(axes = reduce_mean_155_axes_0, keep_dims = reduce_mean_155_keep_dims_0, x = square_51_cast)[name = tensor<string, []>("reduce_mean_155_cast")];
            tensor<fp16, []> add_102_y_0_to_fp16 = const()[name = tensor<string, []>("add_102_y_0_to_fp16"), val = tensor<fp16, []>(0x1.5p-17)];
            tensor<fp16, [2, 32, 1, 1, 1]> add_102_cast = add(x = reduce_mean_155_cast, y = add_102_y_0_to_fp16)[name = tensor<string, []>("add_102_cast")];
            tensor<fp16, [2, 32, 1, 1, 1]> sqrt_51_cast = sqrt(x = add_102_cast)[name = tensor<string, []>("sqrt_51_cast")];
            tensor<fp16, [2, 32, 24, 128, 128]> real_div_51_cast = real_div(x = sub_102_cast, y = sqrt_51_cast)[name = tensor<string, []>("real_div_51_cast")];
            tensor<int32, [4]> reshape_205_shape_0 = const()[name = tensor<string, []>("reshape_205_shape_0"), val = tensor<int32, [4]>([2, 768, 128, 128])];
            tensor<fp16, [2, 768, 128, 128]> reshape_205_cast = reshape(shape = reshape_205_shape_0, x = real_div_51_cast)[name = tensor<string, []>("reshape_205_cast")];
            tensor<fp16, [768]> add_103_gamma_0_to_fp16 = const()[name = tensor<string, []>("add_103_gamma_0_to_fp16"), val = tensor<fp16, [768]>(BLOBFILE(path = tensor<string, []>("@model_path/weights/weight.bin"), offset = tensor<uint64, []>(4499659328)))];
            tensor<fp16, [768]> add_103_beta_0_to_fp16 = const()[name = tensor<string, []>("add_103_beta_0_to_fp16"), val = tensor<fp16, [768]>(BLOBFILE(path = tensor<string, []>("@model_path/weights/weight.bin"), offset = tensor<uint64, []>(4499660928)))];
            tensor<fp16, []> add_103_epsilon_0_to_fp16 = const()[name = tensor<string, []>("add_103_epsilon_0_to_fp16"), val = tensor<fp16, []>(0x1.5p-17)];
            tensor<fp16, [2, 768, 128, 128]> add_103_cast = batch_norm(beta = add_103_beta_0_to_fp16, epsilon = add_103_epsilon_0_to_fp16, gamma = add_103_gamma_0_to_fp16, mean = add_11_mean_0_to_fp16, variance = add_11_variance_0_to_fp16, x = reshape_205_cast)[name = tensor<string, []>("add_103_cast")];
            tensor<fp16, [2, 768, 128, 128]> input_713_cast = silu(x = add_103_cast)[name = tensor<string, []>("input_713_cast")];
            tensor<int32, [2]> var_9545 = const()[name = tensor<string, []>("op_9545"), val = tensor<int32, [2]>([1, 1])];
            tensor<int32, [2]> var_9547 = const()[name = tensor<string, []>("op_9547"), val = tensor<int32, [2]>([1, 1])];
            tensor<string, []> hidden_states_455_pad_type_0 = const()[name = tensor<string, []>("hidden_states_455_pad_type_0"), val = tensor<string, []>("custom")];
            tensor<int32, [4]> hidden_states_455_pad_0 = const()[name = tensor<string, []>("hidden_states_455_pad_0"), val = tensor<int32, [4]>([1, 1, 1, 1])];
            tensor<fp16, [384, 768, 3, 3]> up_blocks_3_resnets_1_conv1_weight_to_fp16 = const()[name = tensor<string, []>("up_blocks_3_resnets_1_conv1_weight_to_fp16"), val = tensor<fp16, [384, 768, 3, 3]>(BLOBFILE(path = tensor<string, []>("@model_path/weights/weight.bin"), offset = tensor<uint64, []>(4499662528)))];
            tensor<fp16, [384]> up_blocks_3_resnets_1_conv1_bias_to_fp16 = const()[name = tensor<string, []>("up_blocks_3_resnets_1_conv1_bias_to_fp16"), val = tensor<fp16, [384]>(BLOBFILE(path = tensor<string, []>("@model_path/weights/weight.bin"), offset = tensor<uint64, []>(4504971008)))];
            tensor<fp16, [2, 384, 128, 128]> hidden_states_455_cast = conv(bias = up_blocks_3_resnets_1_conv1_bias_to_fp16, dilations = var_9547, groups = var_9477, pad = hidden_states_455_pad_0, pad_type = hidden_states_455_pad_type_0, strides = var_9545, weight = up_blocks_3_resnets_1_conv1_weight_to_fp16, x = input_713_cast)[name = tensor<string, []>("hidden_states_455_cast")];
            tensor<int32, [2]> var_9553 = const()[name = tensor<string, []>("op_9553"), val = tensor<int32, [2]>([1, 1])];
            tensor<int32, [2]> var_9555 = const()[name = tensor<string, []>("op_9555"), val = tensor<int32, [2]>([1, 1])];
            tensor<string, []> temb_41_pad_type_0 = const()[name = tensor<string, []>("temb_41_pad_type_0"), val = tensor<string, []>("custom")];
            tensor<int32, [4]> temb_41_pad_0 = const()[name = tensor<string, []>("temb_41_pad_0"), val = tensor<int32, [4]>([0, 0, 0, 0])];
            tensor<fp16, [384, 1536, 1, 1]> up_blocks_3_resnets_1_time_emb_proj_weight_to_fp16 = const()[name = tensor<string, []>("up_blocks_3_resnets_1_time_emb_proj_weight_to_fp16"), val = tensor<fp16, [384, 1536, 1, 1]>(BLOBFILE(path = tensor<string, []>("@model_path/weights/weight.bin"), offset = tensor<uint64, []>(4504971840)))];
            tensor<fp16, [384]> up_blocks_3_resnets_1_time_emb_proj_bias_to_fp16 = const()[name = tensor<string, []>("up_blocks_3_resnets_1_time_emb_proj_bias_to_fp16"), val = tensor<fp16, [384]>(BLOBFILE(path = tensor<string, []>("@model_path/weights/weight.bin"), offset = tensor<uint64, []>(4506151552)))];
            tensor<fp16, [2, 384, 1, 1]> temb_41_cast = conv(bias = up_blocks_3_resnets_1_time_emb_proj_bias_to_fp16, dilations = var_9555, groups = var_9477, pad = temb_41_pad_0, pad_type = temb_41_pad_type_0, strides = var_9553, weight = up_blocks_3_resnets_1_time_emb_proj_weight_to_fp16, x = input_21_cast)[name = tensor<string, []>("temb_41_cast")];
            tensor<fp16, [2, 384, 128, 128]> input_717_cast = add(x = hidden_states_455_cast, y = temb_41_cast)[name = tensor<string, []>("input_717_cast")];
            tensor<int32, [5]> reshape_208_shape_0 = const()[name = tensor<string, []>("reshape_208_shape_0"), val = tensor<int32, [5]>([2, 32, 12, 128, 128])];
            tensor<fp16, [2, 32, 12, 128, 128]> reshape_208_cast = reshape(shape = reshape_208_shape_0, x = input_717_cast)[name = tensor<string, []>("reshape_208_cast")];
            tensor<int32, [3]> reduce_mean_156_axes_0 = const()[name = tensor<string, []>("reduce_mean_156_axes_0"), val = tensor<int32, [3]>([2, 3, 4])];
            tensor<bool, []> reduce_mean_156_keep_dims_0 = const()[name = tensor<string, []>("reduce_mean_156_keep_dims_0"), val = tensor<bool, []>(true)];
            tensor<fp16, [2, 32, 1, 1, 1]> reduce_mean_156_cast = reduce_mean(axes = reduce_mean_156_axes_0, keep_dims = reduce_mean_156_keep_dims_0, x = reshape_208_cast)[name = tensor<string, []>("reduce_mean_156_cast")];
            tensor<fp16, [2, 32, 12, 128, 128]> sub_104_cast = sub(x = reshape_208_cast, y = reduce_mean_156_cast)[name = tensor<string, []>("sub_104_cast")];
            tensor<fp16, [2, 32, 12, 128, 128]> square_52_cast = square(x = sub_104_cast)[name = tensor<string, []>("square_52_cast")];
            tensor<int32, [3]> reduce_mean_158_axes_0 = const()[name = tensor<string, []>("reduce_mean_158_axes_0"), val = tensor<int32, [3]>([2, 3, 4])];
            tensor<bool, []> reduce_mean_158_keep_dims_0 = const()[name = tensor<string, []>("reduce_mean_158_keep_dims_0"), val = tensor<bool, []>(true)];
            tensor<fp16, [2, 32, 1, 1, 1]> reduce_mean_158_cast = reduce_mean(axes = reduce_mean_158_axes_0, keep_dims = reduce_mean_158_keep_dims_0, x = square_52_cast)[name = tensor<string, []>("reduce_mean_158_cast")];
            tensor<fp16, []> add_104_y_0_to_fp16 = const()[name = tensor<string, []>("add_104_y_0_to_fp16"), val = tensor<fp16, []>(0x1.5p-17)];
            tensor<fp16, [2, 32, 1, 1, 1]> add_104_cast = add(x = reduce_mean_158_cast, y = add_104_y_0_to_fp16)[name = tensor<string, []>("add_104_cast")];
            tensor<fp16, [2, 32, 1, 1, 1]> sqrt_52_cast = sqrt(x = add_104_cast)[name = tensor<string, []>("sqrt_52_cast")];
            tensor<fp16, [2, 32, 12, 128, 128]> real_div_52_cast = real_div(x = sub_104_cast, y = sqrt_52_cast)[name = tensor<string, []>("real_div_52_cast")];
            tensor<int32, [4]> reshape_209_shape_0 = const()[name = tensor<string, []>("reshape_209_shape_0"), val = tensor<int32, [4]>([2, 384, 128, 128])];
            tensor<fp16, [2, 384, 128, 128]> reshape_209_cast = reshape(shape = reshape_209_shape_0, x = real_div_52_cast)[name = tensor<string, []>("reshape_209_cast")];
            tensor<fp16, [384]> add_105_gamma_0_to_fp16 = const()[name = tensor<string, []>("add_105_gamma_0_to_fp16"), val = tensor<fp16, [384]>(BLOBFILE(path = tensor<string, []>("@model_path/weights/weight.bin"), offset = tensor<uint64, []>(4506152384)))];
            tensor<fp16, [384]> add_105_beta_0_to_fp16 = const()[name = tensor<string, []>("add_105_beta_0_to_fp16"), val = tensor<fp16, [384]>(BLOBFILE(path = tensor<string, []>("@model_path/weights/weight.bin"), offset = tensor<uint64, []>(4506153216)))];
            tensor<fp16, []> add_105_epsilon_0_to_fp16 = const()[name = tensor<string, []>("add_105_epsilon_0_to_fp16"), val = tensor<fp16, []>(0x1.5p-17)];
            tensor<fp16, [2, 384, 128, 128]> add_105_cast = batch_norm(beta = add_105_beta_0_to_fp16, epsilon = add_105_epsilon_0_to_fp16, gamma = add_105_gamma_0_to_fp16, mean = add_1_mean_0_to_fp16, variance = add_1_variance_0_to_fp16, x = reshape_209_cast)[name = tensor<string, []>("add_105_cast")];
            tensor<fp16, [2, 384, 128, 128]> input_721_cast = silu(x = add_105_cast)[name = tensor<string, []>("input_721_cast")];
            tensor<int32, [2]> var_9565 = const()[name = tensor<string, []>("op_9565"), val = tensor<int32, [2]>([1, 1])];
            tensor<int32, [2]> var_9567 = const()[name = tensor<string, []>("op_9567"), val = tensor<int32, [2]>([1, 1])];
            tensor<string, []> hidden_states_457_pad_type_0 = const()[name = tensor<string, []>("hidden_states_457_pad_type_0"), val = tensor<string, []>("custom")];
            tensor<int32, [4]> hidden_states_457_pad_0 = const()[name = tensor<string, []>("hidden_states_457_pad_0"), val = tensor<int32, [4]>([1, 1, 1, 1])];
            tensor<fp16, [384, 384, 3, 3]> up_blocks_3_resnets_1_conv2_weight_to_fp16 = const()[name = tensor<string, []>("up_blocks_3_resnets_1_conv2_weight_to_fp16"), val = tensor<fp16, [384, 384, 3, 3]>(BLOBFILE(path = tensor<string, []>("@model_path/weights/weight.bin"), offset = tensor<uint64, []>(4506154048)))];
            tensor<fp16, [384]> up_blocks_3_resnets_1_conv2_bias_to_fp16 = const()[name = tensor<string, []>("up_blocks_3_resnets_1_conv2_bias_to_fp16"), val = tensor<fp16, [384]>(BLOBFILE(path = tensor<string, []>("@model_path/weights/weight.bin"), offset = tensor<uint64, []>(4508808320)))];
            tensor<fp16, [2, 384, 128, 128]> hidden_states_457_cast = conv(bias = up_blocks_3_resnets_1_conv2_bias_to_fp16, dilations = var_9567, groups = var_9477, pad = hidden_states_457_pad_0, pad_type = hidden_states_457_pad_type_0, strides = var_9565, weight = up_blocks_3_resnets_1_conv2_weight_to_fp16, x = input_721_cast)[name = tensor<string, []>("hidden_states_457_cast")];
            tensor<int32, [2]> var_9572 = const()[name = tensor<string, []>("op_9572"), val = tensor<int32, [2]>([1, 1])];
            tensor<int32, [2]> var_9574 = const()[name = tensor<string, []>("op_9574"), val = tensor<int32, [2]>([1, 1])];
            tensor<string, []> x_25_pad_type_0 = const()[name = tensor<string, []>("x_25_pad_type_0"), val = tensor<string, []>("custom")];
            tensor<int32, [4]> x_25_pad_0 = const()[name = tensor<string, []>("x_25_pad_0"), val = tensor<int32, [4]>([0, 0, 0, 0])];
            tensor<fp16, [384, 768, 1, 1]> up_blocks_3_resnets_1_conv_shortcut_weight_to_fp16 = const()[name = tensor<string, []>("up_blocks_3_resnets_1_conv_shortcut_weight_to_fp16"), val = tensor<fp16, [384, 768, 1, 1]>(BLOBFILE(path = tensor<string, []>("@model_path/weights/weight.bin"), offset = tensor<uint64, []>(4508809152)))];
            tensor<fp16, [384]> up_blocks_3_resnets_1_conv_shortcut_bias_to_fp16 = const()[name = tensor<string, []>("up_blocks_3_resnets_1_conv_shortcut_bias_to_fp16"), val = tensor<fp16, [384]>(BLOBFILE(path = tensor<string, []>("@model_path/weights/weight.bin"), offset = tensor<uint64, []>(4509399040)))];
            tensor<fp16, [2, 384, 128, 128]> x_25_cast = conv(bias = up_blocks_3_resnets_1_conv_shortcut_bias_to_fp16, dilations = var_9574, groups = var_9477, pad = x_25_pad_0, pad_type = x_25_pad_type_0, strides = var_9572, weight = up_blocks_3_resnets_1_conv_shortcut_weight_to_fp16, x = input_709_cast)[name = tensor<string, []>("x_25_cast")];
            tensor<fp16, [2, 384, 128, 128]> hidden_states_459_cast = add(x = x_25_cast, y = hidden_states_457_cast)[name = tensor<string, []>("hidden_states_459_cast")];
            tensor<bool, []> input_723_interleave_0 = const()[name = tensor<string, []>("input_723_interleave_0"), val = tensor<bool, []>(false)];
            tensor<fp16, [2, 768, 128, 128]> input_723_cast = concat(axis = var_9477, interleave = input_723_interleave_0, values = (hidden_states_459_cast, input_13_cast))[name = tensor<string, []>("input_723_cast")];
            tensor<int32, [5]> reshape_212_shape_0 = const()[name = tensor<string, []>("reshape_212_shape_0"), val = tensor<int32, [5]>([2, 32, 24, 128, 128])];
            tensor<fp16, [2, 32, 24, 128, 128]> reshape_212_cast = reshape(shape = reshape_212_shape_0, x = input_723_cast)[name = tensor<string, []>("reshape_212_cast")];
            tensor<int32, [3]> reduce_mean_159_axes_0 = const()[name = tensor<string, []>("reduce_mean_159_axes_0"), val = tensor<int32, [3]>([2, 3, 4])];
            tensor<bool, []> reduce_mean_159_keep_dims_0 = const()[name = tensor<string, []>("reduce_mean_159_keep_dims_0"), val = tensor<bool, []>(true)];
            tensor<fp16, [2, 32, 1, 1, 1]> reduce_mean_159_cast = reduce_mean(axes = reduce_mean_159_axes_0, keep_dims = reduce_mean_159_keep_dims_0, x = reshape_212_cast)[name = tensor<string, []>("reduce_mean_159_cast")];
            tensor<fp16, [2, 32, 24, 128, 128]> sub_106_cast = sub(x = reshape_212_cast, y = reduce_mean_159_cast)[name = tensor<string, []>("sub_106_cast")];
            tensor<fp16, [2, 32, 24, 128, 128]> square_53_cast = square(x = sub_106_cast)[name = tensor<string, []>("square_53_cast")];
            tensor<int32, [3]> reduce_mean_161_axes_0 = const()[name = tensor<string, []>("reduce_mean_161_axes_0"), val = tensor<int32, [3]>([2, 3, 4])];
            tensor<bool, []> reduce_mean_161_keep_dims_0 = const()[name = tensor<string, []>("reduce_mean_161_keep_dims_0"), val = tensor<bool, []>(true)];
            tensor<fp16, [2, 32, 1, 1, 1]> reduce_mean_161_cast = reduce_mean(axes = reduce_mean_161_axes_0, keep_dims = reduce_mean_161_keep_dims_0, x = square_53_cast)[name = tensor<string, []>("reduce_mean_161_cast")];
            tensor<fp16, []> add_106_y_0_to_fp16 = const()[name = tensor<string, []>("add_106_y_0_to_fp16"), val = tensor<fp16, []>(0x1.5p-17)];
            tensor<fp16, [2, 32, 1, 1, 1]> add_106_cast = add(x = reduce_mean_161_cast, y = add_106_y_0_to_fp16)[name = tensor<string, []>("add_106_cast")];
            tensor<fp16, [2, 32, 1, 1, 1]> sqrt_53_cast = sqrt(x = add_106_cast)[name = tensor<string, []>("sqrt_53_cast")];
            tensor<fp16, [2, 32, 24, 128, 128]> real_div_53_cast = real_div(x = sub_106_cast, y = sqrt_53_cast)[name = tensor<string, []>("real_div_53_cast")];
            tensor<int32, [4]> reshape_213_shape_0 = const()[name = tensor<string, []>("reshape_213_shape_0"), val = tensor<int32, [4]>([2, 768, 128, 128])];
            tensor<fp16, [2, 768, 128, 128]> reshape_213_cast = reshape(shape = reshape_213_shape_0, x = real_div_53_cast)[name = tensor<string, []>("reshape_213_cast")];
            tensor<fp16, [768]> add_107_gamma_0_to_fp16 = const()[name = tensor<string, []>("add_107_gamma_0_to_fp16"), val = tensor<fp16, [768]>(BLOBFILE(path = tensor<string, []>("@model_path/weights/weight.bin"), offset = tensor<uint64, []>(4509399872)))];
            tensor<fp16, [768]> add_107_beta_0_to_fp16 = const()[name = tensor<string, []>("add_107_beta_0_to_fp16"), val = tensor<fp16, [768]>(BLOBFILE(path = tensor<string, []>("@model_path/weights/weight.bin"), offset = tensor<uint64, []>(4509401472)))];
            tensor<fp16, []> add_107_epsilon_0_to_fp16 = const()[name = tensor<string, []>("add_107_epsilon_0_to_fp16"), val = tensor<fp16, []>(0x1.5p-17)];
            tensor<fp16, [2, 768, 128, 128]> add_107_cast = batch_norm(beta = add_107_beta_0_to_fp16, epsilon = add_107_epsilon_0_to_fp16, gamma = add_107_gamma_0_to_fp16, mean = add_11_mean_0_to_fp16, variance = add_11_variance_0_to_fp16, x = reshape_213_cast)[name = tensor<string, []>("add_107_cast")];
            tensor<fp16, [2, 768, 128, 128]> input_727_cast = silu(x = add_107_cast)[name = tensor<string, []>("input_727_cast")];
            tensor<int32, [2]> var_9592 = const()[name = tensor<string, []>("op_9592"), val = tensor<int32, [2]>([1, 1])];
            tensor<int32, [2]> var_9594 = const()[name = tensor<string, []>("op_9594"), val = tensor<int32, [2]>([1, 1])];
            tensor<string, []> hidden_states_461_pad_type_0 = const()[name = tensor<string, []>("hidden_states_461_pad_type_0"), val = tensor<string, []>("custom")];
            tensor<int32, [4]> hidden_states_461_pad_0 = const()[name = tensor<string, []>("hidden_states_461_pad_0"), val = tensor<int32, [4]>([1, 1, 1, 1])];
            tensor<fp16, [384, 768, 3, 3]> up_blocks_3_resnets_2_conv1_weight_to_fp16 = const()[name = tensor<string, []>("up_blocks_3_resnets_2_conv1_weight_to_fp16"), val = tensor<fp16, [384, 768, 3, 3]>(BLOBFILE(path = tensor<string, []>("@model_path/weights/weight.bin"), offset = tensor<uint64, []>(4509403072)))];
            tensor<fp16, [384]> up_blocks_3_resnets_2_conv1_bias_to_fp16 = const()[name = tensor<string, []>("up_blocks_3_resnets_2_conv1_bias_to_fp16"), val = tensor<fp16, [384]>(BLOBFILE(path = tensor<string, []>("@model_path/weights/weight.bin"), offset = tensor<uint64, []>(4514711552)))];
            tensor<fp16, [2, 384, 128, 128]> hidden_states_461_cast = conv(bias = up_blocks_3_resnets_2_conv1_bias_to_fp16, dilations = var_9594, groups = var_9477, pad = hidden_states_461_pad_0, pad_type = hidden_states_461_pad_type_0, strides = var_9592, weight = up_blocks_3_resnets_2_conv1_weight_to_fp16, x = input_727_cast)[name = tensor<string, []>("hidden_states_461_cast")];
            tensor<int32, [2]> var_9600 = const()[name = tensor<string, []>("op_9600"), val = tensor<int32, [2]>([1, 1])];
            tensor<int32, [2]> var_9602 = const()[name = tensor<string, []>("op_9602"), val = tensor<int32, [2]>([1, 1])];
            tensor<string, []> temb_pad_type_0 = const()[name = tensor<string, []>("temb_pad_type_0"), val = tensor<string, []>("custom")];
            tensor<int32, [4]> temb_pad_0 = const()[name = tensor<string, []>("temb_pad_0"), val = tensor<int32, [4]>([0, 0, 0, 0])];
            tensor<fp16, [384, 1536, 1, 1]> up_blocks_3_resnets_2_time_emb_proj_weight_to_fp16 = const()[name = tensor<string, []>("up_blocks_3_resnets_2_time_emb_proj_weight_to_fp16"), val = tensor<fp16, [384, 1536, 1, 1]>(BLOBFILE(path = tensor<string, []>("@model_path/weights/weight.bin"), offset = tensor<uint64, []>(4514712384)))];
            tensor<fp16, [384]> up_blocks_3_resnets_2_time_emb_proj_bias_to_fp16 = const()[name = tensor<string, []>("up_blocks_3_resnets_2_time_emb_proj_bias_to_fp16"), val = tensor<fp16, [384]>(BLOBFILE(path = tensor<string, []>("@model_path/weights/weight.bin"), offset = tensor<uint64, []>(4515892096)))];
            tensor<fp16, [2, 384, 1, 1]> temb_cast = conv(bias = up_blocks_3_resnets_2_time_emb_proj_bias_to_fp16, dilations = var_9602, groups = var_9477, pad = temb_pad_0, pad_type = temb_pad_type_0, strides = var_9600, weight = up_blocks_3_resnets_2_time_emb_proj_weight_to_fp16, x = input_21_cast)[name = tensor<string, []>("temb_cast")];
            tensor<fp16, [2, 384, 128, 128]> input_731_cast = add(x = hidden_states_461_cast, y = temb_cast)[name = tensor<string, []>("input_731_cast")];
            tensor<int32, [5]> reshape_216_shape_0 = const()[name = tensor<string, []>("reshape_216_shape_0"), val = tensor<int32, [5]>([2, 32, 12, 128, 128])];
            tensor<fp16, [2, 32, 12, 128, 128]> reshape_216_cast = reshape(shape = reshape_216_shape_0, x = input_731_cast)[name = tensor<string, []>("reshape_216_cast")];
            tensor<int32, [3]> reduce_mean_162_axes_0 = const()[name = tensor<string, []>("reduce_mean_162_axes_0"), val = tensor<int32, [3]>([2, 3, 4])];
            tensor<bool, []> reduce_mean_162_keep_dims_0 = const()[name = tensor<string, []>("reduce_mean_162_keep_dims_0"), val = tensor<bool, []>(true)];
            tensor<fp16, [2, 32, 1, 1, 1]> reduce_mean_162_cast = reduce_mean(axes = reduce_mean_162_axes_0, keep_dims = reduce_mean_162_keep_dims_0, x = reshape_216_cast)[name = tensor<string, []>("reduce_mean_162_cast")];
            tensor<fp16, [2, 32, 12, 128, 128]> sub_108_cast = sub(x = reshape_216_cast, y = reduce_mean_162_cast)[name = tensor<string, []>("sub_108_cast")];
            tensor<fp16, [2, 32, 12, 128, 128]> square_54_cast = square(x = sub_108_cast)[name = tensor<string, []>("square_54_cast")];
            tensor<int32, [3]> reduce_mean_164_axes_0 = const()[name = tensor<string, []>("reduce_mean_164_axes_0"), val = tensor<int32, [3]>([2, 3, 4])];
            tensor<bool, []> reduce_mean_164_keep_dims_0 = const()[name = tensor<string, []>("reduce_mean_164_keep_dims_0"), val = tensor<bool, []>(true)];
            tensor<fp16, [2, 32, 1, 1, 1]> reduce_mean_164_cast = reduce_mean(axes = reduce_mean_164_axes_0, keep_dims = reduce_mean_164_keep_dims_0, x = square_54_cast)[name = tensor<string, []>("reduce_mean_164_cast")];
            tensor<fp16, []> add_108_y_0_to_fp16 = const()[name = tensor<string, []>("add_108_y_0_to_fp16"), val = tensor<fp16, []>(0x1.5p-17)];
            tensor<fp16, [2, 32, 1, 1, 1]> add_108_cast = add(x = reduce_mean_164_cast, y = add_108_y_0_to_fp16)[name = tensor<string, []>("add_108_cast")];
            tensor<fp16, [2, 32, 1, 1, 1]> sqrt_54_cast = sqrt(x = add_108_cast)[name = tensor<string, []>("sqrt_54_cast")];
            tensor<fp16, [2, 32, 12, 128, 128]> real_div_54_cast = real_div(x = sub_108_cast, y = sqrt_54_cast)[name = tensor<string, []>("real_div_54_cast")];
            tensor<int32, [4]> reshape_217_shape_0 = const()[name = tensor<string, []>("reshape_217_shape_0"), val = tensor<int32, [4]>([2, 384, 128, 128])];
            tensor<fp16, [2, 384, 128, 128]> reshape_217_cast = reshape(shape = reshape_217_shape_0, x = real_div_54_cast)[name = tensor<string, []>("reshape_217_cast")];
            tensor<fp16, [384]> add_109_gamma_0_to_fp16 = const()[name = tensor<string, []>("add_109_gamma_0_to_fp16"), val = tensor<fp16, [384]>(BLOBFILE(path = tensor<string, []>("@model_path/weights/weight.bin"), offset = tensor<uint64, []>(4515892928)))];
            tensor<fp16, [384]> add_109_beta_0_to_fp16 = const()[name = tensor<string, []>("add_109_beta_0_to_fp16"), val = tensor<fp16, [384]>(BLOBFILE(path = tensor<string, []>("@model_path/weights/weight.bin"), offset = tensor<uint64, []>(4515893760)))];
            tensor<fp16, []> add_109_epsilon_0_to_fp16 = const()[name = tensor<string, []>("add_109_epsilon_0_to_fp16"), val = tensor<fp16, []>(0x1.5p-17)];
            tensor<fp16, [2, 384, 128, 128]> add_109_cast = batch_norm(beta = add_109_beta_0_to_fp16, epsilon = add_109_epsilon_0_to_fp16, gamma = add_109_gamma_0_to_fp16, mean = add_1_mean_0_to_fp16, variance = add_1_variance_0_to_fp16, x = reshape_217_cast)[name = tensor<string, []>("add_109_cast")];
            tensor<fp16, [2, 384, 128, 128]> input_735_cast = silu(x = add_109_cast)[name = tensor<string, []>("input_735_cast")];
            tensor<int32, [2]> var_9612 = const()[name = tensor<string, []>("op_9612"), val = tensor<int32, [2]>([1, 1])];
            tensor<int32, [2]> var_9614 = const()[name = tensor<string, []>("op_9614"), val = tensor<int32, [2]>([1, 1])];
            tensor<string, []> hidden_states_pad_type_0 = const()[name = tensor<string, []>("hidden_states_pad_type_0"), val = tensor<string, []>("custom")];
            tensor<int32, [4]> hidden_states_pad_0 = const()[name = tensor<string, []>("hidden_states_pad_0"), val = tensor<int32, [4]>([1, 1, 1, 1])];
            tensor<fp16, [384, 384, 3, 3]> up_blocks_3_resnets_2_conv2_weight_to_fp16 = const()[name = tensor<string, []>("up_blocks_3_resnets_2_conv2_weight_to_fp16"), val = tensor<fp16, [384, 384, 3, 3]>(BLOBFILE(path = tensor<string, []>("@model_path/weights/weight.bin"), offset = tensor<uint64, []>(4515894592)))];
            tensor<fp16, [384]> up_blocks_3_resnets_2_conv2_bias_to_fp16 = const()[name = tensor<string, []>("up_blocks_3_resnets_2_conv2_bias_to_fp16"), val = tensor<fp16, [384]>(BLOBFILE(path = tensor<string, []>("@model_path/weights/weight.bin"), offset = tensor<uint64, []>(4518548864)))];
            tensor<fp16, [2, 384, 128, 128]> hidden_states_cast = conv(bias = up_blocks_3_resnets_2_conv2_bias_to_fp16, dilations = var_9614, groups = var_9477, pad = hidden_states_pad_0, pad_type = hidden_states_pad_type_0, strides = var_9612, weight = up_blocks_3_resnets_2_conv2_weight_to_fp16, x = input_735_cast)[name = tensor<string, []>("hidden_states_cast")];
            tensor<int32, [2]> var_9619 = const()[name = tensor<string, []>("op_9619"), val = tensor<int32, [2]>([1, 1])];
            tensor<int32, [2]> var_9621 = const()[name = tensor<string, []>("op_9621"), val = tensor<int32, [2]>([1, 1])];
            tensor<string, []> x_pad_type_0 = const()[name = tensor<string, []>("x_pad_type_0"), val = tensor<string, []>("custom")];
            tensor<int32, [4]> x_pad_0 = const()[name = tensor<string, []>("x_pad_0"), val = tensor<int32, [4]>([0, 0, 0, 0])];
            tensor<fp16, [384, 768, 1, 1]> up_blocks_3_resnets_2_conv_shortcut_weight_to_fp16 = const()[name = tensor<string, []>("up_blocks_3_resnets_2_conv_shortcut_weight_to_fp16"), val = tensor<fp16, [384, 768, 1, 1]>(BLOBFILE(path = tensor<string, []>("@model_path/weights/weight.bin"), offset = tensor<uint64, []>(4518549696)))];
            tensor<fp16, [384]> up_blocks_3_resnets_2_conv_shortcut_bias_to_fp16 = const()[name = tensor<string, []>("up_blocks_3_resnets_2_conv_shortcut_bias_to_fp16"), val = tensor<fp16, [384]>(BLOBFILE(path = tensor<string, []>("@model_path/weights/weight.bin"), offset = tensor<uint64, []>(4519139584)))];
            tensor<fp16, [2, 384, 128, 128]> x_cast = conv(bias = up_blocks_3_resnets_2_conv_shortcut_bias_to_fp16, dilations = var_9621, groups = var_9477, pad = x_pad_0, pad_type = x_pad_type_0, strides = var_9619, weight = up_blocks_3_resnets_2_conv_shortcut_weight_to_fp16, x = input_723_cast)[name = tensor<string, []>("x_cast")];
            tensor<fp16, [2, 384, 128, 128]> input_737_cast = add(x = x_cast, y = hidden_states_cast)[name = tensor<string, []>("input_737_cast")];
            tensor<int32, [5]> reshape_220_shape_0 = const()[name = tensor<string, []>("reshape_220_shape_0"), val = tensor<int32, [5]>([2, 32, 12, 128, 128])];
            tensor<fp16, [2, 32, 12, 128, 128]> reshape_220_cast = reshape(shape = reshape_220_shape_0, x = input_737_cast)[name = tensor<string, []>("reshape_220_cast")];
            tensor<int32, [3]> reduce_mean_165_axes_0 = const()[name = tensor<string, []>("reduce_mean_165_axes_0"), val = tensor<int32, [3]>([2, 3, 4])];
            tensor<bool, []> reduce_mean_165_keep_dims_0 = const()[name = tensor<string, []>("reduce_mean_165_keep_dims_0"), val = tensor<bool, []>(true)];
            tensor<fp16, [2, 32, 1, 1, 1]> reduce_mean_165_cast = reduce_mean(axes = reduce_mean_165_axes_0, keep_dims = reduce_mean_165_keep_dims_0, x = reshape_220_cast)[name = tensor<string, []>("reduce_mean_165_cast")];
            tensor<fp16, [2, 32, 12, 128, 128]> sub_110_cast = sub(x = reshape_220_cast, y = reduce_mean_165_cast)[name = tensor<string, []>("sub_110_cast")];
            tensor<fp16, [2, 32, 12, 128, 128]> square_55_cast = square(x = sub_110_cast)[name = tensor<string, []>("square_55_cast")];
            tensor<int32, [3]> reduce_mean_167_axes_0 = const()[name = tensor<string, []>("reduce_mean_167_axes_0"), val = tensor<int32, [3]>([2, 3, 4])];
            tensor<bool, []> reduce_mean_167_keep_dims_0 = const()[name = tensor<string, []>("reduce_mean_167_keep_dims_0"), val = tensor<bool, []>(true)];
            tensor<fp16, [2, 32, 1, 1, 1]> reduce_mean_167_cast = reduce_mean(axes = reduce_mean_167_axes_0, keep_dims = reduce_mean_167_keep_dims_0, x = square_55_cast)[name = tensor<string, []>("reduce_mean_167_cast")];
            tensor<fp16, []> add_110_y_0_to_fp16 = const()[name = tensor<string, []>("add_110_y_0_to_fp16"), val = tensor<fp16, []>(0x1.5p-17)];
            tensor<fp16, [2, 32, 1, 1, 1]> add_110_cast = add(x = reduce_mean_167_cast, y = add_110_y_0_to_fp16)[name = tensor<string, []>("add_110_cast")];
            tensor<fp16, [2, 32, 1, 1, 1]> sqrt_55_cast = sqrt(x = add_110_cast)[name = tensor<string, []>("sqrt_55_cast")];
            tensor<fp16, [2, 32, 12, 128, 128]> real_div_55_cast = real_div(x = sub_110_cast, y = sqrt_55_cast)[name = tensor<string, []>("real_div_55_cast")];
            tensor<int32, [4]> reshape_221_shape_0 = const()[name = tensor<string, []>("reshape_221_shape_0"), val = tensor<int32, [4]>([2, 384, 128, 128])];
            tensor<fp16, [2, 384, 128, 128]> reshape_221_cast = reshape(shape = reshape_221_shape_0, x = real_div_55_cast)[name = tensor<string, []>("reshape_221_cast")];
            tensor<fp16, [384]> add_111_gamma_0_to_fp16 = const()[name = tensor<string, []>("add_111_gamma_0_to_fp16"), val = tensor<fp16, [384]>(BLOBFILE(path = tensor<string, []>("@model_path/weights/weight.bin"), offset = tensor<uint64, []>(4519140416)))];
            tensor<fp16, [384]> add_111_beta_0_to_fp16 = const()[name = tensor<string, []>("add_111_beta_0_to_fp16"), val = tensor<fp16, [384]>(BLOBFILE(path = tensor<string, []>("@model_path/weights/weight.bin"), offset = tensor<uint64, []>(4519141248)))];
            tensor<fp16, []> add_111_epsilon_0_to_fp16 = const()[name = tensor<string, []>("add_111_epsilon_0_to_fp16"), val = tensor<fp16, []>(0x1.5p-17)];
            tensor<fp16, [2, 384, 128, 128]> add_111_cast = batch_norm(beta = add_111_beta_0_to_fp16, epsilon = add_111_epsilon_0_to_fp16, gamma = add_111_gamma_0_to_fp16, mean = add_1_mean_0_to_fp16, variance = add_1_variance_0_to_fp16, x = reshape_221_cast)[name = tensor<string, []>("add_111_cast")];
            tensor<fp16, [2, 384, 128, 128]> input_cast = silu(x = add_111_cast)[name = tensor<string, []>("input_cast")];
            tensor<int32, []> var_9635 = const()[name = tensor<string, []>("op_9635"), val = tensor<int32, []>(1)];
            tensor<int32, [2]> var_9638 = const()[name = tensor<string, []>("op_9638"), val = tensor<int32, [2]>([1, 1])];
            tensor<int32, [2]> var_9640 = const()[name = tensor<string, []>("op_9640"), val = tensor<int32, [2]>([1, 1])];
            tensor<string, []> var_9642_pad_type_0 = const()[name = tensor<string, []>("op_9642_pad_type_0"), val = tensor<string, []>("custom")];
            tensor<int32, [4]> var_9642_pad_0 = const()[name = tensor<string, []>("op_9642_pad_0"), val = tensor<int32, [4]>([1, 1, 1, 1])];
            tensor<fp16, [4, 384, 3, 3]> conv_out_weight_to_fp16 = const()[name = tensor<string, []>("conv_out_weight_to_fp16"), val = tensor<fp16, [4, 384, 3, 3]>(BLOBFILE(path = tensor<string, []>("@model_path/weights/weight.bin"), offset = tensor<uint64, []>(4519142080)))];
            tensor<fp16, [4]> conv_out_bias_to_fp16 = const()[name = tensor<string, []>("conv_out_bias_to_fp16"), val = tensor<fp16, [4]>([-0x1.c78p-11, -0x1.0c8p-10, 0x1.1bp-10, -0x1.dc8p-14])];
            tensor<fp16, [2, 4, 128, 128]> var_9642_cast = conv(bias = conv_out_bias_to_fp16, dilations = var_9640, groups = var_9635, pad = var_9642_pad_0, pad_type = var_9642_pad_type_0, strides = var_9638, weight = conv_out_weight_to_fp16, x = input_cast)[name = tensor<string, []>("op_9642_cast")];
            tensor<string, []> var_9642_cast_to_fp32_dtype_0 = const()[name = tensor<string, []>("op_9642_cast_to_fp32_dtype_0"), val = tensor<string, []>("fp32")];
            tensor<fp32, [2, 4, 128, 128]> noise_pred = cast(dtype = var_9642_cast_to_fp32_dtype_0, x = var_9642_cast)[name = tensor<string, []>("cast_649")];
        } -> (noise_pred);
}